notebooks/figs/models-for-figs/s_d400-v2.pt (torch, 759583 bytes, 10 tensors)

weight f4 [150, 401]
000000 35 06 c2 3c 69 66 6d 3d cd 9a e5 3b 53 89 a7 bc
       0.0236846 0.057958994 0.007006979 -0.020451223
000010 18 9c 90 3d 4b 27 a5 bd 96 18 2c 3c 4e f9 75 3d
       0.070610225 -0.08064135 0.010503909 0.06005221
000020 89 79 9a bd 56 fd a4 3c 19 12 b4 bc e3 24 d2 bc
       -0.07542712 0.020140331 -0.021981286 -0.025652355
000030 67 ea 3e bd 24 14 29 3d 6e fc 1c 3c 2f ed d6 3c
       -0.046610262 0.041278973 0.009581668 0.026236145
000040 ae f2 37 3d e3 d3 55 3d de 5f fe 3d 77 4a 6a 3d
       0.04490917 0.052204024 0.12420629 0.05719992
000050 0d 55 b1 bd e0 de 12 3d 1d 25 a2 39 cb b9 67 bd
       -0.086588 0.03585708 0.000309267 -0.05657367
000060 21 13 dd bc 29 3f b0 3d bc ff 5b 3c 2c 87 89 3c
       -0.02698666 0.08605797 0.013427671 0.016788088
000070 bc f2 34 bd de 28 6e 3b ce 6d 01 3e eb 6d 61 bd
       -0.044176802 0.0036340277 0.12639543 -0.055036467
000080 29 91 ed 3d a1 b8 5d 3d ec c2 7d bd 98 00 90 3c
       0.11599953 0.054131154 -0.06195347 0.017578408
000090 39 19 f5 bd c1 f8 0c bd 6e 87 68 bc 74 c4 a1 3c
       -0.119677015 -0.034416918 -0.014192445 0.019746996
0000a0 9e 54 18 be 75 2b 81 3d 7f 79 f2 3c 38 57 58 3d
       -0.14876029 0.06307117 0.02959895 0.052817553
0000b0 03 c6 53 bd 1a 14 f8 bd 54 a1 1c be 72 67 b0 3c
       -0.05170251 -0.12113209 -0.15295917 0.021533702
0000c0 58 17 fe bd e7 c9 1f bd a7 9c 8d bd d5 ff ab bd
       -0.12406796 -0.03901091 -0.06914645 -0.083984055
0000d0 21 a3 01 be 54 64 26 bd f5 15 ca 3d 0d 48 b4 bd
       -0.12659885 -0.040623024 0.09867469 -0.08802805
0000e0 35 6f 9c 3d 9a 46 1b bc 32 17 7a bd 0b 5d f7 bc
       0.076383986 -0.009477282 -0.061057277 -0.030195734
0000f0 68 d2 d8 3d 1d 45 fd bd 57 e7 63 bd e8 f3 99 3c
       0.10587007 -0.12366698 -0.055640545 0.018793061
000100 8b 85 23 bd 59 a4 0c 3e b2 0b ad bc 89 f4 17 be
       -0.03992228 0.13734569 -0.02112374 -0.14839377
000110 28 9c 41 3d b4 7f 7a 3d 89 54 0e bd 5b 0d 2e 3d
       0.047268063 0.061156943 -0.034748588 0.042493206
000120 f1 71 52 3e 03 68 55 3d 09 3e dd 3d aa e3 23 bd
       0.20551278 0.052101146 0.10802848 -0.04001204
000130 5e 9a b1 bb 0d be 79 bd f4 2d 8e bd c2 42 9d bd
       -0.0054200133 -0.060972262 -0.069423586 -0.07678749
000140 45 a4 14 3e bd c9 d8 3d fc cd bc 3d 05 78 10 be
       0.14515789 0.105853535 0.09218976 -0.14108284
000150 5f 07 4d 3d 97 85 28 bc 16 51 23 be 16 58 26 bc
       0.050055858 -0.010285757 -0.159489 -0.010152837
000160 f3 a8 7b 3d a9 3b 0d bd a1 5d cc 3d cf 4e e3 bd
       0.06144042 -0.034480724 0.09978796 -0.11099016
000170 7a de ed 3b 8c 7a 14 3d 3f 4c 9b bd 86 cb af 3d
       0.0072591873 0.036249682 -0.07582902 0.08583741
000180 d7 8e 89 bd 3c c2 ad 3b da dc 27 3c ab 7c 7f 3c
       -0.06716698 0.0053026956 0.010245526 0.015593688
000190 11 46 41 bd ef 7a 5f bd 8e f6 89 bd 12 63 a1 bd
       -0.04718596 -0.054560598 -0.0673648 -0.07880224
0001a0 da ef 2c bd 15 40 83 be 01 ed c2 bc 76 c1 c5 bd
       -0.042220928 -0.25634828 -0.023794653 -0.0965604
0001b0 a5 fe 23 bd 6e 5e 15 3d 9d 7e 2e 3d a9 35 d9 3d
       -0.04003777 0.03646701 0.042601217 0.10605938
0001c0 f7 12 e5 bd c2 38 b6 bd 77 b8 32 bc 06 36 ca 3d
       -0.11185258 -0.088975444 -0.010908238 0.098735854
0001d0 59 a7 27 bd 41 c5 9b bc 42 41 62 3d 3a 7e 17 3e
       -0.04093108 -0.019014956 0.055238016 0.14794245
0001e0 9a 22 28 3c b6 b9 b3 3c a0 15 16 3d 2d 17 9e bc
       0.010262156 0.02193914 0.036641717 -0.01929816
0001f0 f7 2e 9e bc 63 71 03 3e a8 62 f7 bd ba 50 a6 3d
       -0.019309504 0.12836222 -0.12079364 0.08120866
000200 94 07 57 3d 01 7f 1e 3c 22 ee e6 bc 24 b9 12 bd
       0.05249746 0.009673835 -0.028189722 -0.035821095
000210 59 d0 bf bd ba f5 6b bd 3c 99 85 bd d1 d7 c9 3d
       -0.09365911 -0.05760739 -0.06523368 0.09855617
000220 fc 04 28 3d 17 09 41 be 7b 2f ba bc 87 36 8d bc
       0.04102038 -0.18851124 -0.022727719 -0.017237915
000230 07 8b be bc f4 a2 8b bd 54 51 74 3d bd 99 4b bd
       -0.023259653 -0.0681819 0.059647873 -0.049707163
000240 1b f3 82 3d 97 5c cd bd 8b 7d 7c 3d a5 49 40 3c
       0.06394025 -0.10027426 0.061643165 0.011736308
000250 ed 8e f8 bd 24 47 71 3c b0 f7 35 3d 3b b4 2d bd
       -0.12136636 0.014726434 0.044425666 -0.04240821
000260 01 85 5c 3d 89 1e 65 3d 74 a4 0f be cb 6c 20 bd
       0.05383778 0.055937324 -0.14027578 -0.039166253
000270 e2 5d e4 bc 68 17 82 bc 7b a5 4c 3d ef 34 36 bd
       -0.027876798 -0.015880302 0.049962502 -0.044484075
000280 f4 41 b8 3d ab 4a a5 bc 5d 06 d0 3b 67 df 3f ba
       0.089969546 -0.020177206 0.006348415 -0.00073193613
000290 8a d3 15 3d af b1 98 bd c4 a7 b0 3d 22 cc 2c 3d
       0.036578692 -0.074557655 0.08625749 0.042186864
0002a0 72 cf 80 bd 86 43 f7 bd 6d 0e 47 bc e8 43 66 bd
       -0.06289567 -0.12073426 -0.0121494355 -0.056217104
0002b0 cd 63 e8 3d 0a 4c 2a 3e 9f 4c ba bc 9f 48 b3 bd
       0.113471605 0.16630569 -0.022741614 -0.08754086
0002c0 69 7e 7f bd fe 42 82 bd d5 08 d5 bd d7 cd cb bd
       -0.062376413 -0.06360434 -0.10402075 -0.0995137
0002d0 3e ef f8 3c 39 8e d6 3c bc d2 c7 3d 8d 2d 1d be
       0.030387517 0.026190864 0.09756991 -0.15349407
0002e0 03 ce 86 3d 71 5b be 3c cc 50 89 3d dc cd e4 bc
       0.06582262 0.023236962 0.06704864 -0.027930193
0002f0 c7 41 51 3c e7 9e 11 3d 5a e6 97 bd 72 94 66 bd
       0.01277203 0.03555193 -0.07416983 -0.056293912
000300 89 e8 03 bd 97 7d 29 be c9 df 28 bb 4e fd 13 3d
       -0.032204185 -0.16551815 -0.0025768152 0.036130242
000310 1a f3 d1 bd ef 16 53 bd 73 d4 49 3d 85 4a 42 bd
       -0.10251446 -0.051535543 0.049274873 -0.04743435
000320 86 31 25 be 1a 78 f3 3c fd 44 a4 bd 22 44 08 be
       -0.16132173 0.029720355 -0.08020971 -0.1330724
000330 57 e9 30 bd 1b 44 b9 bc e6 00 94 bc 24 09 8a bd
       -0.04319128 -0.022615483 -0.018066835 -0.06740025
000340 50 25 31 3d 6d 17 b9 bd e4 de 9b bd 2e 11 ec 3c
       0.043248475 -0.09037671 -0.076108724 0.028816786
000350 47 41 80 3d bd 32 1c bd d7 ab 45 3b 4a e5 bf 3c
       0.06262451 -0.038134325 0.003016224 0.023424763
000360 aa 7f b2 3c 4e b8 e9 3d 16 e8 5c 3c 0b 5b 43 3d
       0.02178939 0.114121065 0.013483068 0.047694247
000370 13 4c 0b bc a1 29 a3 bc e9 2e 0d 3c 48 3e ca 3d
       -0.008502024 -0.019917311 0.008617141 0.098751605
000380 6b 6e 48 bd 0c 30 f8 bc 8c 35 c6 bd 82 d7 17 3d
       -0.048933428 -0.030296348 -0.09678182 0.03707076
000390 57 2d 52 3d 10 fb 9c bd fd 1e 03 3d 0d e2 c0 3b
       0.05131277 -0.07665074 0.032011975 0.0058863224
0003a0 eb 3c 32 bd 83 d4 92 bb 63 93 07 bd b3 fc a1 3c
       -0.043515127 -0.0044809 -0.033099543 0.019773817
0003b0 ee ff 00 3e dd 9e 81 bd 87 cb 9e bd 27 f3 c2 3c
       0.1259763 -0.06329129 -0.077536635 0.023797585
0003c0 21 81 98 bd 62 08 ad bb 46 cc b0 3c e5 ec 6f bb
       -0.074465044 -0.0052805403 0.02158178 -0.0036609706
0003d0 4f 46 6a bd cf 5c c1 3b 65 e2 73 bd f7 3f 9e bd
       -0.057195958 0.005900956 -0.05954208 -0.07727044
0003e0 58 62 2a be 98 04 26 3d 9f 10 a0 3c 59 ca c9 3a
       -0.16639078 0.040531725 0.019539176 0.0015395387
0003f0 ec 47 0c 3d 76 e6 47 bd a7 b6 45 bc 5c da 99 bd
       0.034248278 -0.04880377 -0.0120674735 -0.07512352

bias f4 [150]
000000 76 d8 89 3d bd 03 13 3d 8c c6 dc 3d 1a ed e4 3d
       0.0673074 0.035892237 0.10780057 0.11178036
000010 56 16 c5 3d b7 ed e2 3d 75 7a 7d 3d ed d4 19 3e
       0.09623401 0.11080497 0.061884362 0.15022631
000020 61 22 a1 3d 9f 25 c1 3d d1 88 f1 3d 8a de 45 3d
       0.078678854 0.09431004 0.11793674 0.048307933
000030 71 67 60 3d 18 ac 28 3d ab 6c d5 3d 16 18 d1 3d
       0.05478615 0.041179746 0.104211174 0.10209672
000040 6a ee 3b 3d be d2 c4 bc 90 b7 43 3d 40 52 b9 3d
       0.045881666 -0.024026271 0.04778248 0.09048891
000050 7f af a1 3d ed 34 9c 3d 5d c1 6a 3d de 77 ec 3d
       0.07894801 0.07627282 0.05731331 0.115463
000060 7c eb 08 3d d0 47 9f 3d fd d7 8c 3d 12 c0 d8 3d
       0.0334277 0.07777369 0.06877134 0.105835095
000070 09 c2 04 3e 49 6b 0c 3e d0 a3 4c 3d 13 0a df 3d
       0.12964644 0.13712801 0.04996091 0.108905934
000080 8e 05 df 3d 7d 0e ff 3d 14 2c f7 3d 76 d7 98 3d
       0.10889731 0.12453935 0.12068954 0.07462971
000090 e2 02 32 3e 72 26 e8 3d 36 a9 02 3d bd 75 fd 3d
       0.17383912 0.11335458 0.031899653 0.123759724
0000a0 b6 24 0d 3e e5 8f 71 3d b5 9d c9 3d ac b7 f3 3d
       0.13783535 0.05897512 0.09844533 0.11900267
0000b0 33 e5 b7 3d 9b 1f cb bb a5 0e 17 3e 75 a1 92 3d
       0.08979263 -0.006198836 0.1475168 0.07159702
0000c0 8a e9 ad 3d ec 30 23 3e 39 10 ac 3c 6e 45 88 3d
       0.0849181 0.15936631 0.02100383 0.06653868
0000d0 42 b1 ba 3c e1 5d 58 3d 0e 72 21 3e 37 3b 8b 3d
       0.022789601 0.052823905 0.15766165 0.06798404
0000e0 95 63 04 3e a9 9c 75 3c 8e a4 b7 3d 78 ba a3 3d
       0.12928613 0.014990964 0.08966933 0.079945505
0000f0 c1 a1 5c 3d 8d 60 d8 3d b3 f3 9f 3d ee 2b b3 3d
       0.053865198 0.105652906 0.07810154 0.08748613
000100 c3 90 de 3d 0b 13 d6 3d 56 a0 41 3e 56 d3 e9 3d
       0.10867455 0.10452851 0.1890882 0.11417262
000110 bc 44 bc 3d 0b b9 4d 3d 70 23 2f 3d 7f 74 a9 3d
       0.091927975 0.0502253 0.042758405 0.08274173
000120 39 69 92 3d 14 62 4c 3d f0 65 03 3e a8 0d 1c 3e
       0.07148976 0.049898222 0.12831855 0.15239584
000130 26 6f d2 3d cf 0f e4 3d 30 fb e5 3d fb 8d a5 3d
       0.10275106 0.11135828 0.11229551 0.08083721
000140 ed e3 b0 3d 40 d1 93 3d f2 48 35 3d 54 18 ce 3d
       0.086372234 0.07217646 0.04425902 0.10063234
000150 49 60 86 3d 71 40 1e 3e ab 80 84 3d 34 9f af 3d
       0.06561334 0.1545427 0.06469854 0.085752875
000160 70 ed 85 3d fe 6b 0b 3e 07 a4 8f 3d f5 c7 b6 3d
       0.06539428 0.13615415 0.070137076 0.089248575
000170 cb e6 de 3d 9c eb ab 3d 77 9b f3 3c a0 b1 d9 3d
       0.10883864 0.08394548 0.029737217 0.106295824
000180 83 5a a5 3d 50 e1 1a 3e 71 9a f0 3d a9 58 9d 3d
       0.08073904 0.15125012 0.11748207 0.07682926
000190 a9 85 8a 3d 0b 10 a2 3d 28 58 36 3d a6 9b 61 3d
       0.06763775 0.07913216 0.044517666 0.05508008
0001a0 26 d0 2a 3e 3b 94 e5 3d 54 77 f3 3d 94 69 21 3d
       0.16680965 0.11209913 0.118879944 0.039407328
0001b0 bf 8b 98 3d 73 18 b6 3d d1 bf 85 3d 7d 59 02 3d
       0.074485295 0.08891382 0.06530727 0.031823624
0001c0 f3 7c 03 3e ec 7d 6c 3d 15 8f 03 bc c8 59 30 3d
       0.12840633 0.057737276 -0.008029719 0.043054372
0001d0 e4 1f 88 3d 0b ad 92 3d 68 00 58 3d 06 4f d9 3d
       0.06646708 0.071619116 0.052734762 0.10610776
0001e0 b0 fc e8 3d 6f 8d 16 3e 26 8b ad 3c 1f ff 87 3d
       0.11376321 0.1470239 0.021184515 0.06640457
0001f0 de 6d 2c 3e 0d 95 80 3d be c5 3b 3d 9a 0e 46 3d
       0.16838786 0.06278429 0.04584288 0.04835377
000200 da ab 96 3d bb 84 f9 3d 40 e5 1b 3e 63 af a2 3d
       0.07356997 0.121835195 0.1522417 0.079436086
000210 6e 62 e8 3d 3a 51 bd 3d a8 97 22 3e cb d3 a8 3d
       0.11346899 0.09244008 0.15878165 0.08243521
000220 76 5b 05 3e 2d 37 40 3e e9 21 a6 3d 68 e9 16 3e
       0.13023171 0.18771048 0.081119366 0.14737475
000230 f2 5f 80 3d a0 7e 99 3d 7f 15 be 3c 5b 52 c0 3d
       0.062683 0.07494855 0.02320361 0.09390708
000240 03 30 0d 3e ee 61 a1 3d 36 b0 ff 3d 91 8c 0d 3e
       0.13787846 0.07880007 0.124847814 0.13823153
000250 f9 3a 4a 3d e7 7c 39 3d
       0.049372647 0.04528513

weight f4 [150, 150]
000000 a1 18 d3 bc 7f c7 84 bd 2a 61 2a bc 2e 6e 18 bd
       -0.02576858 -0.06483363 -0.010399142 -0.03721445
000010 98 d7 6b bd f9 ba b0 3d a0 28 32 3b 2c d6 57 3d
       -0.057578653 0.08629412 0.002718486 0.052694485
000020 07 ff e3 bd d0 c1 b1 3c 70 be 46 bd ed 63 24 3d
       -0.11132627 0.021698862 -0.04852146 0.04013436
000030 af b0 08 be 4b 50 9a 3d 65 c2 38 3d 36 3e 93 bc
       -0.1334865 0.07534846 0.045107264 -0.017974
000040 cc 33 f6 bc e7 80 ef 3d 2f e3 3f bd d8 66 3f 3d
       -0.030053996 0.11694508 -0.04684752 0.04672894
000050 bb 55 92 bd c2 65 51 3d b6 c4 2f 3c 3e 52 9d bc
       -0.07145258 0.051122434 0.010728052 -0.019204255
000060 fb c7 04 be 3c ed d9 3b bb 46 05 3b 6e a7 ec 3c
       -0.12966911 0.006650595 0.0020336348 0.02888843
000070 c6 43 c0 3c ad 14 7f 3d 39 f1 8f bd 40 b1 9b 3c
       0.023469817 0.062275577 -0.070284314 0.019005418
000080 ca 50 4d bd 73 3d 0d bd d9 79 ae 3d 35 c5 94 bd
       -0.050125875 -0.03448243 0.08519334 -0.07264177
000090 52 df 36 bd c5 7d 40 3d e7 10 a3 3d 69 50 bf 3d
       -0.04464657 0.046994943 0.07962208 0.09341509
0000a0 b4 ee 60 bc 75 b5 14 3d d6 d1 11 3e 0d 2d ea 3d
       -0.013728786 0.036305863 0.14240202 0.11434374
0000b0 81 b0 21 3d 3b 40 40 bc a6 3c b1 3c 37 c5 b0 3c
       0.039474968 -0.011734064 0.021635365 0.021578414
0000c0 7d ee ff 3c b3 c9 92 bd 85 9f e7 bd 82 2e ba 3c
       0.03124165 -0.07167377 -0.11309723 0.022727255
0000d0 24 84 a8 3d db a8 4b bb 7c df b9 bc 84 e6 8f bd
       0.08228329 -0.0031075987 -0.022689573 -0.07026389
0000e0 bc 38 06 3e dd a1 8a 3c 81 2c 72 bc ae aa 97 3c
       0.1310758 0.016922886 -0.014781118 0.018514004
0000f0 16 fa f5 3c 67 e0 26 bc 99 eb 4d 3d b7 06 1c bd
       0.030026477 -0.010185338 0.05027351 -0.03809234
000100 83 e6 90 bd a2 0d 2c 3d 4e 8b 20 3d b5 1c b0 3d
       -0.070752166 0.04200519 0.03919535 0.085992254
000110 17 cd e8 bc aa 0d 92 3c 2b 16 74 3d fa 28 83 3d
       -0.028418107 0.017828781 0.059591454 0.064043
000120 08 d7 82 3c 1f c2 6f bc db c6 b5 3d da b1 ad bd
       0.015971676 -0.014633684 0.08875819 -0.08481188
000130 65 02 69 bd c7 c8 15 3d 1a 74 80 3c d2 68 9b bd
       -0.05688705 0.03656843 0.015680362 -0.07588352
000140 70 f1 84 3d e5 bb a8 bd e4 02 a1 bd 1f bb 34 bd
       0.06491363 -0.08238963 -0.078618795 -0.044123765
000150 7a 9e 33 bc 75 de e3 3d 78 4f b2 3d bf 62 ef bd
       -0.010963077 0.11126415 0.08706564 -0.11688756
000160 10 6a d1 bc a7 4e 81 3b 4f b1 cf bd df 44 97 bc
       -0.02556327 0.0039461437 -0.10141241 -0.018465457
000170 9c 0b 41 bd 52 26 6b bd bb 15 13 bd e1 8a c9 3d
       -0.047130212 -0.057409592 -0.035909396 0.09840942
000180 5b 90 2a 3d 5f 3e ef bd 5b 9c 79 3d ea 17 2b bd
       0.041641574 -0.11681818 0.060940128 -0.041770853
000190 8a ca c4 3d 74 01 8d bc 44 8d b7 3c 6a e8 e7 3c
       0.09608944 -0.017212607 0.022406228 0.028309066
0001a0 10 05 8f ba 3b 5e 79 bd ad 66 b4 3d c4 c7 fd 3d
       -0.0010911543 -0.06088088 0.08808646 0.12391618
0001b0 f9 80 77 3d a4 de f7 3c d5 95 ee 3d 27 a4 a5 3d
       0.060425732 0.03025753 0.11649672 0.0808795
0001c0 16 13 30 3b bc b8 8d bd 13 f6 7e 3d 0e d4 d2 bd
       0.0026866845 -0.06920001 0.062246393 -0.102943525
0001d0 6b ce 6a bd 75 d2 aa 3b 36 ad 4b bd ed 58 68 3c
       -0.05732576 0.0052130767 -0.049725734 0.014181358
0001e0 2a 1f cf bd eb 2f a0 3d ec 05 8f 3c 8f 32 dc bd
       -0.10113366 0.078216396 0.017458878 -0.10751831
0001f0 7a aa 10 bc 0c 37 5a 3d 54 69 87 bc 0a c9 b8 bd
       -0.008829707 0.053275153 -0.016529717 -0.0902272
000200 c2 08 97 3c 82 91 42 3d a8 df 29 3d e3 4b 8e 3d
       0.018436793 0.04750205 0.04147306 0.06948068
000210 2c e8 d9 3c 4a 49 03 3e 57 c0 cc 3d de 1a 1d 3d
       0.026599966 0.12820926 0.099976234 0.0383557
000220 8c a5 ee bc 76 40 a1 bd 05 82 6e 3d 72 d5 6c bd
       -0.029131673 -0.07873623 0.058229465 -0.057820745
000230 3b 64 9d 3d 10 4a 15 bd 8d b6 15 3c f6 48 04 3e
       0.07685133 -0.036447585 0.009137762 0.12918457
000240 87 52 c7 bd 44 0b e6 3d 16 bb d6 3c 49 82 a4 bd
       -0.09732538 0.112326175 0.026212256 -0.080326624
000250 77 1e 8e 3d b5 3e eb bd 63 1e c8 3c 49 dc cb 3c
       0.069394045 -0.1148657 0.024428552 0.024885314
000260 6f 35 77 bd c2 a2 a7 3c 1d e7 9d 3d 22 b2 74 bd
       -0.060353693 0.020463351 0.07710097 -0.059740193
000270 4d 30 13 3d fb 10 96 3d df 9e b8 bc d8 e9 1a bc
       0.035934735 0.073274575 -0.022536693 -0.009455167
000280 23 45 6a bd 08 33 80 bc f1 87 0b 3e 04 14 8d 3c
       -0.05719484 -0.015649334 0.13626076 0.017221458
000290 ab df 24 3d 8a 2e 6b 3d f8 73 38 bd 40 17 2f bd
       0.04025237 0.05741743 -0.04503247 -0.042746782
0002a0 27 93 af bd 2e 0d 74 bc 68 5c e9 3d d3 0d 88 3d
       -0.08572989 -0.01489572 0.11394578 0.06643262
0002b0 f0 5a ed 3d c4 f0 1f 3d cc f6 40 bd da 4e b3 bd
       0.115896106 0.03904797 -0.047110364 -0.08755274
0002c0 af 10 71 3c 67 18 da 3c 81 ce d6 3c ce 09 02 3d
       0.01471345 0.026622964 0.026221516 0.03174763
0002d0 5a a2 89 bd ab 71 f6 3b a6 ec a2 bd 00 db 47 3d
       -0.06720419 0.0075208745 -0.07955293 0.04879284
0002e0 73 0f dc 3d eb 8d 1e be 7a 4e 62 bd c6 48 a2 3d
       0.10745134 -0.15483825 -0.055250622 0.07924037
0002f0 24 af 24 bd e8 bd 74 3d 71 ee c7 bd e0 02 99 bc
       -0.04020609 0.05975142 -0.09762276 -0.018678129
000300 83 4f 04 3d 12 a3 44 bd 3a 41 c2 3c a6 e9 91 3d
       0.03230239 -0.04800708 0.023712743 0.07124643
000310 b4 e1 45 bd 03 cd 44 bd 73 05 ad bd 0e 32 90 3d
       -0.04831095 -0.048047077 -0.08448305 0.07040797
000320 80 e7 15 3d f2 07 98 3d a1 09 23 bc e7 91 b7 3c
       0.03659773 0.074233904 -0.009951026 0.022408439
000330 e3 15 c3 bd a0 ef f2 3d 1b 6f 9c 3d 54 d0 36 bd
       -0.09525659 0.11862111 0.07638379 -0.04463227
000340 d6 93 2d bb e9 45 f1 3c 4b e9 13 3d 93 b2 45 bd
       -0.0026485822 0.029452281 0.036111157 -0.048266005
000350 e6 5e d7 bb f9 0b a7 3d 43 13 36 bd 5c 8b 65 bd
       -0.006572592 0.081565805 -0.044451963 -0.056041107
000360 e3 25 3f 3c 39 fb ab 3c 9e aa e4 bc a2 67 d9 bc
       0.011666748 0.020993816 -0.027913388 -0.026538674
000370 15 a2 09 3d ec fd e1 3d fc ef 74 3c 25 f7 97 bd
       0.03360184 0.1103476 0.014949795 -0.07420186
000380 d4 bc 75 bc e2 ed 6d 3c 2e 95 08 3d 80 3c 7e 3b
       -0.014998633 0.014522048 0.033345394 0.0038793385
000390 50 47 dc bd 29 9b ba 3d 06 33 c3 bd d4 26 d4 3c
       -0.10755789 0.09111626 -0.09531216 0.025897421
0003a0 2b d3 b1 3d 00 41 bd bd 7f ab 1d bd c4 39 b4 3c
       0.08682855 -0.092409134 -0.03849363 0.022000201
0003b0 a2 e7 b3 bb 28 2d 93 b9 ea 42 06 bd 2b 02 b5 3d
       -0.0054902593 -0.0002807167 -0.032778658 0.08838304
0003c0 da 1b d0 3d 2f 1b 06 bd 8f e9 62 3d 18 e3 ae bb
       0.10161562 -0.032740768 0.05539852 -0.0053371303
0003d0 40 f9 fa 3d 3a 04 85 bd c5 5b 7b 3d 7e 7d 6e 3d
       0.12254572 -0.06494947 0.061366815 0.058225147
0003e0 64 cb 95 3d 8f d9 be 3c 40 20 d2 3c 29 6e 04 3e
       0.07314184 0.0232971 0.025650144 0.12932648
0003f0 47 02 a6 bd 84 d7 98 bd 08 d5 43 3d 41 fb 01 3d
       -0.08105903 -0.07462981 0.047810584 0.031733755

bias f4 [150]
000000 56 7e 60 3c 02 df 3e bd 33 6e 33 bd fc 27 8a 3c
       0.013701996 -0.046599396 -0.043806266 0.01686477
000010 ef 67 95 b8 b6 02 95 3d 5d 24 37 bd fe 79 d9 bc
       -7.124233e-05 0.07275908 -0.044712413 -0.026547428
000020 61 bd 40 bc fa 43 4c bc 0e 2f e9 bc a8 3c e5 3a
       -0.011763901 -0.012467379 -0.02846482 0.001748939
000030 92 9a 1e bd b7 5d 74 bd c7 c2 08 bd 70 af b9 3d
       -0.03872163 -0.059659686 -0.03338888 0.09066665
000040 0b 60 ac bc f1 42 81 bc 17 26 38 3d 9e bd 1d 3d
       -0.02104189 -0.01577899 0.0449582 0.03851091
000050 ec 97 60 3d 25 fe 81 3d 1a 2e 0a bd e2 75 a6 3c
       0.054832384 0.06347302 -0.033735372 0.020319883
000060 6b 68 ee 3b 64 1c 23 3d d0 ff bc 3c 1e 0e 8f 3d
       0.007275631 0.039821997 0.0230712 0.069851145
000070 a0 9c 02 3d 60 bc ec 3c 70 d9 4f bc 90 9e 4d bd
       0.03188765 0.028898418 -0.0126861185 -0.050200045
000080 c0 1a 99 3d cd 7c 3f bc 8f 70 52 3d d5 17 c4 3c
       0.07475805 -0.01168747 0.051376875 0.023937145
000090 1d 5a 9c bc 23 78 58 bc 92 ab ea bc 65 08 87 3c
       -0.019085938 -0.013212237 -0.028646264 0.016483495
0000a0 f0 28 b1 bd 1c 2d 9a bc a1 0d 3c bd 3d 33 10 bd
       -0.08650386 -0.018820338 -0.045911435 -0.035205115
0000b0 39 98 b0 bc 1d 1f 97 bd f5 02 57 3d ce 00 c4 3c
       -0.02155696 -0.07378981 0.052493054 0.023926165
0000c0 81 f8 9e 3c f5 d1 f2 3c 9b b8 88 bc 72 c8 7e bc
       0.019405605 0.029641131 -0.01668959 -0.01555072
0000d0 17 d8 3f bc d0 db 37 3d b3 6c 41 bd a2 85 2d bb
       -0.011709235 0.044887364 -0.047222804 -0.0026477356
0000e0 a9 d2 96 bd e9 36 7b bd 9b f8 3a bd 78 74 04 bc
       -0.07364399 -0.061331663 -0.045647245 -0.008084409
0000f0 5f 39 ac 3d 50 4c 4b 3d 57 10 86 bd 44 8b 57 3d
       0.0840938 0.049633324 -0.06546085 0.05262305
000100 a2 39 8c 3d 79 e2 ce bb fe b9 c5 3b 13 6e 10 3d
       0.0684693 -0.0063136187 0.006034135 0.035261225
000110 8b db cf 3c 89 ab 04 3d 0a fe 30 3b 98 a2 aa 3b
       0.025373241 0.03239015 0.0027006888 0.005207371
000120 b7 d7 c2 bc 58 80 e8 ba d1 37 99 3d ee 4b 5f bb
       -0.023784501 -0.0017738445 0.07481349 -0.0034072357
000130 31 45 b3 3c 3d 8f 62 3d 42 22 80 3d 24 29 09 bd
       0.021883579 0.055312384 0.06256534 -0.0334865
000140 d9 08 04 bc 2f 29 4e 3d 48 44 1e 3d 91 46 94 3d
       -0.00805875 0.050332244 0.038639337 0.07240022
000150 64 47 86 3d a7 25 21 3c ec 63 8e bd bb 04 99 3d
       0.065565854 0.009835637 -0.06952652 0.074716054
000160 d9 b0 ad 3d e6 c7 19 bd 6c df a0 bc 60 e0 d4 3c
       0.08480997 -0.037544154 -0.019637786 0.025985897
000170 8c 06 f0 bc 6d c7 5d 3d d4 62 01 bc 74 8a e3 3c
       -0.029299997 0.054145265 -0.007897098 0.02777598
000180 99 1b a2 bd 3e f3 91 3c 72 76 96 bd 49 5a 65 3b
       -0.0791542 0.017816182 -0.073468104 0.003499644
000190 39 77 09 bd f1 d2 3f 3d cd d9 6f bd 82 2f 9c 3c
       -0.033560965 0.04683203 -0.05855732 0.019065622
0001a0 b5 8a d4 3d 05 87 76 3d 87 1c 9c 3c 60 00 30 ba
       0.10378019 0.06018736 0.019056572 -0.0006713923
0001b0 88 1c 8d 3a 28 b4 c3 bd e2 da 96 3d b1 82 e7 bc
       0.0010765949 -0.095558465 0.07365967 -0.02826056
0001c0 a8 1c 21 3c 2e bb 7e 3d 3c 7c 28 bd 67 a9 66 3d
       0.009833492 0.062190227 -0.041134104 0.0563139
0001d0 7a 82 ca bc a2 1c a0 3b dd 7f 11 bc d7 00 63 3c
       -0.02472042 0.004886226 -0.008880583 0.013855181
0001e0 04 2b 4a bd 7d f8 bb bc 2a ba 6f 3d 4a 82 29 3d
       -0.04935743 -0.022945637 0.05852715 0.04138402
0001f0 0d 84 27 3d 43 1a 03 3c 82 e6 f7 ba 57 29 59 3c
       0.040897418 0.008001867 -0.0018913301 0.013254485
000200 f1 42 01 3d c6 f2 51 3d ab 7e a7 bc d1 bd 63 bd
       0.03155798 0.051256917 -0.020446142 -0.055600945
000210 f2 4b f9 bc 28 6c 84 3d 41 0e b7 bc 6d 47 92 bd
       -0.030431721 0.06465942 -0.022345664 -0.0714253
000220 3a 4c 5f 3c 9b 9a 29 3d 59 3e 0f bd 54 90 66 3d
       0.013629014 0.04140721 -0.03497157 0.056289986
000230 e0 74 2c bd ed 6f 86 3d f8 c3 46 bd 32 e5 98 bd
       -0.04210365 0.06564317 -0.048526734 -0.074655905
000240 1c 44 88 bc cc 46 6e 3c c9 2b c6 bd 63 be 3a 3d
       -0.01663404 0.0145432465 -0.0967632 0.045591723
000250 64 3f 0a 3d 2c 58 a6 3c
       0.03375186 0.020305716

weight f4 [150, 150]
000000 51 18 db 3d 8a 26 19 3d 96 65 e2 bc a7 b8 ff 3d
       0.10697997 0.03739027 -0.02763633 0.124863915
000010 64 8e 93 bc a3 16 18 bd 93 00 aa 3d d5 cf aa 3d
       -0.018012233 -0.037130963 0.08300891 0.08340422
000020 10 01 e9 3d d6 75 cc bb bd 8a 6a 3d b9 94 1e 3c
       0.11377156 -0.006239633 0.057261217 0.009679013
000030 3a 32 5e 3d 6f 66 b9 3d c9 7e 29 bc 93 16 10 3d
       0.05424712 0.09052741 -0.010345169 0.03517778
000040 b3 66 c2 bd 74 32 82 3c e7 55 59 3b 74 11 0a bd
       -0.094922446 0.015893199 0.0033162774 -0.03370805
000050 d5 dd 6b 3d 17 1f 5a 3c c8 61 2b 3d 01 96 98 3c
       0.057584602 0.013313076 0.0418413 0.018626215
000060 f5 c7 79 bd ca 6a 08 be 73 48 db 3d 03 25 16 3d
       -0.06098171 -0.13321987 0.10707178 0.03665639
000070 80 e2 f1 3d 68 61 0f 3e 48 64 e8 bb cf a4 ac 3d
       0.118107796 0.14002001 -0.0070920326 0.08429872
000080 ef 0c a2 3d b0 3b be 3d 6c f1 e2 bb e4 40 dd 3d
       0.07912623 0.09288728 -0.0069257524 0.108033925
000090 68 e2 2e 3c 10 5e 40 bd 94 89 09 3c b4 dc 97 bc
       0.010674097 -0.046964705 0.008394618 -0.018537857
0000a0 4c c2 c2 3d 11 95 b6 3c 33 56 81 3d 26 f2 a3 bb
       0.095097154 0.022287877 0.06315269 -0.0050032316
0000b0 89 93 a3 bb e8 c7 7c 3d 2b f8 dd bb fb 75 8d bd
       -0.004991953 0.061714083 -0.0067739687 -0.069072686
0000c0 d7 91 52 3d 45 01 4c bc 22 99 b8 bc 8e e3 de 3c
       0.051408615 -0.012451475 -0.022533957 0.027208116
0000d0 0b 64 9b 3c 00 70 fb 3c 01 0c 88 3b c3 f2 42 ba
       0.018968603 0.030693054 0.0041518216 -0.0007436687
0000e0 d3 b7 5b bc 8b 03 fa 3b a8 72 cd 3d 48 75 92 bb
       -0.013410526 0.007629817 0.100316346 -0.0044695474
0000f0 11 61 1d 3d 1b 91 56 3d 47 e6 83 3d 89 ab 12 3c
       0.038422648 0.052384477 0.06440406 0.00895203
000100 c4 e7 91 3d c8 51 1b be f4 70 d4 bc 14 83 f3 bd
       0.07124284 -0.15167916 -0.025932766 -0.118902355
000110 8f 7a a3 3d 02 ce 62 bd 7a 94 b4 bc 47 e1 94 bd
       0.079823606 -0.055372246 -0.022043455 -0.07269531
000120 25 c7 85 3c f0 34 1c 3d 21 34 c8 3d b8 cc 21 bd
       0.016330311 0.038136423 0.09775568 -0.039501876
000130 c1 a6 0f be cd 98 be bd cc 68 26 bd bb d6 2b 3e
       -0.14028455 -0.09306488 -0.040627286 0.16781132
000140 24 da 2c bd c3 2f da bd 10 c1 d5 3d 26 5f 94 bd
       -0.042200223 -0.10653641 0.104372144 -0.072447106
000150 75 2b 7c 3d f6 be 91 bd af f1 8d 3d 03 b5 29 bd
       0.06156488 -0.07116501 0.06930863 -0.04143239
000160 16 ee 02 bd 25 f6 90 bd 49 c3 d9 3d 44 94 3c bd
       -0.031965338 -0.07078198 0.10632951 -0.046039835
000170 c2 4d 3d bd 83 7f 04 bd 55 09 9a bd e9 8e 9a bd
       -0.046216734 -0.032348167 -0.07521311 -0.07546789
000180 24 c9 c2 3d 1a a5 86 3d 5c b1 34 bd 36 14 72 bd
       0.09511021 0.065744594 -0.044114456 -0.059101306
000190 5c b5 d4 bb 5d 7b 06 3e 1f c8 11 3d 6c 96 01 be
       -0.0064913463 0.13132997 0.03559124 -0.12655038
0001a0 fc 5e 77 bc 82 a0 47 3d f1 2c 5a 3d c3 ec 2e bd
       -0.01509833 0.048737057 0.053265516 -0.042706262
0001b0 7f ed a4 3d 26 d2 6c bc 68 f1 c4 3d 31 c5 a5 3d
       0.08053111 -0.0144544 0.09616357 0.08094252
0001c0 0a db 41 3d 50 58 5f 3d be 3d 92 3d 8f e9 bb bd
       0.047328033 0.05452758 0.07140683 -0.09175407
0001d0 d9 aa 85 bd 8e ad f7 bb 93 35 9a bc a1 64 75 bd
       -0.06526727 -0.007558531 -0.018824374 -0.05991042
0001e0 ad 1b 18 3c cb 36 d4 3d 8d c0 22 bd 76 08 0d 3c
       0.009283942 0.103620134 -0.039734412 0.008607974
0001f0 5b 84 01 be 73 82 0e 3d 45 52 8b bc 2e 05 6f bd
       -0.12648146 0.034792375 -0.017007003 -0.05835455
000200 d5 f4 a4 bd c9 e0 bb bd cb 5e 40 bc 02 ab 6f bd
       -0.080545105 -0.09173734 -0.01174135 -0.058512695
000210 9a 4f da 3c 17 8c e8 3d e3 23 c6 3d 5a c6 a0 bd
       0.026649285 0.11354845 0.096748136 -0.078503326
000220 7f 49 e8 bc fe 88 c2 bd 7b 50 07 bd dc c9 a0 3d
       -0.028355358 -0.094987854 -0.033035737 0.078510016
000230 cc 96 03 3c 4f 23 d4 bd 4a 1e 79 bd 39 89 2f 3d
       0.008031558 -0.10358297 -0.0608199 0.042855475
000240 39 09 9f ba f9 1d b3 bb 59 fc 6b 3d 63 e1 5b 3d
       -0.0012133486 -0.0054662195 0.057613704 0.053681742
000250 a1 02 8e bd 5b 6e 8c bc f7 56 b5 bd b5 c7 ea 3c
       -0.06934095 -0.017142465 -0.08854478 0.02865968
000260 23 58 7b 3c 5c 49 86 3c 08 dd 38 bd c8 02 89 bc
       0.015340838 0.016392402 -0.045132667 -0.016724959
000270 0b 31 20 bd 2e 65 01 bd 4a 39 58 bd 4e 48 ad bd
       -0.03910927 -0.031590633 -0.05278901 -0.08461057
000280 35 22 6f 3b fc f7 7c 3d d7 7c 88 bd 3c de b8 bd
       0.0036488895 0.061759934 -0.06664436 -0.09026763
000290 e0 51 48 3d 49 cf 79 bd 95 68 f2 3c 32 a1 27 ba
       0.048906207 -0.0609887 0.029590884 -0.00063945644
0002a0 43 f0 8d bd d3 e3 73 bc da 32 b2 bd e8 2a 67 bd
       -0.06930592 -0.0148858605 -0.087011054 -0.056437403
0002b0 94 bc 46 bd 45 70 81 3d 93 36 29 3d 93 ef 23 3c
       -0.048519686 0.06320242 0.04131181 0.010005849
0002c0 1c 7a 3e 3d 26 ae 80 39 1f 1d ac bd e8 75 b2 bd
       0.04650317 0.00024543813 -0.08403992 -0.08713895
0002d0 08 db ba bd 9e 64 c4 bd aa 59 95 bd f6 91 b3 bd
       -0.09123808 -0.09589504 -0.07292493 -0.08768074
0002e0 cf e9 22 3d 14 60 85 3d 37 0d fc bc a3 46 40 3d
       0.03977376 0.06512466 -0.03076802 0.046942364
0002f0 f3 27 9b bd 66 57 ee bc 84 ea c0 bd 64 25 93 bb
       -0.07575979 -0.02909441 -0.0941973 -0.0044905413
000300 e4 7a fd 3c e7 bb af bb 4c b2 2c bd 7b af 54 3b
       0.030942388 -0.005362976 -0.042162225 0.0032453227
000310 55 27 a9 bd e7 64 02 3d d7 de b0 3b e8 df 3b 3d
       -0.08259455 0.03183451 0.0053976583 0.04586783
000320 46 ef 4e bd df 11 34 3d 7d 99 6d bd 5e ee ce bd
       -0.050521158 0.043962356 -0.058007706 -0.10104059
000330 4d 9c 8b bd 7b 84 4b bd a2 c7 a7 bd 1f a6 eb 3c
       -0.068169214 -0.04968689 -0.08192374 0.028765736
000340 60 28 90 bd c1 aa 42 bd 9d 70 87 bc 7e 61 e9 bc
       -0.07038951 -0.047526125 -0.01653319 -0.02848887
000350 56 f1 4c 3d 38 96 6a bd d7 30 2f bd 63 a5 8a bd
       0.050034843 -0.057272166 -0.042771187 -0.06769826
000360 41 15 f8 3c 03 f1 6d 3a 23 71 cd 3c eb af 77 3d
       0.030283572 0.0009076746 0.025078362 0.060470503
000370 27 5f 86 bd e8 4c 77 3c 33 2a e2 bc 0c e0 1c bd
       -0.065611176 0.0150940195 -0.027608013 -0.038299605
000380 70 c8 61 bd 80 27 ac bc e0 98 e6 bc 7a 94 6a 3d
       -0.055122793 -0.021014929 -0.028149068 0.057270505
000390 c0 78 76 bd 5e 5d 97 bd 7a ef a3 bd a8 d2 03 3d
       -0.06017375 -0.07390855 -0.08004661 0.03218332
0003a0 de eb 85 3d fc 68 41 3c 88 fe cd bc cf fa 39 bd
       0.06539129 0.011804815 -0.025145784 -0.045405205
0003b0 e5 b2 6e bd 21 c2 c6 3b 6a f9 d7 bc af b9 3f 3d
       -0.058276076 0.0060656224 -0.026364047 0.04680794
0003c0 1e 02 5d 3d 7a d4 af ba dd ed 5c 3d 3a ef 08 3d
       0.053957097 -0.0013414763 0.05393778 0.03343127
0003d0 b4 0d 93 bc d8 63 ff bc 3d 85 21 3d 55 41 0c bc
       -0.01795087 -0.031175539 0.039433707 -0.008560498
0003e0 64 a8 1a 3c ee 58 7a 3d 33 a5 99 bd ee 24 89 3d
       0.0094395615 0.061119966 -0.075022124 0.06696497
0003f0 32 82 1a 3d 0e 63 45 bd 5d a4 27 bd f2 91 5c bc
       0.03772182 -0.04819017 -0.040928233 -0.01346253

bias f4 [150]
000000 36 80 9f bc ac a7 63 bd 2c 96 a5 3c bb cb 97 3d
       -0.019470315 -0.055579826 0.02021321 0.074119054
000010 3a a7 e7 3c fc 15 86 3d 22 31 16 bd 61 4b 60 3d
       0.028277982 0.06547162 -0.03666795 0.054759387
000020 76 a4 65 3d 9c ec 44 3c 6b 90 5b 3d 1e e3 18 bd
       0.056065045 0.012019303 0.053604525 -0.03732597
000030 72 c0 1f bc 72 af dc 3c be 04 66 3d 64 82 52 3d
       -0.009750472 0.026939128 0.056156866 0.05139388
000040 85 25 35 bc 43 a9 9a 3d e8 47 b5 bb 4c 3d 3b 3d
       -0.011056309 0.07551815 -0.0055322535 0.045712754
000050 65 41 81 bc ef b2 44 bd b0 32 50 bd 8e 58 83 3d
       -0.015778253 -0.048022207 -0.05082959 0.06413375
000060 c8 49 e4 3c c4 a1 1e 3c cd 93 8c bd 1c 6f 91 3c
       0.027867213 0.009682123 -0.06864128 0.017753176
000070 4c 14 db 3c fc 9f 4d bd ec 30 01 bd 63 89 44 bc
       0.026743077 -0.0502014 -0.031540796 -0.011995646
000080 94 7b 82 3d 92 45 14 3d 84 28 e3 3b 7e bf 15 3d
       0.06371227 0.03619916 0.00693232 0.036559574
000090 43 13 4a bc a5 2a 3f 3d a1 e9 c8 bd 10 65 7e 3d
       -0.012333694 0.04667153 -0.09810186 0.0621081
0000a0 69 d6 c5 bc 59 ee f3 3c 2f 83 74 bd 50 44 88 3d
       -0.02415009 0.029776739 -0.05969542 0.066536546
0000b0 47 af 00 3d 68 76 01 bc 6c ab 6e 3d 99 db 62 bd
       0.031417158 -0.007901765 0.05826895 -0.055385206
0000c0 ba ce 12 bd 9d 89 c2 bc f2 63 40 3d eb e6 08 bd
       -0.03584168 -0.02374726 0.046970315 -0.033423346
0000d0 74 00 10 3d 1e 25 26 3d 81 18 af bc 05 c0 69 3b
       0.035156682 0.04056274 -0.021373989 0.003566743
0000e0 82 ed bc bb 4e 2f 94 3d 57 b9 1b 3d df fd 61 3d
       -0.005765618 0.07235585 0.03801855 0.05517375
0000f0 65 a4 75 3d e4 c5 64 bd 6f 15 80 3d e9 b3 05 bc
       0.059971232 -0.055852786 0.06254088 -0.00816057
000100 6d c1 43 3d 2c e2 87 3d fa 29 8c 3b 1f 61 61 3c
       0.047791887 0.06634936 0.004277465 0.013756066
000110 57 87 03 bd 5b 96 c1 bd d0 a6 79 3c 8d ff db 3c
       -0.032111492 -0.09452506 0.015237525 0.026855255
000120 68 c5 c9 bc 1b 85 c4 3c d5 95 7a 3d a4 4d 5f 3d
       -0.024630263 0.02398925 0.061178047 0.054517403
000130 2d 44 40 3d c3 66 94 3d 25 98 a2 3c 15 3f 99 bc
       0.046940017 0.07246163 0.019847939 -0.018706838
000140 cf 19 2d 3d 3f 94 42 3d d6 b6 9b bc 00 e2 c8 3c
       0.04226094 0.04750466 -0.019008081 0.024521828
000150 78 fd 95 bd 4c af b1 bb 06 25 2a bd 5c b3 6d bd
       -0.07323736 -0.0054225083 -0.041539215 -0.05803238
000160 7b 10 2a bd 3c b0 1b bd 8b 4a 07 3d f7 2b 11 3d
       -0.041519623 -0.038009867 0.033030074 0.03544232
000170 c4 f6 bf bd 96 13 07 3d bc 25 d6 bc c0 2e 36 3d
       -0.09373239 0.032977663 -0.02614104 0.044478178
000180 97 1e 1c bd 79 be 65 3d 72 5d 3e bd e1 bb 8e 3b
       -0.03811511 0.056089852 -0.046475835 0.004355893
000190 c6 2c 34 b9 8e 65 66 3d 6e 2c 88 bd 0f a7 2b 3d
       -0.00017182817 0.056249194 -0.06649099 0.041907366
0001a0 c8 58 1e 3d c7 b2 90 3d 0b b1 3a 3a 1b 7a 87 bc
       0.038658887 0.07065349 0.00071217184 -0.016537717
0001b0 f1 0a 16 bc 22 a0 58 bd 9e f1 33 bd 67 b2 c4 bd
       -0.009157882 -0.05288709 -0.043931596 -0.0960434
0001c0 d4 b7 52 3d 29 db 19 bd f3 54 b8 3c 2a 6f 32 bd
       0.051444843 -0.037562523 0.022501444 -0.043563046
0001d0 4a 68 9c bd ed 17 92 bd e0 de 85 3d f2 31 5e 3d
       -0.07637079 -0.0713347 0.06536651 0.05424685
0001e0 85 9f 82 3d 79 d4 a4 bc ad bb c4 3c af e5 82 3b
       0.06378082 -0.020120846 0.024015272 0.0039946656
0001f0 45 25 92 bd 95 01 63 bc 6f 36 d5 bb d7 5c b3 3c
       -0.07136015 -0.013855358 -0.006506733 0.021894855
000200 60 5e cb 3c 14 82 f0 bc 41 63 ec bc 98 36 5f 3d
       0.024825275 -0.029358901 -0.028855922 0.054495424
000210 90 fe a5 3d 56 4e 86 bb 39 ec d5 bb 8c 8b 17 3d
       0.081051946 -0.004098694 -0.006528404 0.036998317
000220 fd 86 25 3c 39 da 9f bc 0b 66 94 3d c5 98 20 3c
       0.0101029845 -0.019513236 0.07246026 0.009802048
000230 bc 6d 8f bd 21 2f 2a bd 80 91 e4 bc 3e 16 af 3d
       -0.07003352 -0.041548852 -0.027901411 0.08549164
000240 86 cd d1 3d 9b a3 01 bd 8a 68 a5 bd a8 95 89 3b
       0.102442786 -0.031650167 -0.0807658 0.0041987486
000250 2c 46 36 bd e7 5b 28 3d
       -0.044500515 0.04110327

weight f4 [150, 150]
000000 01 bb 83 bd c1 a9 82 3c e5 4e 95 bd 2b a0 42 3d
       -0.064321525 0.015950086 -0.072904386 0.04751603
000010 e7 bd e9 3d bb ad 26 3e 6a 54 96 bd e9 20 56 3d
       0.11413174 0.1627721 -0.073403195 0.05227748
000020 e3 e9 9c 3d 08 35 b4 bb 5c 17 00 3d 0f 44 7b bc
       0.07661798 -0.005499486 0.031272277 -0.015336051
000030 66 00 8f bc 42 55 c5 3c be 2c 69 bd 12 63 de bc
       -0.017456245 0.024088506 -0.056927435 -0.02714685
000040 0a e7 f5 3c 47 e4 f4 3c f3 28 8e bd d2 1a 56 3d
       0.030017395 0.029894007 -0.06941404 0.05227167
000050 4a 1e b2 bd 09 7b 0a 3d de f0 b6 3d 57 1e c7 39
       -0.086971834 0.03380874 0.089326605 0.00037978843
000060 a1 5a 9a bb 38 8a a9 bc 8e b2 a1 bd b8 cb 92 3d
       -0.004710511 -0.02069579 -0.07895385 0.071677625
000070 ab 99 03 bc c1 91 48 bd 1e 7a 89 3d e1 b3 ce bd
       -0.008032243 -0.048967127 0.06712745 -0.10092903
000080 cb 4d 0e 3d 33 eb 28 3d 83 2e 27 3d 90 3b 4a bd
       0.034742158 0.04123993 0.04081584 -0.04937321
000090 a8 a5 07 3d 02 2d 52 bd de c4 a2 bc ef ad 0e 3d
       0.033116966 -0.051312454 -0.019869264 0.034833845
0000a0 c2 b0 84 3d 06 01 97 bc 02 7f 75 3d eb 32 72 bd
       0.064790264 -0.018433105 0.059935577 -0.05913059
0000b0 84 30 c3 bc f7 8f 92 bd c8 c4 85 bd dd d0 a8 bd
       -0.023826845 -0.07156365 -0.06531674 -0.082429625
0000c0 0d 74 b6 3c 1a 45 24 3e b6 4f 9e 3c cd 0e 37 be
       0.022272134 0.16041985 0.019325119 -0.1787674
0000d0 06 0e 94 bd ee c3 92 3d e8 0d 24 bd 5d ff 34 3d
       -0.07229237 0.07166277 -0.040052325 0.044188846
0000e0 e8 fe ff 3d 2d 44 09 3d a8 55 b6 bb c4 e3 0f bc
       0.124997914 0.033512283 -0.0055644102 -0.008782331
0000f0 e4 04 37 3d f3 1c eb bd af 6c de 3d fb ff e8 bb
       0.0446824 -0.11480131 0.108605735 -0.0071105934
000100 9a fa 59 bd 30 6f 07 3d 75 9b 07 bd 5d 3e 14 bd
       -0.053217508 0.03306502 -0.03310724 -0.036192287
000110 ba 6e d5 3d b6 26 83 bd c2 eb b9 3d 7f de 9c bd
       0.1042151 -0.06403868 0.0907817 -0.07659625
000120 90 09 01 be 6e 5f d6 3d 34 9e 58 bd 8b bf d7 3b
       -0.12601304 0.104674205 -0.05288525 0.006584113
000130 0c d6 1b be e5 a1 0c 3d e9 fb ac bd a4 d7 a8 bd
       -0.15218371 0.034334082 -0.084464855 -0.08244255
000140 c1 b3 f6 3d a3 e8 4c 3d 5d b3 ce bd 47 ac 9d bb
       0.12046004 0.050026547 -0.100928046 -0.004811797
000150 c9 6e 28 bc 12 9f bc bd ea 3f 89 3d a8 d5 69 bd
       -0.0102803195 -0.09210028 0.06701644 -0.057088524
000160 c4 3e 8c 3d 75 55 64 bd 98 64 a1 bd 94 57 25 bd
       0.06847909 -0.05574556 -0.07880515 -0.040366724
000170 48 b4 2f 3d b5 cd 08 3d b5 3d c3 3d 40 f3 3a bd
       0.04289654 0.033399303 0.09533254 -0.045642138
000180 32 85 98 3d 0f e1 0b 3e 4b 42 30 bc 75 4b fe 3c
       0.0744728 0.13660072 -0.010757993 0.03104184
000190 ad a6 f8 bb e9 ca 37 bb a5 42 7a 3c 3e b7 a0 3d
       -0.0075882287 -0.0028044528 0.015274678 0.07847451
0001a0 8f f1 54 bd e4 f9 c6 3d 3a 3b ef 3c 97 e6 38 3d
       -0.05198818 0.097156316 0.029203046 0.045141783
0001b0 36 95 4d 3d 10 cf 3c 3b 31 f8 ee 3d d4 ff 87 3d
       0.050191127 0.0028809942 0.116684325 0.06640592
0001c0 27 c5 80 3c 8e 40 ee 3d 21 6c f7 39 0f e1 f0 bc
       0.01571901 0.116334066 0.00047192074 -0.029404191
0001d0 a5 59 d4 3d 4c fc 60 bd ef 58 d1 bc 7e 24 eb bd
       0.10368661 -0.05492811 -0.025555102 -0.1148157
0001e0 65 53 70 3d 15 c1 9c bc 5f 80 0f bd c4 00 ea bc
       0.05867328 -0.019135037 -0.035034534 -0.028564818
0001f0 5e ae d7 bc 2b 3c 82 bd d8 da 81 3d fe d3 7f bd
       -0.026328262 -0.063591324 0.06340569 -0.06245803
000200 84 e9 89 bd 53 d8 8f 3c 8e ee 26 3e 2c af b2 3d
       -0.06733993 0.017559206 0.16301939 0.08724818
000210 61 a6 c2 3d 4d 39 b4 3d 92 77 ac bd 56 0f 96 3d
       0.095043905 0.08799992 -0.08421244 0.07327144
000220 8a 32 9c 3d b4 f2 b2 3c e1 b7 a8 3c 91 99 93 bd
       0.07626827 0.021844245 0.020595493 -0.07207025
000230 7b 40 73 bd d9 95 09 be 9a 06 a6 3d b8 44 35 bd
       -0.059387665 -0.13436069 0.08106728 -0.04425499
000240 c4 9a c3 3d af 04 03 3e 86 31 0d bd b6 eb 41 bd
       0.095510036 0.12794755 -0.034471057 -0.047343932
000250 62 b9 8c 3d 12 d7 77 3c 43 46 7f bd 19 8d 9c 3d
       0.068712965 0.01512696 -0.062322866 0.076441
000260 f7 53 9e bc 1c 09 1c 3e 93 06 84 bd d5 fc 8f bc
       -0.019327147 0.1523785 -0.064465664 -0.017576614
000270 44 c6 55 bd 90 61 a5 3d 1d 54 4c bd d8 a0 54 bd
       -0.052191034 0.08075249 -0.049884904 -0.051911205
000280 7f 4d a7 3b a6 13 a2 bc b1 27 0e 3d 5a d5 a8 3d
       0.005105674 -0.01978476 0.03470582 0.082438186
000290 ea 56 1c bc e6 81 f6 bd ed c9 79 bd 22 0c 8d bd
       -0.009542206 -0.12036495 -0.060983587 -0.0688708
0002a0 56 0d 5f 3e 1d bd b0 3d 5f 80 ab bd c3 2b 99 bd
       0.21782431 0.086298205 -0.08374094 -0.0747905
0002b0 79 9f 85 3c 30 23 20 3c 71 c4 a2 3d cc 49 4b 3d
       0.016311394 0.009774014 0.079476245 0.049630925
0002c0 80 f9 62 bd bf 4d 80 bd 09 1a e8 3c a4 f3 1c bc
       -0.055413723 -0.06264829 0.028332727 -0.009579573
0002d0 ce 28 02 3e a4 ea 6d bd b2 41 93 bd 10 02 3d 3d
       0.12710878 -0.0580851 -0.07190265 0.046144545
0002e0 d0 39 8b 3d c9 22 e8 3d dd 43 a6 bd 74 fb 01 bd
       0.06798136 0.1133476 -0.08118413 -0.031733945
0002f0 3e 7a 89 3d f2 c9 a7 bd 97 3c 85 3d 82 66 a8 3d
       0.06712769 -0.08192815 0.06505697 0.08222677
000300 a1 6f 1a 3d d7 83 dd 3b 81 c2 2f bd b1 ee 22 3c
       0.037704114 0.0067601013 -0.042910103 0.009944604
000310 33 e3 da bd d0 59 2d 3d 7e 1b 9a bd 26 98 7c 3c
       -0.10687866 0.04232198 -0.07524775 0.015417134
000320 14 e4 c3 3d ee ac ed bc 79 ee fd 3c fe 40 18 3d
       0.09564987 -0.029013123 0.030997502 0.037171356
000330 d3 22 18 be ae e9 ae bd cd 32 c1 3d 29 53 a7 bc
       -0.14857034 -0.085406646 0.094335176 -0.020425396
000340 af 1f 98 3d 8c 4c b7 bd 44 5b ae 3d 79 fd de bc
       0.07427918 -0.08950147 0.08513501 -0.027220475
000350 15 6a a8 bd 5a bd a2 bc 0a 1c 82 3d f3 5b 7d bd
       -0.082233585 -0.01986568 0.06353004 -0.061855268
000360 6e 09 38 bb 53 43 a0 3c 8f 0c 43 3e b8 3a 1a 3d
       -0.0028081792 0.019563353 0.1904776 0.037653655
000370 9b 3e d5 3d ea 3f 40 bd 9f 7e d2 3c a4 6b be bb
       0.10412332 -0.046935953 0.025695143 -0.0058111716
000380 db b8 52 bd 7b 13 d3 3c c3 bf 98 bd d2 13 d3 bc
       -0.051445823 0.025766125 -0.07458451 -0.025766287
000390 96 6b df 3d c2 ac 95 3c ae 09 12 bd f5 52 81 3c
       0.10909192 0.018270854 -0.035653763 0.015786627
0003a0 76 ad ba 3d b7 81 32 3c 3d 63 8f 3c 2f 46 20 3d
       0.09115116 0.010895184 0.017503375 0.039129432
0003b0 8c 51 91 bd d6 73 ab bd 41 f4 c3 3d da 9b a9 3d
       -0.07095632 -0.08371703 0.09568072 0.082816795
0003c0 10 a8 92 3d bc f6 6e 3c b7 b6 ae bd 9e 50 8d 3d
       0.07160962 0.014585193 -0.08530944 0.06900142
0003d0 ab 34 53 3d 9b f4 7a 3d 82 0f 7d 3b a9 3b 80 3c
       0.0515639 0.06126843 0.003861398 0.015653448
0003e0 92 18 43 bd 5f 27 9f 3c 0d 02 93 3c 6f 15 c2 bd
       -0.047630854 0.019427953 0.017945314 -0.094767444
0003f0 97 4a e2 3d 13 bb 74 3d 72 91 e4 3d b2 62 2d 3c
       0.11049383 0.05974872 0.11160554 0.010582613

bias f4 [150]
000000 ce 1c 87 bd b7 2d 05 bd 1f a2 61 3d 6e 54 9f 3a
       -0.06597291 -0.0325143 0.05508625 0.0012155899
000010 9b a2 e2 3c d8 d0 26 bd b5 bd 90 bd 53 86 07 bb
       0.027665427 -0.040726513 -0.07067434 -0.0020679429
000020 7b e7 1f 3d b2 0d 71 3d 3c 58 df 3c 43 a8 61 bd
       0.039039116 0.05885095 0.027263753 -0.055092108
000030 04 8e cc 3c ca b2 e5 bc c8 2e 0f 3d 3c 67 81 3c
       0.024970062 -0.028039355 0.034956723 0.015796296
000040 50 d7 f0 bd fc ee 19 3d 20 07 c9 3c f9 7c b2 3d
       -0.117598176 0.03758143 0.02453953 0.08715243
000050 ef 63 3c bd ec 07 85 bc d9 c1 69 bd b7 49 67 bc
       -0.04599374 -0.016239129 -0.057069633 -0.014116696
000060 35 00 cf bd 83 55 23 3d 7a ba 14 3d 3b 91 cb bd
       -0.10107461 0.039876472 0.03631065 -0.0993981
000070 d2 19 67 3d 25 ae 6f 3d 17 77 1b bd e2 87 a1 bd
       0.05642111 0.058515687 -0.03795537 -0.07887246
000080 fc eb 27 3d 2e 07 c3 3d f9 53 ae 3d 8d 2a 64 bd
       0.040996537 0.09522854 0.0851211 -0.055704642
000090 5e d6 54 3d ae 84 ab bb 93 5c 03 3d 0e 9f 31 bd
       0.05196225 -0.0052343225 0.032070708 -0.043364577
0000a0 02 60 23 3d a8 04 d1 3c cd 9a 2d bd 6b fe 27 bd
       0.039886482 0.025514916 -0.042383958 -0.041014116
0000b0 ac 9d 12 ba 20 8f 4b bd 4b 93 50 3d f7 0d 48 bc
       -0.0005592953 -0.04969704 0.05092172 -0.012210361
0000c0 b7 9d 6d 3c d5 e0 04 bd 24 57 79 bd 3a 84 7c 3d
       0.014502934 -0.03244098 -0.06087412 0.06164954
0000d0 40 b0 b9 bd c6 18 40 3d eb 37 24 3d f6 0b 9a bc
       -0.0906682 0.046898626 0.04009239 -0.018804532
0000e0 2f a0 18 3d 14 30 72 3d f5 7a c0 bd 74 5b fa 3c
       0.037262138 0.059127882 -0.09398452 0.030561186
0000f0 7c 0c 74 3c 97 7c 88 3c 23 c3 89 3c da e7 08 3d
       0.014895555 0.016660972 0.016816681 0.033424236
000100 4d f9 14 bc da f4 0d bd d9 9f 81 bd 1f a4 00 bd
       -0.009092641 -0.034657337 -0.06329317 -0.031406518
000110 73 85 23 3d d7 fe 2e bc cf d1 b3 3c eb 12 42 bd
       0.03992219 -0.010680876 0.02195063 -0.047381323
000120 66 ae 46 bd 35 ea 50 bd 09 f2 ab 3d ab 93 90 3c
       -0.048506163 -0.051004607 0.08395774 0.017648539
000130 4b a2 9b 3d f3 36 26 bc ab 9e 3c 3d 1d ce b5 3c
       0.07599314 -0.010144937 0.046049755 0.022193009
000140 2b b0 c7 bd fe b4 86 3c 16 1a 4f 3d b9 86 90 bd
       -0.09750398 0.016443726 0.050561987 -0.07056946
000150 ee d7 2b 3d 71 c4 09 3d a9 54 05 bd 08 89 42 bd
       0.041953973 0.033634607 -0.03255144 -0.047493964
000160 59 e3 b3 3d 75 16 74 bd ea c7 f4 bb 9e be 46 bc
       0.087835975 -0.05959173 -0.0074701207 -0.012130408
000170 8b 7d 55 3c 8c 1d 92 bc e0 72 a9 bd 03 79 01 bd
       0.01303042 -0.017836355 -0.08273864 -0.031609546
000180 9c eb 8b bb b2 82 f8 3c 39 33 d2 bd 99 06 85 bd
       -0.00427003 0.030335758 -0.10263676 -0.06495399
000190 52 db 21 3d 30 4b 0a 3d 0b d6 64 3d 82 51 10 3d
       0.0395158 0.03376311 0.05586819 0.035233982
0001a0 c6 cf 04 3d 78 1a 79 3d 0b ce 90 3d af 62 03 3d
       0.03242471 0.06081626 0.070705496 0.032076534
0001b0 8b 39 6c 3d d9 ad a7 bd 39 23 0d bd 5c 6c d7 3c
       0.057672065 -0.08187456 -0.03445742 0.026296787
0001c0 75 b3 53 bd e6 43 91 3d a2 f0 35 3d 4c 45 81 3d
       -0.051684815 0.07093029 0.04441894 0.063120455
0001d0 bc 0f a3 bd 0f 8e be 3d 36 81 66 3d eb 3f 49 bd
       -0.079619855 0.09304439 0.05627557 -0.049133223
0001e0 27 ed 06 3c fe 8b 88 bd c6 10 52 3d e5 7c 8d bb
       0.008235252 -0.066673264 0.051285528 -0.004317867
0001f0 6b d3 ba bd 70 65 01 3d 13 43 72 3d 1e 40 c2 bd
       -0.09122356 0.03159088 0.059146 -0.09484886
000200 d7 13 a2 3d e6 19 be bc 0d 4e 1b bd f4 31 14 bc
       0.079139404 -0.023205709 -0.037916232 -0.009045113
000210 0c fc fb 3c 4e 0e 99 bd b4 0a b7 bc c6 57 1e bd
       0.030759834 -0.074734315 -0.02234397 -0.038657926
000220 ed fd 91 bc 64 f4 20 3d 69 8d aa 3d b2 39 78 bd
       -0.017821277 0.03929557 0.08327753 -0.060601898
000230 26 7a 2c 3d 26 93 a3 3d 30 5a cc 3b f9 e6 75 bd
       0.042108677 0.07987051 0.006236337 -0.060034726
000240 b9 d7 71 bc 7f 3d 0b bd 9a 66 4d 3d 8d 7f 25 3d
       -0.014760905 -0.033994194 0.050146677 0.040404845
000250 ad 1b 72 bd 7d 73 75 3d
       -0.059108425 0.05992459
