notebooks/figs/models-for-figs/s_d4.pt (torch, 166371 bytes, 10 tensors)

weight f8 [80, 5]
000000 23 37 ae 9c 69 dd e0 bf 00 41 1b 50 54 30 d5 3f
       -0.5270278988043383 0.33107478926559963
000010 cc 1c eb a0 f1 f8 cb 3f 01 e1 59 45 b6 1e cc 3f
       0.21853466374725483 0.21968725572856587
000020 c7 8b a8 f5 4d c6 d6 3f c8 0f 72 d3 bc ce d7 bf
       0.3558535479552884 -0.3719932618043882
000030 f2 ca b3 64 c8 9c d4 bf d2 9d 63 49 c9 75 d6 3f
       -0.32206926187716 0.3509391037646
000040 94 dc ac 59 69 bc de bf 9d fd 11 74 71 82 d2 3f
       -0.48024972684238176 0.28921161971080683
000050 02 bd 37 ad 5a a5 c6 3f 1f 84 38 7a a2 ee bc 3f
       0.17692120988747467 0.11301627620606823
000060 0e 02 bd cb 7d 36 d1 bf 35 b8 d5 bc e4 c0 a4 3f
       -0.26895089050597754 0.0405341606627733
000070 e9 35 e8 33 99 25 cf 3f 6c d1 7e 8e 88 1c c2 3f
       0.24333491358304052 0.1414957710054624
000080 29 46 f1 35 b5 07 d9 bf f7 17 66 27 ae 3a d2 bf
       -0.39109545009441377 -0.2848315605882585
000090 30 c0 98 0f 63 07 d7 3f 07 43 43 b9 15 23 d9 bf
       0.3598258640586236 -0.39276640979828453
0000a0 ee 72 ab d0 b3 ce c3 bf 98 db 43 02 52 15 cf bf
       -0.15474555672599116 -0.24283814535712334
0000b0 7f 12 09 82 61 a9 bc bf 61 9d ae 08 9c 4d a7 3f
       -0.11195954727834055 0.045513988551926905
0000c0 92 e5 a4 42 10 9a d1 3f c3 e4 4a f8 36 c0 d4 bf
       0.27502829082694646 -0.3242318558437313
0000d0 69 cc 72 d2 a6 20 da 3f fe d1 9e eb e9 03 d0 bf
       0.40824289847950596 -0.2502388764362705
0000e0 37 ab 27 cd ed 7e bc 3f 4d f4 ad 03 9a 12 ce bf
       0.11131178148904729 -0.2349426763502457
0000f0 04 da 1a b3 fb 7d c2 3f 0a 40 5f a7 7e e3 c9 3f
       0.1444697021995155 0.2022550885435524
000100 77 50 4a 77 45 6f bc 3f d4 03 57 4f 0b 28 bd 3f
       0.11107286608086207 0.11389227568635302
000110 9b 02 07 6d 0e 4a a3 bf 99 31 7b 65 92 c4 da 3f
       -0.03767438012028387 0.4182477942493051
000120 99 81 5e b9 c2 9a d8 bf ba c5 04 75 f2 97 c9 bf
       -0.3844458399053337 -0.1999495574359978
000130 64 5b 36 8b 71 99 a0 3f a7 2c 96 86 d3 86 ce bf
       0.03242068123215949 -0.2384895713006234
000140 f0 6d ca 74 9b 6f cf 3f 45 b2 09 68 d7 ca a2 3f
       0.2455934829966817 0.03670380730622872
000150 d9 d9 00 61 b9 2e d9 bf 68 08 fa a2 7a e2 dd bf
       -0.39347681496601933 -0.46694818416302164
000160 d7 4d 65 38 6f 24 c6 3f 65 3b 75 12 20 6c e3 3f
       0.17298689130494324 0.6069488869196503
000170 3a d6 57 44 08 de c9 3f 89 97 47 c6 6a a8 9c 3f
       0.2020883878428082 0.02798621020510653
000180 47 07 26 b7 27 d5 c6 bf fb 84 4a 1b 53 24 d6 bf
       -0.17837997858810636 -0.34596707978387514
000190 36 1b 84 b0 5d 3c d5 bf ce 16 03 c2 eb be d0 bf
       -0.33180944669622947 -0.26165288874140635
0001a0 f9 2f 58 d5 15 bd d8 3f c7 e1 49 22 9e 86 8b bf
       0.3865408500139434 -0.013440356656460829
0001b0 d3 81 97 f8 dd fc d7 3f 6e ba f9 4b d7 9b ca bf
       0.37480878140015966 -0.207880889985478
0001c0 59 ca 86 4c e1 07 d0 3f d4 40 c1 92 7c 35 d1 bf
       0.2504809615449282 -0.26888956386120566
0001d0 c4 fe 91 58 c8 eb c0 bf a9 23 a6 df 15 c9 a8 3f
       -0.13219551396104212 0.048409160185719564
0001e0 0b c0 aa bb 06 55 d0 3f 5b b2 cc bd c3 67 d5 3f
       0.25518959357123155 0.33445828948132367
0001f0 36 bd b9 71 97 87 a2 3f 15 92 6f de f2 4c db 3f
       0.036190731651795024 0.42657157633064574
000200 52 bb c0 d8 73 97 b5 3f df ea 93 af c3 5f e2 bf
       0.08434223214929418 -0.5741899899724919
000210 62 75 eb 2c df 0f cf 3f 42 be 24 2d 81 40 de bf
       0.24267186826083803 -0.4726870480398909
000220 0e ca dd 00 42 b2 a9 bf cd b2 16 5d 46 32 d9 bf
       -0.050188124280698174 -0.393693533808613
000230 cb 74 fc 28 b3 39 e2 3f f4 9e 50 32 38 07 d9 bf
       0.5695434380064851 -0.3910656443936056
000240 36 28 2a e6 84 50 c6 3f 3d d3 4e c8 31 b4 b1 bf
       0.17433224905500005 -0.06915579929666378
000250 29 fb 5d 8f 2e 8e d5 3f e2 1a c1 23 c3 0f c8 bf
       0.33680309296316807 -0.18798102613273843
000260 35 ed 4a 69 eb d9 d9 3f 3c bf 02 5c b3 c1 b4 bf
       0.40392575533379055 -0.0810806369433949
000270 1c 13 b6 be e2 9e c1 3f 56 8c 4c 0f d0 4a c0 bf
       0.13766130745002492 -0.1272831034376362
000280 1f ee 1a 00 6c 49 e3 3f 36 1d 8b a5 b6 f3 d2 bf
       0.6027126314215286 -0.29612508932446546
000290 76 3b 92 dc 15 c7 d2 3f 38 7f 98 8c f2 60 84 3f
       0.29340120830686744 0.009950537601127615
0002a0 f4 89 23 0a a5 0b ac bf 2e 37 b0 8b 4b 04 c4 bf
       -0.05477634190335215 -0.15638107605666945
0002b0 8d c3 3b 83 2e 5a bb bf 31 a9 65 c5 ed 99 ce bf
       -0.10684481338445391 -0.23907253397494224
0002c0 a3 3f 90 f8 19 68 c3 bf 2f cb ce b9 42 2d d8 bf
       -0.15161442410362466 -0.37776249070445805
0002d0 b5 41 8c 08 ca 62 af 3f 3d 6d 01 2a bb a7 da 3f
       0.06130057672828874 0.4164874944887805
0002e0 e9 6d 00 66 0f 9f b5 bf be db 73 e9 31 01 b9 3f
       -0.08445831527972526 0.09767448377156904
0002f0 14 22 75 9f 77 ea ca bf 18 aa 3e 01 2a b4 de 3f
       -0.21028037343991512 0.4797463428646167
000300 c1 02 c3 aa 72 f1 c2 bf 8d 9d 56 c5 4b 8f c8 3f
       -0.14799340570427513 0.19187304626141746
000310 20 69 e6 04 33 10 b4 3f 79 3c b1 3b 19 93 d9 bf
       0.07837218160276338 -0.39960318402604106
000320 e6 8d a5 d0 cf 04 d1 3f 71 6b b5 46 bb 12 b8 3f
       0.26591868758825254 0.0940358207348433
000330 52 6f 47 02 62 8e bf 3f 55 36 ee 57 9f 32 d4 bf
       0.12326633983269389 -0.3155897482582522
000340 b8 8a 4f 42 0d 3d cb 3f a0 d5 44 75 be b2 77 bf
       0.21280065286471994 -0.005785697914963889
000350 9b 2e 30 5b e4 94 bd bf b9 b1 a8 03 31 9c c1 bf
       -0.11555316187166868 -0.13757908514652487
000360 69 5a 9a f2 cf 7a d9 3f 73 1d 75 6d 8b 65 c2 3f
       0.3981208676499706 0.14372389645198388
000370 6d 88 eb 2e 99 55 db bf c7 17 57 1c f9 09 b8 3f
       -0.4270995100215547 0.09390217725658011
000380 eb 74 e3 6b ad 05 c1 bf b2 6e 4f ae 66 89 cc 3f
       -0.13298576133721637 0.22294314872020987
000390 24 57 56 41 4d e5 cb 3f f4 a2 1f 7b 02 8c cd bf
       0.21793523493095635 -0.23083525668996396
0003a0 84 c1 bc ae f9 39 b2 bf 76 2f 84 83 1f 3b c1 bf
       -0.07119713321731608 -0.13461679383942354
0003b0 ad 60 2c 9d b5 37 c0 bf 47 0e 91 e9 2b 98 d4 bf
       -0.12670011686782826 -0.3217878132747711
0003c0 ee 3f 12 69 24 af c8 bf fc 99 cc b7 fb fa c3 bf
       -0.19284491663393005 -0.1560969016511108
0003d0 42 33 da 83 d1 20 de 3f a6 be 8c f3 3c 59 b8 bf
       0.4707530772800973 -0.09511166521110201
0003e0 62 ad a4 c3 30 3f d5 bf ff 7d 71 06 2c 51 c5 bf
       -0.33198184114254137 -0.16653967203727402
0003f0 07 79 3c 54 31 8b c5 3f 7e a0 38 c8 a5 ba dd 3f
       0.16831032384011044 0.4645170645985742
000400 a3 3f 16 21 bf 1d 98 bf ae 30 04 be b9 8d d2 3f
       -0.0235509742684027 0.28990024143491666
000410 34 ca 56 a1 a5 b5 e0 bf ba 35 04 98 52 fd b6 bf
       -0.5221737052109519 -0.08980289660777077
000420 24 20 99 e0 a7 5a d9 3f 05 77 6b db 13 bc c6 3f
       0.3961581891385342 0.17761467183930094
000430 65 1b 0a ef 55 e6 ab 3f 21 ce 3c 37 d7 3d e1 3f
       0.05449169676744851 0.5387989119394129
000440 6d f5 31 6b d9 80 d7 3f 77 be b7 47 22 c8 cc 3f
       0.3672393366649292 0.22485760213702452
000450 9f e3 33 18 d8 1b d3 3f 10 a2 82 c3 2d 24 cd bf
       0.29857447017234934 -0.22766658827210096
000460 cb 91 0e 83 ec 77 d6 bf 3c 6f 72 c6 c3 98 b1 3f
       -0.3510695724346788 0.06873725504777622
000470 27 d9 5a 35 6c 80 d6 3f 92 31 95 09 67 f6 d9 3f
       0.35158829889714344 0.4056642144758139
000480 cc 23 e5 6a f6 93 c6 3f de f3 be ae 87 b0 d9 bf
       0.17639045924650387 -0.40139953675298823
000490 6d d8 d1 a6 1a 5f c2 bf d5 e2 0a 7f 56 98 c3 bf
       -0.1435273470448836 -0.1530864830326865
0004a0 44 49 db 81 8f 0b ca bf 1e c7 03 96 cc 1c cb 3f
       -0.2034778007569661 0.21181638073863324
0004b0 7f 0a b4 8c 11 5f e6 3f 5f 3c 18 00 57 bd d7 bf
       0.699105047999481 -0.37093138703580125
0004c0 b0 3c 71 c5 0b e7 b2 bf 3a 3a b0 08 a8 bf dd bf
       -0.07383798189515534 -0.4648227772567314
0004d0 78 40 8e 1c 3c 24 8f bf 4e 57 70 4e ae 82 dc 3f
       -0.015205831166696479 0.4454761281971188
0004e0 f4 23 d4 d8 53 91 b1 3f d3 a4 ae 73 42 f6 d4 bf
       0.0686237720839385 -0.3275304918011674
0004f0 56 a9 fb 14 9f ed ce 3f 66 fb fa d6 fe 1d d1 3f
       0.24162663006365886 0.26745577806644005
000500 96 d2 fc e7 cd c6 95 3f 35 4f b3 c5 cc 77 cf bf
       0.021266190800093364 -0.24584350255337886
000510 8d 04 72 28 56 35 c3 3f 40 a6 65 18 48 d1 d7 3f
       0.150065202473375 0.3721485365154855
000520 3c f2 12 60 95 a5 d7 bf b4 3d c3 64 25 67 ce 3f
       -0.36948141462542927 0.23752276821185847
000530 0d 31 7a be 62 c8 ce 3f 8b 4c c1 76 2a 6a a6 3f
       0.2404902868332858 0.043778731342762965
000540 1f 8d 0e f2 5d 8b ab bf 32 d9 0a d8 43 85 dd 3f
       -0.05379766063495083 0.46125885103119224
000550 7b f6 b7 eb 73 8d 97 3f 80 4e 31 95 51 92 a6 3f
       0.023000537168619033 0.04408507295798092
000560 fe ea fa 8f f1 ab c2 bf 05 b5 e3 d5 a7 94 d8 3f
       -0.1458723023441379 0.384073218227812
000570 6d 9c 8d b7 a1 c2 c3 bf 65 99 98 5a f6 68 da bf
       -0.15437718832547223 -0.41265639159464335
000580 5c 95 30 ef c9 7b cc bf 80 bb 65 3a 8b 42 79 bf
       -0.22252773455799513 -0.006166976795028201
000590 37 c7 54 f8 08 ce d2 3f 83 66 b3 36 fc e5 c2 3f
       0.29382538081255255 0.1476435916036288
0005a0 b6 3f 2b 38 69 2f e5 3f 3c b5 9c 7d ed fd ab bf
       0.6620374772119166 -0.054671689589989886
0005b0 9e 35 a3 32 4a 02 cc bf b1 e0 bd 26 46 ed a5 bf
       -0.21881988022361737 -0.042825882176602
0005c0 09 b1 bc f7 71 b5 97 bf 7b 91 9d 5b 4d d9 ae bf
       -0.023153095956488765 -0.06025163405755315
0005d0 12 92 85 43 d4 8f da bf dc dd 7c 29 48 0c be bf
       -0.415028634967059 -0.11737490666279576
0005e0 0b 7e fb fa a2 8d a5 3f ae bd 61 20 ac c7 a9 bf
       0.042096226823328996 -0.050351504280907164
0005f0 30 05 6b 09 b4 5a ba 3f 13 6c 95 a0 1d 29 d1 bf
       0.10294652204449473 -0.26813450510025055
000600 d1 74 ac a1 54 2d d7 bf e9 89 25 3b 5f 11 c5 bf
       -0.36214175976222146 -0.1645926512529308
000610 aa e7 5b 94 49 89 d2 bf db fa f0 da 7f d5 cc bf
       -0.2896293591326137 -0.22526548567289847
000620 78 bf df 79 a4 73 d3 3f 3e f3 d5 ba 4f e8 d2 3f
       0.3039332571197444 0.29542916532209407
000630 b3 9a 63 44 bc 9f db bf 2f c5 4f 89 2c 1f d0 3f
       -0.4316244762289145 0.25190270814262566
000640 8c e3 04 e9 5e fe b9 bf 77 79 6b 55 e3 c7 d6 3f
       -0.10153763951247025 0.35595019666461475
000650 7e 58 4e 6f 19 78 88 3f 1a 36 b3 4f 15 59 b1 3f
       0.011947821339884476 0.06776555248071539
000660 17 ea a4 48 1b df cb 3f 77 01 34 58 81 a1 b4 bf
       0.21774617240028313 -0.0805893745746341
000670 81 a1 05 34 2f 94 d3 bf 14 b6 ff 3a 9c 23 be bf
       -0.30591945724747666 -0.11773086967851781
000680 e2 2c f7 9a e9 9e ca 3f 76 31 21 8e 5e 59 d8 bf
       0.20797462526966287 -0.3804546726212473
000690 d9 30 d6 db 1e 58 e0 3f db d1 36 b1 64 46 d6 bf
       0.510756902092477 -0.34804646783893894
0006a0 e0 6d 4b b0 37 91 d8 3f d6 53 8f fe ae a5 d1 bf
       0.38386337486528355 -0.27573752269137
0006b0 7d 48 32 d4 56 e6 d6 bf 05 aa 94 65 77 91 d2 bf
       -0.3578087875586176 -0.2901285640715801
0006c0 1a 4b 93 2a 89 3a da 3f 48 d0 9d d3 50 89 bf 3f
       0.4098227420592352 0.12318902174394097
0006d0 3c fe 8e 8b c3 9f ca bf 92 91 23 54 7b ae d0 bf
       -0.20800060572035928 -0.2606495210332237
0006e0 90 a3 a4 eb 65 2d e6 bf a9 05 86 18 94 58 b0 3f
       -0.6930417635349944 0.0638516006347546
0006f0 57 34 7e 34 a0 92 cc 3f c8 b3 57 26 22 ab ba 3f
       0.22322466433652963 0.10417378841493907
000700 e6 7e 50 f9 42 e3 d2 3f d7 1b db b4 39 3f d9 3f
       0.2951209482871334 0.3944839731379352
000710 d5 e8 b3 f1 be 3d d7 3f c9 36 f5 7f 20 2e d8 3f
       0.36314366916452673 0.3778153657520816
000720 b3 d9 fa b4 22 08 db bf ae 28 6a 15 33 24 d3 3f
       -0.4223715560323413 0.2990844449165121
000730 21 92 a1 f0 db 36 dd bf 55 22 ca 16 15 8d a0 bf
       -0.45647333621153235 -0.03232637313073342
000740 c1 78 b9 2d 3f bb de bf 10 ed f1 23 bc ef d3 bf
       -0.48017863717349135 -0.31150725851303296
000750 be 93 f9 26 f5 83 db bf 7a 26 84 92 b3 d1 c8 bf
       -0.429929054318844 -0.19389958051788253
000760 90 00 9f 87 fd 77 d6 bf f9 8c 9e 01 8c 36 d1 3f
       -0.3510736298012569 0.2689542785467008
000770 d9 47 53 ca 8a 21 c6 3f 58 54 db 9c 43 29 d1 3f
       0.17289862517514967 0.2681435615352874
000780 18 a1 1e 0f af 87 d3 bf 9f da 13 d0 6b 8b c9 3f
       -0.30515648342636004 0.1995672956470189
000790 6b 96 5a 66 64 10 af 3f 28 fb 27 bc 36 75 b8 bf
       0.06067193746029605 -0.09553854077965396
0007a0 e5 1d ff e3 b2 27 8a bf 88 ce 49 e4 86 c2 d0 bf
       -0.012771031935598873 -0.26187298101215406
0007b0 c6 75 5b db 0e b0 c7 3f 7e cd 25 12 35 01 d1 3f
       0.1850603648262405 0.26569868824227416
0007c0 0e ff 9b 10 97 ef 60 3f 9e 1e 3f ba 65 07 db bf
       0.0020673704610770843 -0.4223264998258659
0007d0 bd da 53 c4 c3 d1 e1 3f 43 7a 08 d5 89 99 d3 3f
       0.5568560442469203 0.3062462406541366
0007e0 21 0f 8a aa c8 c2 dc 3f ce 26 46 1e c4 d7 c1 bf
       0.44938866285541407 -0.13939715841507055
0007f0 7e ef 38 87 86 55 d1 3f 11 67 4c a7 75 81 d7 bf
       0.2708450623065274 -0.3672765859388259

bias f8 [80]
000000 e5 14 54 1a 5c f9 dd bf 28 e6 d2 52 25 7c b7 bf
       -0.46834471293580143 -0.09173806449953104
000010 c4 a1 80 d2 fc 1c b3 3f 13 d3 68 6d 66 7f cf 3f
       0.0746610654756586 0.24607544271716417
000020 ed 3b 33 86 79 41 dd 3f f0 dc 10 0c db 46 c9 3f
       0.4571212587879348 0.19747484292177075
000030 67 ac 8b fe 53 7e d2 bf 2e f5 03 e5 7a b0 d3 bf
       -0.2889604554936284 -0.3076464878539181
000040 72 f7 48 c9 d2 b2 d0 bf 9b d4 59 11 6a 26 c5 bf
       -0.2609145131753997 -0.16523481223308498
000050 fd 66 41 44 ba a3 d6 bf e7 67 72 fc 4f 71 da 3f
       -0.35374313989233014 0.41316604283349395
000060 33 1d 5a e2 88 5e c5 bf 04 7b 00 6e 9d 26 d5 3f
       -0.16694747021049636 0.3304818701016503
000070 e2 75 3b 2f a1 47 db 3f c6 84 23 f5 80 76 a9 3f
       0.4262469254734623 0.04973223678985898
000080 16 d2 7f 08 ce db c8 bf 3e 53 04 5e f0 9c b2 bf
       -0.19420791068081716 -0.07270719809851031
000090 61 4b ca 72 10 18 c9 bf 46 74 07 c6 a1 3d 82 bf
       -0.19604688267699102 -0.008906616073483541
0000a0 f2 b8 b3 c2 71 7b 87 bf 1c 44 1c 51 58 a1 c7 3f
       -0.011465920214018575 0.1846113582655854
0000b0 92 13 ea 7e 09 f3 dc 3f 98 c8 43 f3 ee 40 92 3f
       0.45233380693417147 0.017825826261237937
0000c0 52 f3 90 7e 2e 4e cb bf 8f 7a 32 97 95 6d cf bf
       -0.2133234136580549 -0.24553174860644275
0000d0 41 a6 f9 b6 ac 8b c3 bf 7c bd 4c 0b b1 b6 db bf
       -0.1527000325616417 -0.4330256090497284
0000e0 f5 63 38 e6 4b 56 b0 3f 1c a9 73 d0 f3 0a d8 3f
       0.06381677981006802 0.37566848141308795
0000f0 bb 9c 38 96 74 a6 d6 3f f9 bf 8a 7b f7 f5 c7 bf
       0.35390963239701606 -0.18719380886386697
000100 73 c2 76 a1 dc 99 d7 bf cb 0d 39 e1 73 c6 de bf
       -0.36876598136863165 -0.48086258882923677
000110 8c a5 4e e0 cf 21 b7 bf 5b f3 6a 0c fc 76 cf bf
       -0.09035968042612391 -0.24581862074219427
000120 d6 d4 06 fd c1 f2 d3 bf ea ca d4 d8 48 ac d2 3f
       -0.31169175824773043 0.2917654149525065
000130 8e 4a 4a 7f ae 3f d6 bf 1f 5c 3b aa 94 37 d9 bf
       -0.34763681822475057 -0.3940173780842446
000140 69 da b4 38 63 85 c9 bf 3e 0e 46 80 31 29 d9 3f
       -0.1993831660162926 0.39313924338077644
000150 3a 06 c9 2e fb 68 da 3f 1c 7f 3b 92 a6 ff d8 3f
       0.41265754288551515 0.39060367851742384
000160 80 db 25 73 59 f8 c1 3f ac 2d 44 52 fc e1 cb 3f
       0.1403915226216803 0.21783403412733315
000170 cc 6a 37 6a 2c 55 d0 3f a6 d1 65 bf 55 7c d1 bf
       0.2551985776205299 -0.2732138032072505
000180 58 3e 8d fd 63 38 dd 3f af d6 46 7a b5 01 b1 bf
       0.4565668083277834 -0.06643232569953271
000190 89 c2 d2 79 77 65 b0 bf ef 58 24 cb a0 37 c4 bf
       -0.06404825901223367 -0.15794763487855998
0001a0 f0 87 03 4f 71 0f b8 3f 31 f5 94 f2 a9 d2 d0 bf
       0.0939856355576294 -0.26285790147433646
0001b0 fb 96 3e 3b 56 ee e0 bf d6 60 f0 a7 de 88 d5 bf
       -0.5290938527220698 -0.33647886657992154
0001c0 17 b3 e0 7e 65 c1 d7 3f 4c 9e 92 23 99 2e dd 3f
       0.37117898359683593 0.4559691283597871
0001d0 0c 71 2d f6 90 9a d6 bf aa b1 ed a2 3e 4b b6 bf
       -0.3531839756085595 -0.08708564260240928
0001e0 a7 3f 61 4b 85 1c d0 bf 87 b1 d4 f7 f1 34 d9 3f
       -0.2517407642490021 0.39385651781301373
0001f0 04 c9 26 3f 6b d7 6e bf b8 72 5a b7 cc 89 d6 bf
       -0.0037648291265323115 -0.3521606245574662
000200 7d 18 87 86 e2 9a da 3f ba 14 7d 94 5c 6b ba bf
       0.4157034219500771 -0.10320070862970257
000210 80 27 99 6e df 94 d0 bf d2 b5 07 84 dc c2 cc bf
       -0.25908647347079494 -0.22469669768126593
000220 27 18 bd 68 21 ea d0 bf 18 8f b0 ef 2a bb ca 3f
       -0.26429019192107933 0.20883690551374268
000230 83 72 7a 45 d3 c5 c0 3f b8 20 47 91 50 7e ce 3f
       0.1310371484040794 0.23822981923718145
000240 3f 8c fd c8 c2 cd db 3f 8f 80 d6 8b cd 51 d1 3f
       0.4344336474225123 0.2706178536991581
000250 29 e6 39 9a 5a a2 d1 bf 8b ac ba 85 10 f7 bf 3f
       -0.2755342966189312 0.12486365570900852
000260 4c 15 e9 6e 6c 18 da bf d9 1c b8 0f bd c5 c0 bf
       -0.4077406962499779 -0.13103450076616843
000270 ef ad a4 b9 f6 aa cb bf 31 33 42 a3 0c 16 e0 3f
       -0.21615490021336778 0.5026915730137259

weight f8 [80, 80]
000000 bd 17 00 53 c4 d3 d2 bf cf 9d a5 51 4a 01 aa 3f
       -0.29417522531036494 0.050791094271342645
000010 fd f9 3e 4c ae 21 b5 bf 73 d9 c3 ae 83 dd a6 bf
       -0.08254517899965914 -0.04465877064096704
000020 14 e9 56 b1 9f 74 b7 3f c2 9b bd 78 1c 0a 8a bf
       0.09162328795983782 -0.012714598116600476
000030 b9 c4 59 0b 23 6c c9 bf 33 d2 12 41 e1 f2 c4 3f
       -0.1986125760481963 0.16366210629861797
000040 a3 1c 48 4c 24 3a b2 3f 61 bf e7 49 39 0a 56 3f
       0.07119967329355119 0.0013452109775435527
000050 40 38 5d a5 17 d5 9a 3f 87 2a 61 b9 f5 63 b8 bf
       0.026203507869745346 -0.09527526641719862
000060 63 c6 d8 f4 d2 3d d9 bf 04 84 ae 6c 99 05 b2 3f
       -0.3943984404641922 0.07039793876039374
000070 37 d8 75 72 50 10 bb 3f 91 9f 90 6b 8b c2 bb bf
       0.10571768564645444 -0.10843726516816178
000080 b2 65 86 4c e3 63 b8 3f b1 51 de 04 ac ed c6 3f
       0.09527416818891402 0.17912817228046898
000090 c7 fa a7 f8 45 fc a6 bf e2 3d f5 00 80 16 7a bf
       -0.04489344272950784 -0.006369113936059519
0000a0 19 78 cf 5b 77 41 b6 3f 3d ef a4 38 c1 5a 57 3f
       0.08693643561807142 0.0014254462171967152
0000b0 ec 3e dd 69 23 18 c6 bf c3 09 0a 64 78 a2 b5 3f
       -0.1726116434970132 0.08451034967769204
0000c0 0d b1 c9 91 0c 78 b5 3f 75 40 28 56 ad 0d c4 bf
       0.08386305388711808 -0.15666739184280556
0000d0 2f b6 8b 4c e8 03 c2 bf 1d 60 5b 6f be 61 ce bf
       -0.14074424493394264 -0.2373579066977535
0000e0 bc 2b e9 d7 11 2d bb bf 56 ad 7c f3 03 e5 bd bf
       -0.10615645905742971 -0.11677574820048639
0000f0 d1 81 ad 7b 2c 5a b3 3f 91 c1 3d 77 e9 b3 c5 bf
       0.07559469241596807 -0.16955297777486725
000100 e6 ad 2d d0 6f 07 b8 bf 5a 19 d9 92 ec 6b 8c 3f
       -0.09386347610932652 0.01387772391457236
000110 cc d4 5c 6f 67 b7 b9 bf 58 b3 c4 ee e9 47 b3 bf
       -0.10045477360548033 -0.07531606749826147
000120 12 2e 9c 0d 43 ee cd 3f 61 9b 0d cc b1 f6 b5 3f
       0.23383367695383633 0.085795509641327
000130 53 07 81 ab 2c 76 a2 bf 3e 38 19 b6 e0 26 92 3f
       -0.03605784982256801 0.017726431955729753
000140 5f 7f 9a 98 8a 0a 77 3f 84 95 9e be bd 37 c0 3f
       0.0056252874288985335 0.12670108611670738
000150 a2 19 6e 77 e7 a3 ad 3f 70 15 ba 9b d4 35 a4 3f
       0.05789111454855635 0.03947319413149841
000160 d6 76 ae 33 4b a2 b8 bf 44 0e 69 bd 85 76 ba 3f
       -0.09622640620952025 0.1033710086276694
000170 d8 ee 92 e1 77 4c ab bf d3 23 cf 4a 74 8d a2 bf
       -0.05331778172100393 -0.036235460407233376
000180 10 3c 15 87 3a cd 94 3f 8c 1f de f7 9f 13 ac 3f
       0.020314135069664785 0.054837225920947835
000190 64 09 ed c6 b1 00 bf 3f 78 6a c7 c0 b5 04 ad bf
       0.1211043463381763 -0.05667655924090281
0001a0 71 92 a5 45 18 2f b8 bf e2 a3 72 78 0c 07 40 bf
       -0.09446860981331341 -0.000489121522055599
0001b0 b5 b8 39 24 5f 63 c0 3f 1c 13 de 30 a8 f0 b7 bf
       0.12803258198568349 -0.09351588433316887
0001c0 f4 8d 81 ae 98 54 bc 3f 0b 29 54 51 f7 42 b1 3f
       0.11066583881761699 0.06742807136121003
0001d0 e0 f1 5f 47 f3 cf bf bf 9e b0 28 ee d8 c5 b5 bf
       -0.12426681988285493 -0.08505016149928443
0001e0 89 cb 08 91 9a 19 b5 bf 71 30 a4 a6 f3 a1 b6 bf
       -0.0824219326103003 -0.088408687766959
0001f0 62 60 ba 3c a5 db a5 bf 5f 84 04 b7 be 40 c0 bf
       -0.04269138685521125 -0.12697585998924674
000200 2b c6 50 59 85 d4 be bf b2 98 a3 5c ef e4 a1 3f
       -0.12043031149439602 0.03494976049278033
000210 57 81 c0 19 8f b7 95 bf 78 bd c3 7c 5b 28 96 3f
       -0.02120803446462224 0.021638326158549742
000220 1d cd a1 1b 34 80 9b 3f 40 70 06 7f fa 92 bc 3f
       0.026856245218778264 0.11161771393966635
000230 fc 95 6f c6 40 9b ab 3f ab a8 51 db 42 f3 8d 3f
       0.053918861601953666 0.014624140089115242
000240 5a 2e 4c f1 3e a1 b5 3f f6 e7 39 ba 7b 27 7a bf
       0.08449166670850997 -0.006385310468994368
000250 5a a7 cb af 26 a5 b1 bf a2 f2 83 c5 b3 41 a4 bf
       -0.06892625610239858 -0.03956376825405995
000260 01 01 6e 2e 01 a2 bb 3f 50 a7 6b b1 75 fc c9 3f
       0.10794074424302737 0.203016959792246
000270 5b 23 bd d0 91 71 a3 bf 4c e8 d3 c1 5b 28 8c bf
       -0.03797584221917446 -0.013748852589277182
000280 a9 c1 32 52 6a dc 99 3f bb 32 6f 03 f0 01 c1 bf
       0.02525488020609293 -0.13287162940686933
000290 ea 33 a6 87 0a 81 bd bf ac 40 ed 13 93 58 c6 3f
       -0.1152502614188077 0.17457807991968843
0002a0 85 1e e9 60 c5 5d 92 3f 6b ef 9a 79 bc 72 a5 3f
       0.017935833015398934 0.04189099296988171
0002b0 9e 58 f3 92 08 05 98 bf bf ac 71 53 2a 6c c2 3f
       -0.02345670124926668 0.14392594408432122
0002c0 46 5c 56 b8 50 0a ac bf c1 73 55 46 da a3 be bf
       -0.054766199590794915 -0.11968769280561188
0002d0 5a 87 ac f6 bb a9 b6 bf 12 91 40 f3 52 19 bc bf
       -0.08852743885338779 -0.10976141394400354
0002e0 43 c1 5f 27 64 2c be 3f 42 c8 3f 61 a7 6c 83 3f
       0.11786485635071124 0.009484584479626194
0002f0 a2 fc ad ed 9f 2c a5 3f e2 09 ea 58 a5 7b bb 3f
       0.041356084598185974 0.10735543652302895
000300 7d c8 7d 06 a2 42 b8 3f 23 aa 38 75 8f f0 c5 3f
       0.09476673754196159 0.17140382026384868
000310 f6 f4 1e 1b c1 09 bf 3f 05 0a ab 21 25 cc a7 3f
       0.12124258911258665 0.04647937808978856
000320 40 b4 e4 06 56 f9 b3 bf 14 03 90 6d db 88 a3 3f
       -0.07802331608100221 0.03815351211961207
000330 4b 37 26 65 69 eb b7 3f a0 03 be a2 2d 56 a3 3f
       0.09343584746804116 0.03776686297988552
000340 7a 1d 9f 2a 3a 41 b4 3f 03 28 ac 88 f8 37 c1 bf
       0.07912028828206089 -0.13452059434376915
000350 51 84 b4 d6 4b 90 aa 3f 79 b8 37 51 16 69 bc 3f
       0.05188214298164751 0.11097850306370728
000360 b6 49 73 f7 de ce 97 3f 10 b0 ba 2d e5 3c a2 bf
       0.02325008759800947 -0.03562084372728702
000370 ac 9a 15 b1 e0 3d be bf db d9 2f be 00 c0 ad bf
       -0.11813167880391501 -0.05810549089067126
000380 96 b9 e9 01 2c fd a9 3f 5c dd a4 e6 32 c1 b4 3f
       0.05075967334129243 0.08107298022229287
000390 6e ca 38 27 97 af b9 3f 20 0d 04 d9 26 3d a0 bf
       0.10033554751934456 -0.03171655081862412
0003a0 79 7f e8 bf 99 62 c7 bf 07 6f 5e d2 ea dd c8 3f
       -0.18269655104176843 0.19427237770002412
0003b0 8e 2c 4e 36 9c 48 94 3f 24 3b cc 4e e7 9c b0 3f
       0.01980823594525965 0.06489415811323035
0003c0 82 74 48 56 21 5e 6b 3f 45 56 04 b6 65 ac c0 3f
       0.0033407832254526712 0.13026114833398786
0003d0 57 51 99 f1 bb d4 8c 3f dd 9d 34 cf 2d f6 ad 3f
       0.014077633200181223 0.05851882128109385
0003e0 e4 16 87 d3 d3 93 a9 3f 28 e2 c7 55 b2 8d c5 bf
       0.049955958911182013 -0.1683867377139603
0003f0 64 30 91 54 91 9e ac 3f af 7e 8b 93 af fd bb 3f
       0.055897275517595074 0.10933968879862264
000400 e5 ce 47 70 ff b4 96 bf b3 11 53 fa ca 8d b5 3f
       -0.022174826839502244 0.08419483767926898
000410 31 ed b1 59 40 68 a8 bf c5 22 23 cd dd 9d a6 3f
       -0.04767037482175807 0.044173175135772826
000420 3a b2 15 f4 82 17 ae bf 03 40 ae f9 08 92 ca bf
       -0.058773128791333965 -0.20758163634718593
000430 44 43 c3 f1 d5 8e c4 3f 48 07 d0 df 94 ef 9e 3f
       0.16060900025197544 0.03021080604594964
000440 ea 15 30 eb ca 64 a3 bf a9 96 0a 38 3d 1f b3 bf
       -0.037878361901714744 -0.07469542139241504
000450 8d 05 94 7e 6e 60 8a 3f 5e c1 7b 36 12 5c c1 3f
       0.012879241216526416 0.13562228832553108
000460 66 49 de e5 ca 5b 9f 3f f5 e4 19 e5 8a f9 bf 3f
       0.03062359836582953 0.12490146725930969
000470 cf 82 91 f3 4c 5a a8 bf 7e d0 c0 79 ad 24 9d 3f
       -0.0475639388394079 0.02846022658941693
000480 11 cb a3 70 66 0a b0 3f 67 66 28 bd fb 18 b5 bf
       0.06265869379039325 -0.08241246574507387
000490 cf ca c5 d7 e8 18 93 bf 54 19 f0 28 87 ea 7e bf
       -0.018649709863391813 -0.0075478820499540085
0004a0 dc 51 10 5f bd 67 b6 bf 42 ef 7e 2a 88 15 b1 3f
       -0.08752044268505393 0.06673480069633533
0004b0 bb c3 34 cc 99 26 86 3f 64 c0 c2 49 67 53 ba 3f
       0.010815812630058255 0.10283513594436183
0004c0 bd d4 a7 ab f3 1d 62 3f 05 9d 21 79 60 66 5b 3f
       0.00221154777431795 0.0016723577614586327
0004d0 22 72 bc 8e 3c 37 91 3f 77 76 84 ef f9 7f c0 bf
       0.016812273227616477 -0.12890552706896916
0004e0 fb 6b e3 b5 e9 3a 56 bf d9 b9 ea 8a fa 1b c2 bf
       -0.0013568193749537983 -0.1414788416199844
0004f0 41 b8 52 b4 56 a3 c1 3f 34 60 6b 84 e0 0a 93 3f
       0.13779720120277442 0.01859618004058934
000500 d9 28 59 ec 61 f0 c0 3f ff c9 70 67 3f 77 be 3f
       0.13233589210933053 0.11900707507519569
000510 62 e3 56 be 3f bf b0 3f 37 a7 3a 06 31 a6 ae bf
       0.06541822812040501 -0.05986169053114881
000520 16 e9 62 b2 a7 38 c1 3f e4 08 09 69 39 0c bb bf
       0.13454147539398126 -0.10565527738893682
000530 f8 cf 60 19 4f a1 96 3f 85 62 b1 1c 49 29 89 3f
       0.022099719928704048 0.012285777271402462
000540 0a 35 5d 07 fd f3 a8 3f a9 d3 a3 c3 f0 ce b5 bf
       0.04873648371595081 -0.08518891121259621
000550 2a f4 68 5b 5a 25 cc 3f 56 3c c7 af 5e ca b3 bf
       0.2198899217927715 -0.07730666915380033
000560 50 c8 b5 11 1d 7c ba bf ec 1e bd d2 72 94 ae bf
       -0.10345632250189962 -0.05972632238859696
000570 da 9c b2 18 41 df ae bf 95 ba 61 a5 5a 18 94 bf
       -0.06029704500661533 -0.01962415346536746
000580 bc b0 ef fe 75 36 b3 bf 71 2a 2b e1 4d a1 b7 3f
       -0.07504975770979433 0.09230505702286408
000590 4c 27 40 05 97 ae c5 bf 0b 30 d0 75 d7 46 c0 bf
       -0.16939056164147315 -0.1271619153270652
0005a0 ed e2 ac d5 3e 1f a4 3f 36 ce 9d 5d 84 d2 a0 3f
       0.03930088384953998 0.032856117656504244
0005b0 ba 48 04 8b e9 6e 85 3f 12 15 52 6b 67 4f 86 3f
       0.010465454630807936 0.010893638575235207
0005c0 43 21 d2 fd f5 a1 c3 3f 48 9e a6 21 40 f7 c4 3f
       0.15338015454859474 0.16379548686130563
0005d0 12 d2 bf 7b 42 1a cc 3f d4 fc 96 94 c3 0b c4 bf
       0.2195513824696183 -0.1566090083633528
0005e0 9a ab 19 97 7c 8a b5 3f b1 07 f5 09 78 f7 c3 3f
       0.08414438904735136 0.15598965154827973
0005f0 c5 04 99 98 0c ae a6 bf 27 10 28 51 e4 d2 ab 3f
       -0.04429664004101989 0.05434335222892655
000600 1b 47 4f 5c c2 11 c0 3f 5c 9c b8 73 3f 27 bc 3f
       0.12554196841534168 0.1099738748094849
000610 58 2b aa a5 1d 3d a0 3f ad d8 c7 14 fc 1b c3 3f
       0.03171627661966764 0.149291525027086
000620 4d ad 7d c8 ca 70 d0 3f cb 33 c0 49 0b e4 ba 3f
       0.25688428477470354 0.1050421767287865
000630 52 16 53 a2 35 00 9d 3f 0e 70 64 f2 4a ec 90 3f
       0.02832111171007618 0.016526385349706678
000640 09 d0 db 2b 3e 11 9f bf dd e8 c5 15 af b1 7d bf
       -0.03033921377841867 -0.007249530721646216
000650 c1 6f 01 e4 c6 86 83 3f 5e 70 70 98 75 5c b5 bf
       0.009534410317591726 -0.08344206782970917
000660 f4 bf c9 d8 f9 5c c8 3f 98 4d 92 ee 05 55 49 3f
       0.19033740125041698 0.000773075005002277
000670 bb df 4b 10 a2 44 bf bf 65 65 f8 31 e9 e5 bf 3f
       -0.12214100740300086 0.12460191221216162
000680 81 76 b3 96 4a 16 b6 3f 8f 31 a8 a0 85 dc b6 3f
       0.08627763919090549 0.08930239841737929
000690 4e 2c ed 30 96 48 bb bf 2e f3 8d f2 7c f8 c6 3f
       -0.10657633490079485 0.17945825427514123
0006a0 a4 9d 3f d7 75 11 a7 3f bd f1 d3 cb 73 35 c2 3f
       0.04505508663697391 0.14225623562368908
0006b0 b4 ec f6 b7 2f 5b b3 3f 75 29 82 a3 c4 27 c2 bf
       0.07561014405557637 -0.14183862670717998
0006c0 fe 52 9c 69 8c b9 a9 3f 86 02 97 8b cb 57 c0 bf
       0.05024374760811233 -0.12767929378425807
0006d0 c3 be cb 83 67 00 b1 bf 92 0f 4d e8 ff 70 ae bf
       -0.06641241996453133 -0.05945586882310673
0006e0 af ef 25 a5 65 90 b0 3f 30 7b 93 f5 77 a4 ad 3f
       0.06470332414568135 0.05789542076830967
0006f0 ce 47 76 ee 38 5e ab bf 4e 1a e8 6e ef 6e b0 3f
       -0.053453234776625544 0.06419273812944334
000700 0a ec eb ef d2 35 b1 3f 90 51 fa f1 76 a1 a8 3f
       0.067227538656809 0.04810687736349728
000710 8a d1 0f 3b 6a f8 a0 bf 5a 67 d5 17 71 2b 76 3f
       -0.03314525576562051 0.005412523050233842
000720 f0 8c 47 94 4d 53 b4 bf 06 f3 7a 61 d4 9e c0 bf
       -0.0793961035738453 -0.12984709510592313
000730 5b b4 68 97 c9 4f b3 bf 0a 90 50 f7 2e 08 97 3f
       -0.07543621012219275 0.02249215492714999
000740 bf 05 97 1a 15 c4 99 3f f8 e9 06 5d c0 81 b7 bf
       0.025162057636185283 -0.09182359954039743
000750 c7 30 7b 4a 99 48 97 3f ee 6b 58 37 bb 37 9f 3f
       0.02273787991616485 0.03048603558827872
000760 d6 73 3c f0 dd fc a7 bf 07 e2 8f ac 99 ae b4 3f
       -0.046851096702290526 0.0807891889852571
000770 9c 27 4b ce 67 ce 80 3f 9d 9e c0 66 01 d4 8e bf
       0.008206187232094035 -0.015052805851225865
000780 de 71 3c e6 84 b7 bb bf 6d d6 20 89 9d f1 b3 bf
       -0.10826902981757011 -0.07790550802095604
000790 87 3a 75 14 77 26 93 bf d2 07 d5 e8 61 30 bf bf
       -0.01870142042508374 -0.1218320077360027
0007a0 79 72 ff ab 53 67 a3 bf c1 d0 5d f0 5e 33 9d bf
       -0.03789769625266088 -0.02851627676086888
0007b0 d7 fd 1a a5 81 fa b1 bf 3a 5a f3 83 09 b1 79 3f
       -0.07022867470640591 0.006272351426750472
0007c0 c2 05 da f5 da 65 bc bf bd 99 ac 5e 3e 34 95 3f
       -0.11092918874967153 0.020707106140571464
0007d0 3b 1d e9 cb fb de b1 bf af 17 22 f3 0d 3a 98 3f
       -0.0698087094143504 0.023658960308715112
0007e0 19 28 00 9a ab b0 70 bf 23 9a be 8c 17 a5 aa bf
       -0.004074735945332386 -0.05204080193589202
0007f0 13 7e 2b d3 54 e5 b6 3f 72 e0 6e 98 ce 36 a9 3f
       0.08943681865229562 0.049246269328649186

bias f8 [80]
000000 cc cc 4a a5 75 17 b4 3f bc b9 ce 3e 43 34 ba 3f
       0.07848296437696262 0.10235996516596563
000010 a2 f1 45 6b 73 a1 83 3f 8d c2 11 ca 6a de ac bf
       0.009585286818713016 -0.0563844081560819
000020 54 3e e9 f4 94 7c c1 bf 21 83 13 46 c7 10 a7 3f
       -0.13661443670797502 0.04504988413260081
000030 ea 31 1d 2d d7 5c b1 3f fd e2 41 67 88 f9 a4 3f
       0.06782288409630835 0.040966284374865915
000040 ed ef 8f 33 e0 37 ba 3f 4f d6 fa 30 16 8a ba bf
       0.10241509684414014 -0.103669535596816
000050 58 0d 84 20 31 27 b9 bf 37 6d 31 29 26 6b a4 3f
       -0.0982542709717128 0.0398799824985993
000060 03 9c 3b 7f 08 c6 9e 3f 45 f9 4c 17 df 85 77 bf
       0.03005231167380985 -0.005742904137888087
000070 ae a2 7e 06 3b 16 bf bf 00 7e c9 8d 48 17 b4 bf
       -0.1214329615455749 -0.07848027669523816
000080 1b ea 2b ba 0e 4e 98 bf cd c9 13 5d 89 9a aa bf
       -0.02373526583958539 -0.051960270511603214
000090 34 86 14 48 6b 32 af bf a0 dc ab b5 e3 6d b5 bf
       -0.060931541966294495 -0.08370803056083043
0000a0 67 86 ab 39 a9 0e 9d 3f 50 bb 33 7e 50 ac a6 3f
       0.028376239914797454 0.044283404737021415
0000b0 d9 08 2e 6f 73 9f 93 3f c9 f1 ab a1 f7 88 b6 3f
       0.019162944470289076 0.08802745530187574
0000c0 ea 40 05 21 5b b3 9d 3f 86 54 09 92 fa d0 94 3f
       0.02900450123826285 0.02032844082198839
0000d0 cf d9 7c a5 b3 46 c0 3f 0c 25 5b cd c9 f6 a5 3f
       0.1271576459927943 0.04289847022807622
0000e0 ba c2 e5 a0 88 54 b5 3f 99 e2 3f 6a 78 b8 bf 3f
       0.08332113197480853 0.12390854448302448
0000f0 48 8a 2e 4b e1 cc 97 bf bd 0a c8 12 cb 4b b0 bf
       -0.02324249287961269 -0.06365651329546558
000100 b6 99 49 d7 13 4d b8 bf 18 fb 80 34 47 b8 94 3f
       -0.09492610937159082 0.020234215335444977
000110 cb 69 92 d4 db 67 af 3f 0a 4c 50 92 7d 7b a3 3f
       0.06133925409195092 0.03805153285079406
000120 9a 06 d7 c3 99 62 b2 bf 12 dd 19 19 31 a2 b9 bf
       -0.07181702643631596 -0.10013110030000785
000130 f2 9e a8 20 fe 40 ad 3f cb 2b 60 85 3d 75 92 3f
       0.05713647984185667 0.01802536131439662
000140 68 86 8a a0 e2 a8 bf bf 2e 78 06 b1 9e ab 9f 3f
       -0.12367073459111 0.030928115420117468
000150 9b 00 90 c4 87 f2 a2 bf 09 49 ee 4f f8 9c a6 3f
       -0.03700660967297261 0.04416633582799718
000160 70 0a b9 7b 7c 56 9b bf 89 b9 50 3f 9b 0e 72 bf
       -0.02669710641044748 -0.004408461031785279
000170 88 5b 37 a7 14 b7 bc 3f d6 ac ee 71 78 9d b5 3f
       0.11216858942439789 0.08443405896712206
000180 d7 a8 1e 15 15 d5 b0 3f 1a f0 7e 60 89 97 c5 3f
       0.06575137868518098 0.16868703090392573
000190 30 e1 66 40 66 bb be bf 69 08 20 6b 02 e9 75 bf
       -0.12004698822318427 -0.0053491682501790394
0001a0 26 c6 bf b0 36 88 c4 3f 0c 65 24 8c f5 9c b4 3f
       0.1604069102318572 0.08052000686111088
0001b0 fc b2 83 a8 ec 23 95 3f 92 00 d7 55 ac b2 ab bf
       0.020644853387170578 -0.05409754321908723
0001c0 d6 d5 31 72 46 a9 84 3f 5f 1e 77 a9 61 6c a0 3f
       0.010088491783089387 0.03207688516300488
0001d0 ef 72 20 52 ff 9b b5 3f 09 71 69 43 66 9c b2 bf
       0.08441158061073016 -0.07269896646306874
0001e0 7f ce 9f 65 4c 06 b5 bf 0b fa 59 3d c0 f5 b3 3f
       -0.08212735634861622 0.077968611696612
0001f0 6b 19 cf b5 29 43 b3 3f 98 2c 1e 16 ac 0a ab 3f
       0.0752435749883255 0.0528157975196219
000200 af e7 a1 1d 35 d3 80 3f 80 f4 97 69 e5 7b b2 bf
       0.008215346304712627 -0.07220300510376099
000210 02 e3 0b 06 6c 83 96 3f 45 28 85 4b 14 63 a5 bf
       0.02198571001915451 -0.04177153989674357
000220 d0 5d e7 d6 02 24 87 bf 7d cf 93 82 bf 8f 96 bf
       -0.011299154456465482 -0.022032730431376536
000230 c0 6c cf 86 25 f9 b8 bf 84 22 2f 4d be ca b5 3f
       -0.0975516752363772 0.08512486824396076
000240 38 27 9f c0 23 8c c0 bf 69 4f 6c fc d0 44 b7 3f
       -0.12927672295909942 0.09089380419419303
000250 a1 78 14 99 28 ad c2 3f a5 d7 df d1 69 25 ba 3f
       0.1459093806706209 0.10213338254820188
000260 cc 9e 41 63 48 67 b9 bf ce 03 60 b9 b3 d8 a2 bf
       -0.09923221991777637 -0.03680955541495444
000270 93 cd 74 e2 34 17 b1 bf 88 7a a1 34 47 3d 9b bf
       -0.06676035431592302 -0.026600945079162247

weight f8 [80, 80]
000000 45 c6 33 ba 67 c1 c3 bf 5d 16 48 f4 03 aa bf 3f
       -0.15433975784212542 0.12368797983079945
000010 ad ee c9 74 9f 77 b3 bf c5 87 50 fc 71 8b b6 bf
       -0.07604405022896783 -0.08806526575111125
000020 ca 0f 15 5a 04 7d c3 3f aa 67 ab 06 12 f3 ae bf
       0.15225271605061003 -0.0604482300893346
000030 e7 d0 49 5f d1 9a b5 3f 04 f6 62 63 46 5a a2 3f
       0.08439358307242949 0.03584499324049875
000040 c3 cf f1 66 ec e3 ba 3f 10 57 ed ee dc eb 93 bf
       0.10504033578200649 -0.019454433520272707
000050 90 20 b3 91 c3 3d b6 3f 6c 98 14 c8 6b 12 72 3f
       0.08687994296190227 0.004412098905311006
000060 8a c6 50 55 56 86 95 bf 11 28 60 e0 e6 7b b4 bf
       -0.02102026839947383 -0.08001559236450385
000070 17 67 fa be 3f 0b c5 3f ca 0a 2b d1 27 5f a4 3f
       0.16440579247574114 0.03978847912141743
000080 23 70 e8 5c 70 bf c2 bf e1 df ce dd d3 19 be bf
       -0.14646725212594544 -0.11758159795033364
000090 72 cc df c5 90 c9 b5 bf 92 0f 29 cb ee b3 80 bf
       -0.08510689574159061 -0.008155694556201163
0000a0 35 14 49 4a e7 fe b3 3f 5d 78 df 27 1d 1e bd 3f
       0.07810826839075065 0.11374075149021352
0000b0 1a 4b 50 9d 74 f5 a8 3f ed 38 fc 65 fc 26 c0 bf
       0.048747677043271945 -0.12618975620029663
0000c0 7b ca 75 36 a5 93 b5 bf d3 ef 28 39 9f 86 be 3f
       -0.08428413943856043 0.11924166818147279
0000d0 f7 46 41 d4 dd 45 cb bf 91 93 27 e1 6a 93 b0 3f
       -0.21306965698254718 0.06474941250742307
0000e0 d3 5d 3b b6 35 2e b2 3f 74 5e 6b cc 89 88 a5 bf
       0.07101760577221876 -0.042057329371968516
0000f0 9b 2e 9e fe df c3 aa 3f bd 2f 72 f3 2d 00 b6 bf
       0.05227565749291082 -0.0859402388907133
000100 d1 af f9 f3 04 00 8e bf 48 50 d1 38 f0 76 d2 3f
       -0.01464847440293929 0.288509421812027
000110 89 ee 58 17 dc 5b b4 bf 97 7c 1c c0 db a7 96 3f
       -0.07952666826252587 0.022124703980008844
000120 24 1f 05 9d ef bc 93 bf 09 4c 15 04 54 cb b4 bf
       -0.01927542110323012 -0.08122754192054073
000130 9b 8b 21 23 26 e5 b2 bf f7 83 37 37 8d 4a b0 bf
       -0.0738090358513958 -0.06363756750171477
000140 d4 c5 7c 06 cf 22 80 3f e6 73 6d 17 f1 94 7e 3f
       0.007878892312507192 0.007466260684705772
000150 2d ae b5 33 26 61 91 3f ba 4c 18 ef 3c d3 9f bf
       0.016972157388791032 -0.03107924660987458
000160 9c 15 63 cc 27 23 9b bf 46 c8 af 77 15 44 b2 3f
       -0.026501294946475448 0.07135137722050997
000170 56 54 19 7a 0b fd b3 bf f0 51 f1 7b ef 77 9e 3f
       -0.07807990771228054 0.029754392566546828
000180 c3 7f c9 85 e9 f6 bd 3f 43 40 97 35 89 fc c2 bf
       0.11704883114134561 -0.1483317863153407
000190 d3 ab 6b 59 44 80 b9 bf 4a e5 57 c7 3b 18 a8 3f
       -0.09961344893569839 0.047059887012390236
0001a0 f4 e3 76 26 dc 6a cb bf a7 48 96 70 66 08 ae bf
       -0.21419860723634054 -0.05865783809999075
0001b0 36 2d fe 0e 7d 31 a4 3f 11 33 27 04 18 35 bf bf
       0.039440067367730355 -0.1219038972987614
0001c0 46 90 d9 3a 45 69 c0 3f 8e ed b6 61 c1 ed c1 bf
       0.1282125985482045 -0.14006821891039717
0001d0 ef 12 16 20 e4 7b ae bf 6c 3b 74 25 d3 1c bf 3f
       -0.05953896419217652 0.12153358139424392
0001e0 3c da be fa 58 9e ac bf c1 3a 5a 1b d5 8f 73 3f
       -0.05589559613092773 0.004775841187110331
0001f0 37 14 8b 7c 5c 8e ae bf 49 b3 72 3a 6c 23 c1 3f
       -0.059679880335842865 0.13389351705463984
000200 45 5e e4 81 9a 28 b9 3f f8 d7 0b c8 06 b9 b9 bf
       0.09827581092064815 -0.1004795301813316
000210 03 22 40 dd 21 0f a4 3f aa cb b6 3e c6 7e bd bf
       0.039177950151557915 -0.11521567374329203
000220 dc 77 43 f9 f1 2c be bf f9 6d 3d ce e3 04 ba 3f
       -0.11787330947433311 0.10163711342959648
000230 08 d3 ca 45 43 c7 ab bf d0 b2 81 60 71 d1 af 3f
       -0.05425462939220976 0.062144797354312
000240 a9 a9 90 8c 1b da 9e bf f1 3a c9 88 2b a9 c2 3f
       -0.03012888951722351 0.14578766039854643
000250 9c c2 8e 21 46 73 97 3f a6 a8 63 c3 9b b6 c2 3f
       0.022900672720143164 0.14619776764385967
000260 7a 58 99 c3 8e 6b 98 3f 80 45 9c 5f 44 3a 88 bf
       0.023847799957672035 -0.01182988564281362
000270 b8 9f a6 88 7e 1c c4 bf dc 0b be 7c bb 5f b5 3f
       -0.15711957619100558 0.08349201007335644
000280 1e 06 94 d6 d3 4e c3 3f 3c 4a b1 f4 a9 d3 85 3f
       0.1508431241746146 0.010657623081134486
000290 88 b9 07 41 c1 b1 af bf 5c 6d d4 16 d3 59 a3 3f
       -0.061903037250760795 0.037794682061042834
0002a0 26 41 77 90 6d 50 60 3f 58 9e 37 94 b6 c0 9d bf
       0.001991476052104829 -0.029055455013717285
0002b0 06 1c b4 7a e9 57 b6 bf 04 2c 2f 1e b6 1a 95 3f
       -0.0872789310998173 0.020609708397199014
0002c0 45 9e 95 71 3b 62 9e bf 94 a1 b6 7a 33 30 b6 bf
       -0.02967160111202662 -0.08667299028332415
0002d0 77 65 cf 84 95 f9 aa 3f 29 ec 14 ab 2f 26 9e 3f
       0.05268542524545244 0.029442543808937103
0002e0 90 88 d9 43 ce 07 9a bf e6 e2 03 e1 51 65 c3 3f
       -0.025420401469439968 0.15152953612393744
0002f0 d5 fa 3d 57 35 7d 94 3f 9c c7 88 e4 fa c5 bd 3f
       0.020008881997905476 0.11630218581629354
000300 e2 66 63 b9 bd 51 b4 3f 3d 58 d2 42 d7 f1 91 bf
       0.07937227035599961 -0.017524112180204766
000310 d8 3c 38 5f d4 7f b0 bf 41 33 1b 21 f5 71 a1 bf
       -0.0644505245656889 -0.03407255200509108
000320 38 6a 7e cd 2e 25 b5 3f 2a 4a 63 8a b2 da ba 3f
       0.08259861485422781 0.1048995578633273
000330 0a d4 45 1d 3a f1 a9 bf 78 80 8d 06 15 dd a7 bf
       -0.050668541024528294 -0.046608597803015905
000340 63 57 6f fd 2f b9 af 3f 66 5e 1d 8a ab 72 a3 3f
       0.06195974320114208 0.037984238252360567
000350 ee d9 79 8b 6e 9b 99 3f 91 9d 32 8e eb 4f 8d bf
       0.02500698782247384 -0.014312591816930705
000360 b2 7a a2 21 1f c6 92 3f d2 1e 16 f5 65 04 a3 3f
       0.01833389895238708 0.037142931144499194
000370 cd 90 c8 61 b4 88 98 3f 57 38 88 57 e1 b9 96 3f
       0.023958986728886345 0.0221934518504486
000380 f8 d5 d2 c6 98 29 a1 bf 47 f4 be 9e ee b3 b4 bf
       -0.03352048327489493 -0.08087054610855758
000390 7d 2b 1f 16 68 65 b7 bf 68 51 49 bf 88 e9 b2 bf
       -0.09139109172899214 -0.07387594862058722
0003a0 88 7f 5b 7d 68 91 b5 bf b7 cb 27 3e e4 3d b6 bf
       -0.0842500024841667 -0.08688189046351523
0003b0 ed 93 c7 56 e7 06 c2 3f 17 3c b3 e4 33 dd 9e 3f
       0.1408356832245369 0.030140696367023958
0003c0 3d 45 e8 dc 46 28 b9 bf 65 56 0b 81 ff 33 b2 bf
       -0.09827082532162464 -0.07110592747206963
0003d0 4f 88 fc d3 87 39 bb 3f 24 06 e0 51 1f 35 bd 3f
       0.10634659696054992 0.1140918326273313
0003e0 66 9c 57 5b bc 3f b7 3f 95 90 7f b8 95 21 c0 3f
       0.09081628065142552 0.1260249281759839
0003f0 83 69 0f 9e 78 7e 91 3f 3d 65 47 62 3f ac 8e 3f
       0.017084011695126754 0.014976973711713465
000400 41 73 e9 3c 55 2f c6 3f e3 1c 33 e2 3c 3d c8 3f
       0.17331948732580751 0.1893688301554227
000410 38 11 6e f3 88 b2 b7 bf f8 3c 58 a7 29 f5 b2 3f
       -0.09256797736276645 0.07405338607371792
000420 23 95 c1 b6 6b f6 c6 3f b9 13 f1 f4 b2 28 b2 bf
       0.17939516471521086 -0.07093351821920536
000430 4b 12 17 b1 f8 32 a7 3f ae fc 60 dd 24 8b af bf
       0.045310756318518296 -0.061608459495340426
000440 f7 63 01 0f d8 62 b0 bf 12 f0 22 94 c1 4d b5 bf
       -0.06400823942512078 -0.08321771494496513
000450 a7 f1 3c cd a7 36 b0 3f 86 0b 33 a6 1a d2 9f bf
       0.06333397637076264 -0.031074921030050294
000460 80 bc 35 e3 a6 54 ba 3f 75 38 f6 18 9c 5a 8a bf
       0.10285418555371173 -0.01286813689401021
000470 ae 6c 81 1b 6e ae a2 3f 94 03 10 20 b5 fd a0 3f
       0.0364870461059693 0.033185634769331035
000480 95 73 6a 00 95 ea a3 bf af 0d 00 d3 82 a0 bb 3f
       -0.0388990939147568 0.10791795398113523
000490 a3 92 4b 0b 02 0f c0 3f 7c a2 7e c4 c6 b9 b7 3f
       0.12545800735019438 0.09267847344620778
0004a0 87 ce f6 04 c8 37 89 3f ff a7 4a 51 9f 9b 88 3f
       0.012313425685398073 0.012015576046298547
0004b0 a4 78 2b 3b 2d 8c 90 3f be 4e 99 bb ad 4b 9f 3f
       0.016159731613577435 0.03056212861549911
0004c0 f1 e8 17 7b 6c 80 b9 3f b3 bb 2d 33 17 c0 99 bf
       0.09961584096155086 -0.02514683008069669
0004d0 c0 8a b0 20 fa 48 a5 3f e7 b8 3d 11 a0 1a b4 3f
       0.041572395792419226 0.07853126927304609
0004e0 46 32 6f 2b 5d 60 84 bf 54 4d b0 2b 1f 6c c0 3f
       -0.009949424636851788 0.128299614269603
0004f0 89 3a 30 5d a4 a6 a7 bf 97 65 58 9c 74 bf be bf
       -0.046193252921615864 -0.12010887925170831
000500 d3 5c a8 a4 4f 49 78 bf 04 bc fe 7f 84 1e af bf
       -0.005929289919115638 -0.06077970564307836
000510 c4 37 2e f9 2d 03 a0 bf ec 05 52 0e 44 9b b4 bf
       -0.03127425829653377 -0.08049416875476084
000520 57 2c a7 66 16 e5 94 3f a7 59 dd 07 11 0f a5 bf
       0.02040514947456659 -0.04113057347301501
000530 5f af 6c 7e 60 f4 7d bf df 04 52 c7 8a 2d ab bf
       -0.0073131341257911256 -0.05308183367834273
000540 c4 dc bf 3f 25 2f b6 3f 52 87 38 76 6c e9 a4 3f
       0.08665688330062254 0.040843381339313325
000550 98 ad 14 e5 9d 33 bc 3f f3 bc 51 25 cf f0 aa bf
       0.11016260950844126 -0.05261847811277134
000560 96 ab 0e ab 00 99 96 bf 36 84 c3 4d fa ee 98 bf
       -0.02206803363848627 -0.024349127765962396
000570 3e ba 65 ea fd ec c1 bf a4 cd 67 02 9f 1d a3 bf
       -0.14004491753753884 -0.037335366290700805
000580 52 a3 1c 1e 66 0f b0 bf 4d f3 6d fb c0 06 91 3f
       -0.06273496852066998 0.016627326341665683
000590 4c 5d cd a1 20 f9 af 3f c3 d3 4c 20 72 13 b0 bf
       0.062447566748853406 -0.06279671944214642
0005a0 b8 81 e5 17 0b 23 a3 3f 8c 56 1b 91 90 0e d3 3f
       0.03737673441605999 0.2977639596041193
0005b0 74 1a 45 f6 1e b2 c2 3f 83 ca 72 0a ed e8 a3 bf
       0.14606081986331143 -0.03888645889801003
0005c0 c3 d3 d2 16 8b fc a1 3f 91 25 1e a9 91 4e 9a bf
       0.03512987760169708 -0.025690341899041128
0005d0 4b cc 05 a9 e2 7e b4 bf 95 76 61 02 30 b0 b3 3f
       -0.08006111742524628 0.07690715845225278
0005e0 a9 8a d6 e7 57 5a b2 bf 6b 72 53 4e ff 23 ab 3f
       -0.07169103059872363 0.05300901251914499
0005f0 4b 4d 10 5f eb 57 94 bf 10 c1 dd 2f 89 d1 a0 bf
       -0.019866635968424345 -0.0328486319475606
000600 15 31 69 33 1b 03 be 3f 9f fb 1f 31 18 0c 96 bf
       0.11723489766263058 -0.021530511854503605
000610 22 32 66 d6 96 65 b2 bf 6a 67 72 be 09 bc c1 3f
       -0.07186262831073312 0.13855096625485014
000620 58 1a 14 54 fe 30 b8 bf 5a d1 a9 2b de 3c 98 3f
       -0.0944975810308305 0.023669692435264046
000630 7e 51 92 6f 90 89 ab bf c6 09 17 a3 d0 2f 90 3f
       -0.05378390657384367 0.0158073997060997
000640 0c ef 02 57 5c 52 ae 3f 74 76 62 6d 37 36 b6 3f
       0.059222112294689294 0.08676477833292912
000650 9a 06 31 c2 b3 eb b7 3f 60 48 1a e7 f2 31 be 3f
       0.09344027987483586 0.11794965879588082
000660 cd f7 4b 41 93 d9 be 3f d7 17 e1 7a 75 a3 b2 3f
       0.12050743431242879 0.07280668497068575
000670 b1 12 6e 4b 60 3d b3 bf 01 34 be d4 6e 96 4f 3f
       -0.07515527574112003 0.0009639779250264492
000680 17 e5 41 e7 da 7e c2 3f 70 7d 8d 0c e3 88 90 3f
       0.14449631015649153 0.016147182122379033
000690 de 3a 68 0f 01 5c b7 3f a3 e8 c0 e3 89 b9 b1 3f
       0.09124762178565102 0.06923734484090231
0006a0 b8 1f 58 5f 4a b2 7c 3f 0f bc a7 83 70 5d 72 3f
       0.007005968587243609 0.004483642109774712
0006b0 4c a3 af a1 40 3e b1 bf 6a 51 8e d4 ab f7 bc 3f
       -0.06735614726461597 0.11315416278222803
0006c0 71 66 79 ee 23 09 c2 3f 4f 12 90 1d d0 f1 8a 3f
       0.14090394157647126 0.013156534101662091
0006d0 32 46 72 cf 38 b3 ac bf de 00 2e 22 02 45 b0 bf
       -0.05605485470108497 -0.06355298361268377
0006e0 46 e1 77 76 15 8d b7 bf d1 dc d2 aa 3b c2 7b bf
       -0.09199651853839894 -0.00677703197032216
0006f0 e4 6d 88 cf 22 8c bb bf c1 7c 23 20 31 b0 c1 3f
       -0.10760705534669729 0.13818944997090024
000700 15 76 e0 0e 0b f0 b1 bf 3d 0b cb 83 5b 0a ad bf
       -0.07006901848986787 -0.056719646299390615
000710 19 9f 15 3f db 85 90 bf 04 f5 56 95 76 5b b3 3f
       -0.01613562176262837 0.07561436792362392
000720 ea a6 87 f2 31 91 b9 bf f3 8a 52 a5 20 da 98 bf
       -0.09987175151004704 -0.024269590464096557
000730 d4 5b 4d f7 08 b8 b5 3f e3 f3 2c 03 20 4f 7a 3f
       0.08483940160418452 0.006423115776496654
000740 3d 59 97 dc 61 2b ab bf 73 dc bd 04 db 3d a2 3f
       -0.05306535547031153 0.03562817032700929
000750 b1 d0 fb a5 6b fd c2 3f 42 32 5d d1 7d ab a2 3f
       0.14835877995176852 0.03646462612832525
000760 31 aa 74 9e 61 5b c2 bf e9 b2 e0 5a eb 32 42 3f
       -0.14341373669715687 0.0005553864664356842
000770 6e 2f 6f 06 bc 1e 8b bf cc b9 14 e0 a3 37 ab bf
       -0.013242215105399881 -0.05315887556422502
000780 f8 03 ed f0 52 36 a7 3f a5 a9 92 a0 21 64 b6 bf
       0.0453363341425827 -0.0874653832458195
000790 10 35 68 42 f4 2b a3 bf 86 cc ab 15 88 ea bb bf
       -0.03744471846230557 -0.10904741791800818
0007a0 1f 17 c0 85 f5 53 b4 3f 41 6d 99 15 69 7d 86 3f
       0.0794061137713382 0.010981389018687284
0007b0 3a 64 a8 f6 c2 d2 89 bf b7 ef 36 5f 2a 03 8a bf
       -0.012609027054212619 -0.012701350241392946
0007c0 72 20 bb ae ca 5a 97 3f a0 cd 75 bc 59 4d a4 bf
       0.0228072804591481 -0.03965263772524996
0007d0 52 f1 6f 54 ca ac b4 3f 27 ef eb 9d 9b 7e a2 3f
       0.08076157151657995 0.03612219145540357
0007e0 f2 d5 0a 96 a7 c2 ba 3f 04 ab 0f 37 b5 e9 96 3f
       0.10453269398825407 0.02237589977805056
0007f0 39 11 f7 81 79 2e a5 bf c9 6a 5f 29 12 f3 9b 3f
       -0.041370198359376116 0.027294429564657805
