notebooks/figs/models-for-figs/s_d400.pt (torch, 340475 bytes, 10 tensors)

weight f4 [80, 401]
0	0x3a305c2d	0.00067276024
1	0x3dbb49bf	0.09144925
2	0x3c724483	0.014786842
3	0xbd22aeff	-0.03971767
4	0x3cd92d8d	0.026510978
5	0xbdb24a82	-0.087056175
6	0x3cafe22d	0.021470154
7	0xbc1a7fe5	-0.0094299065
8	0x3d391f90	0.045196116
9	0xbd4a4e77	-0.049391236
10	0xbc33963c	-0.010961112
11	0x3c4662a6	0.012108481
12	0xbcea276e	-0.028583255
13	0xbd163883	-0.036674988
14	0x3dffbd67	0.124872975
15	0xbc411527	-0.011784828
16	0xbdbca9be	-0.09212063
17	0xbe0943bd	-0.13404746
18	0x3e2313cc	0.1592552
19	0x3d23a168	0.03994885
20	0xbe24f71a	-0.16109887
21	0xbca78f6e	-0.020454135
22	0xbcace7aa	-0.02110656
23	0xbd267d53	-0.040646862
24	0xbe177668	-0.14791262
25	0xbd8425fe	-0.06452559
26	0xbdb50098	-0.08838004
27	0x3d2f4e40	0.042799234
28	0x3d817a6a	0.06322177
29	0xbdc375c5	-0.09543947
30	0xbd1b264c	-0.03787832
31	0xbdfa4a17	-0.12221163
32	0x3d3d75fb	0.046255093
33	0xbd7bcffb	-0.061477643
34	0xbd5a240c	-0.053257033
35	0x3c95379a	0.01821499
36	0x3da295be	0.07938717
37	0xbd605820	-0.054771543
38	0x3e23b3fa	0.15986624
39	0xbd7a08e8	-0.06104365
40	0xbd277934	-0.040887073
41	0x3d85c8d4	0.065324455
42	0xbd97a08f	-0.07403671
43	0x3d0cbeb9	0.034361575
44	0xbd2400f1	-0.04003996
45	0xbc806da1	-0.015677275
46	0xbdc1dda2	-0.09466101
47	0x3e248c09	0.16069044
48	0xbd11a9a9	-0.03556219
49	0xbd91d61d	-0.07120917
50	0xbd36bc3b	-0.044613104
51	0xbd371e78	-0.04470679
52	0xbc6c9879	-0.014440649
53	0xbcacd1ac	-0.021096073
54	0x3d00d5ec	0.03145401
55	0x3e154e92	0.14580753
56	0xbd0749d1	-0.03302938
57	0xbd31079b	-0.043220144
58	0x3c22b55c	0.009930935
59	0x3e3116f1	0.17293908
60	0xbce071b3	-0.027397966
61	0x3d1ef9eb	0.03881256
62	0xbcc2d87c	-0.023784868
63	0x3b64ca87	0.0034910755
64	0x3d403bd2	0.04693205
65	0xbd2ea61f	-0.042638894
66	0x3dc80774	0.097670466
67	0xbb898940	-0.0041972697
68	0x3cc4a87e	0.024006125
69	0x3d94f0e3	0.07272508
70	0x3d615469	0.05501214
71	0x3d01658c	0.031590983
72	0x3b1146db	0.0022167477
73	0x3d10736b	0.03526632
74	0xbcc436b0	-0.023951858
75	0xbabcb8ec	-0.0014398373
76	0xbdb13a1c	-0.086536616
77	0xbc3e4263	-0.0116125075
78	0x3c057e19	0.00814774
79	0x3da80689	0.082043715
80	0x3d1b5163	0.037919413
81	0x3dff136b	0.124548756
82	0xbcd51ada	-0.02601378
83	0x3d461fe2	0.04837025
84	0x3d8413ad	0.06449065
85	0xbd6661d0	-0.056245625
86	0x3cd77b19	0.026303815
87	0xbdac9ce3	-0.08428361
88	0xbd6bb3d8	-0.05754456
89	0xbdf23d93	-0.118281506
90	0xbd11fc21	-0.03564084
91	0xbd69843a	-0.057010867
92	0xbd052131	-0.032502357
93	0xba0ce343	-0.0005374441
94	0xbd84980c	-0.06474313
95	0x3d2af367	0.041736033
96	0x3cc086b3	0.02350173
97	0xbd20a163	-0.03921641
98	0xbe457272	-0.19281939
99	0x3d2f4624	0.0427915
100	0x3da39c5c	0.079888076
101	0x3d1a7e52	0.037718125
102	0xbd9daa74	-0.07698527
103	0x3d2a7e4a	0.041624345
104	0x3d6db1f3	0.058031034
105	0x3d848eda	0.06472559
106	0x3d0ef39d	0.034900296
107	0x3d91f0a3	0.07125976
108	0xbd6dd12e	-0.058060817
109	0xbc9b5749	-0.01896252
110	0xbdc4332b	-0.09580072
111	0xbcce4c86	-0.025182974
112	0xbd13f7cb	-0.036124986
113	0xbca81960	-0.020519912
114	0xbdf75cab	-0.12078222
115	0xbdca6fab	-0.0988458
116	0x3d40ec63	0.047100436
117	0xbd364039	-0.04449484
118	0xbdb340af	-0.08752572
119	0x3d413991	0.04717404
120	0x3ce43f36	0.027862173
121	0x3d2d71d2	0.042344876
122	0xbdad3861	-0.08458019
123	0x3e104ee1	0.1409259
124	0x3d911402	0.07083894
125	0xbd4b1ccb	-0.049588006
126	0xbd598a4a	-0.0531104
127	0x38de16e4	0.000105900486
128	0xbe1b0546	-0.1513873
129	0xbd4c7b65	-0.049922366
130	0xbd7349b1	-0.05939645
131	0x3e25409f	0.16137932
132	0xbd3b204a	-0.04568509
133	0x3dcf7796	0.10130231
134	0x3d1cb2f5	0.038256604
135	0xbd255161	-0.040360812
136	0xbd48c747	-0.04901817
137	0xbb5fce90	-0.003415022
138	0xbd8c30c9	-0.068452425
139	0xbccec2e4	-0.025239415
140	0x3cfd76c4	0.03094042
141	0xbcd9a676	-0.026568633
142	0xbde3e1ff	-0.1112709
143	0x3c1c2935	0.009531309
144	0x3c4f61d0	0.012657598
145	0xbc13407c	-0.008987542
146	0x3df88c65	0.12136153
147	0x3e0b05c4	0.13576418
148	0x3cb30968	0.021855071
149	0xbd9b461f	-0.07581734
150	0xbdaf4545	-0.08558134
151	0x3d4089c4	0.047006384
152	0xbd059fb9	-0.032623027
153	0xbd078709	-0.033087764
154	0xbdfd00e2	-0.12353684
155	0x3e1d604c	0.15368766
156	0x3d7a2d30	0.06107825
157	0xbd325fc0	-0.043548346
158	0x3d170f05	0.036879558
159	0x3ae5da76	0.001753642
160	0xbd437900	-0.047722816
161	0x3d50aabe	0.050944082
162	0xbcc43b62	-0.023954097
163	0x3c9e2bae	0.019307937
164	0xbd6a01bc	-0.05713056
165	0xbdf7437e	-0.1207342
166	0xbc977fb3	-0.018493509
167	0xbd911aef	-0.07085215
168	0xbcfb399b	-0.030667117
169	0x3c0ff10c	0.008785497
170	0x3d881c25	0.06645993
171	0xbc5daf81	-0.013530613
172	0xbbfbd045	-0.00768474
173	0x3d3466ff	0.044043537
174	0xbc5fab12	-0.013651626
175	0xbd571c11	-0.052517
176	0x3c97e456	0.018541496
177	0xbd4923fe	-0.04910659
178	0x3d1a156d	0.03761809
179	0x3ceedc9c	0.02915793
180	0xbd3ae7f8	-0.04563138
181	0xbdc8479d	-0.09779284
182	0xbd738110	-0.059449255
183	0x3cfcdba9	0.03086646
184	0xbccecf9c	-0.02524548
185	0xbce03198	-0.027367398
186	0x3d107e50	0.03527671
187	0xbd141c8c	-0.036160037
188	0x3db0931b	0.08621808
189	0x3b5aef0e	0.0033406648
190	0xbe0fde33	-0.14049606
191	0xbdf912d1	-0.12161792
192	0xbd94d1aa	-0.07266553
193	0x3d8b1037	0.06790202
194	0x3c79c21f	0.015244036
195	0x3c683c04	0.014174465
196	0x3d49342d	0.049122024
197	0x3d958123	0.073000215
198	0x3e09f9b4	0.1347416
199	0xbda8e447	-0.082466654
200	0xbdf9db81	-0.1220007
201	0x3ca0811d	0.019592816
202	0xbcf1d4ad	-0.029520357
203	0x3dd2cba0	0.10292745
204	0x3d3e241e	0.046421163
205	0xbd2272d1	-0.03966028
206	0x3d892c61	0.06697918
207	0xbdbd874c	-0.092543215
208	0x3d7bedb4	0.06150599
209	0xbdc12191	-0.094302304
210	0x3db4a9b7	0.08821433
211	0x3d7dce3f	0.06196427
212	0xbd8a574d	-0.067549326
213	0xbd0a96f2	-0.03383536
214	0x3d4c07e7	0.049812224
215	0x3c044998	0.008074187
216	0x3d4c6a70	0.049906194
217	0x3d418aa4	0.04725136
218	0x3d57df09	0.052702937
219	0xbd5b80cc	-0.053589627
220	0x3c6f7bdb	0.014616932
221	0xbd92d741	-0.07169963
222	0x3e05f329	0.1308104
223	0x3db1bbed	0.08678422
224	0x3b24c1d9	0.0025139956
225	0x3d383c75	0.04497953
226	0xbd9427f5	-0.07234184
227	0xbd1ebbce	-0.038753323
228	0xbd1b2d0a	-0.03788475
229	0x3cce3298	0.02517061
230	0xbd85bb05	-0.06529812
231	0xbd850706	-0.0649548
232	0xbd993d14	-0.07482353
233	0xbd3b7452	-0.04576523
234	0x3c0739ca	0.008253524
235	0xbe75894b	-0.23978154
236	0x3c8cca80	0.017186403
237	0xbd17042d	-0.036869217
238	0xbd6407c2	-0.05567146
239	0xbdbe0236	-0.092777655
240	0xbd01c5dd	-0.031682838
241	0xbcd3b615	-0.02584366
242	0xbdddb0ba	-0.108247235
243	0xbd4251d6	-0.047441326
244	0x3d2a209d	0.04153501
245	0x3d7166a6	0.058935784
246	0xbd4b1b74	-0.04958673
247	0xbd205c6d	-0.039150644
248	0xbda707bd	-0.08155773
249	0x3c433b89	0.01191605
250	0xbb2f3bb2	-0.0026738462
251	0xbdae7d3d	-0.08519981
252	0xbd5d1a84	-0.053980365
253	0x3c4f234a	0.012642691
254	0xbc7c05fb	-0.015382285
255	0xbd563bd4	-0.05230315

bias f4 [80]
0	0x3d1e300a	0.038620032
1	0x3db63c89	0.08898265
2	0x3d1be9c4	0.038064733
3	0x3dda1505	0.106485404
4	0x3d9d0b79	0.07668204
5	0x3d9c2e3a	0.076260045
6	0x3c9a1566	0.018809032
7	0x3d0931ad	0.03349464
8	0x3da122a9	0.07867939
9	0x3d0fcf04	0.035109535
10	0x3adc0253	0.0016785361
11	0x3dae1249	0.08499581
12	0x3d45fb7d	0.04833554
13	0x3b75b022	0.0037489017
14	0x3c4aec47	0.0123854345
15	0x3d5019e8	0.050805956
16	0x3d304aa7	0.043039944
17	0x3dca3f11	0.0987531
18	0x3d055c95	0.032558996
19	0xbb9ee086	-0.0048485426
20	0x3d3b3a50	0.045709908
21	0xbc85c7d2	-0.016330633
22	0x3dc1c8c3	0.094621204
23	0x3dc51af9	0.09624285
24	0x3db5f16f	0.088839404
25	0x3d99ae9c	0.07504007
26	0x3b9b22ee	0.0047343886
27	0x3d802d70	0.062586665
28	0x3dceab5f	0.1009128
29	0x3dec0de9	0.11526091
30	0x3cd459c0	0.025921702
31	0x3d856c6b	0.0651482
32	0x3cf94565	0.030428598
33	0x3db60a25	0.08888654
34	0xbd26f4c6	-0.040760778
35	0x3dcc5f2c	0.0997909
36	0x3dc2ad52	0.095057145
37	0x3d2adeff	0.041716572
38	0x3d02cd08	0.031933814
39	0x3d0084a6	0.031376503
40	0x3db26d66	0.08712272
41	0x3d533c9b	0.05157147
42	0x3c9048cf	0.017612843
43	0x3d9598dc	0.07304546
44	0x3d42da33	0.047571372
45	0x3c844aac	0.016148888
46	0x3dc0b91d	0.094103076
47	0x3d87ce2b	0.0663112
48	0x3d61800e	0.055053763
49	0x3d1a9d1e	0.037747495
50	0x3d2837c2	0.0410688
51	0x3d8867cb	0.06660422
52	0x3ddfc8cc	0.10926971
53	0x3d50aacf	0.050944146
54	0x3dc0eb30	0.094198585
55	0x3dd77001	0.1051941
56	0x3d625934	0.055260852
57	0x3d3195fb	0.043355923
58	0x3e090c37	0.13383566
59	0x3d962113	0.07330527
60	0x3d9ece74	0.077542216
61	0x3d839ec6	0.06426768
62	0x3d6780ca	0.056519307
63	0x3d55155c	0.052022323
64	0x3d02a24c	0.03189306
65	0x3d03ad23	0.032147538
66	0x3d5ee168	0.054414183
67	0x3c1a1384	0.009404067
68	0x3d73dae9	0.05953494
69	0x3dcbd09f	0.09951901
70	0xbc6dc496	-0.014512202
71	0x3db43827	0.08799773
72	0x3d0efca7	0.034908917
73	0x3dde3d72	0.108515635
74	0x3c78a18e	0.015175236
75	0x3d709a31	0.0587408
76	0x3e032963	0.12808757
77	0x3c2537ca	0.010084102
78	0x3c8a984f	0.01691833
79	0x3de877b3	0.11350956

weight f4 [80, 80]
0	0xbd97525e	-0.07388757
1	0x3d7cd91c	0.06173049
2	0x3d900a4b	0.07033213
3	0xbc93e864	-0.018055148
4	0x3d45175a	0.048117973
5	0xbe2de95a	-0.16983548
6	0xbd9d5106	-0.076814696
7	0x3d861cb1	0.06548441
8	0x3d0b5eda	0.034026004
9	0xbd8c901e	-0.06863426
10	0xbcff66a7	-0.031176878
11	0x3e1c6cb6	0.15275845
12	0x3c89d17c	0.016823523
13	0xbd2e06c7	-0.042486932
14	0x3dc39a01	0.09550858
15	0x3da939af	0.082629554
16	0x3df2a8cc	0.11848602
17	0x3da7db97	0.0819618
18	0x3d70257a	0.05862949
19	0x3c9b960d	0.018992448
20	0x3e040945	0.12894161
21	0x3d933ebd	0.07189701
22	0x3d87ceb6	0.06631224
23	0xbcff8efa	-0.031196106
24	0x3dd0c781	0.10194302
25	0x3a6465fe	0.0008712708
26	0xbcceca98	-0.025243089
27	0xbddfbd10	-0.10924733
28	0xbd8d42cb	-0.068975054
29	0x3d5971cf	0.053087052
30	0xbda36f76	-0.07980244
31	0x3d2e74d8	0.0425919
32	0x3d117aa9	0.03551737
33	0xbe5d9b1e	-0.21641204
34	0x3e0cf959	0.13766994
35	0xbda562db	-0.08075496
36	0xbd699fbd	-0.057037104
37	0x3df041a8	0.11731273
38	0x3cb7f4c2	0.022455577
39	0x3d1ede0a	0.03878597
40	0x3e146ae9	0.14493908
41	0xbd40d494	-0.04707773
42	0xbd7f502f	-0.06233233
43	0x3d3aaa95	0.045572836
44	0x3cbd42c8	0.023103133
45	0xbde0fe19	-0.10985965
46	0x3dd3606e	0.10321127
47	0xbd9b6d39	-0.07589192
48	0x3cbd3312	0.023095641
49	0xbd075d47	-0.03304794
50	0xbc40279e	-0.0117281955
51	0x3d4d2ab9	0.05008957
52	0x3d6ce9e5	0.057840247
53	0xbcda2056	-0.026626747
54	0xbd3e45ca	-0.046453275
55	0x3de73ba3	0.11290672
56	0x3d82692a	0.06367715
57	0x3e0a5ef0	0.13512778
58	0xbd1c614d	-0.03817873
59	0x3d58e02a	0.052948155
60	0x3dda3859	0.10655279
61	0xbe0968c5	-0.13418873
62	0x3d9b14c5	0.07572321
63	0xbdb6e508	-0.08930403
64	0xbdd339c5	-0.10313753
65	0x3d9ddd92	0.07708277
66	0x3ce57cd4	0.028013624
67	0xbdb51bff	-0.088432305
68	0xbd1011ad	-0.035173107
69	0xbe0b72be	-0.1361799
70	0x3e0b85ab	0.13625209
71	0xbc9ee49c	-0.019396119
72	0xbdc2e04e	-0.09515439
73	0xbdb6f0c8	-0.08932644
74	0xbc969bf9	-0.01838492
75	0x3d8364c8	0.06415707
76	0xbda3f8e4	-0.080064565
77	0x3e03a091	0.1285422
78	0xbcfc8fcd	-0.030830288
79	0xbd11615d	-0.035493243
80	0x3d05953f	0.032613035
81	0x3d9e11a9	0.07718212
82	0x3dc0c700	0.09412956
83	0x3e10710a	0.14105621
84	0xbdb39917	-0.08769434
85	0x3c496120	0.012291223
86	0xbdabca32	-0.08388175
87	0x3ddb3dd1	0.1070515
88	0x3cdca21d	0.02693277
89	0xbdf08d09	-0.1174565
90	0x3cd9e316	0.02659754
91	0x3e04459d	0.1291718
92	0x3c20d3ef	0.009816154
93	0x3dc1554d	0.09440098
94	0x3d10c93e	0.03534817
95	0xbe34993b	-0.17636578
96	0x3d316548	0.04330948
97	0xbc219e21	-0.009864361
98	0xbd6c8b1d	-0.057749856
99	0x3c6faea2	0.014629038
100	0x3db4db47	0.08830886
101	0xbe1e3070	-0.15448165
102	0xbce1cfcf	-0.027564911
103	0xbd33a579	-0.04385898
104	0x3e347c23	0.1762548
105	0xbda36aef	-0.0797938
106	0xbe0886dd	-0.13332696
107	0x3d9a84a1	0.07544828
108	0x3cdba107	0.026810182
109	0x3e0c340a	0.13691726
110	0x3cc88249	0.024476187
111	0xbb4b7c7e	-0.0031049545
112	0xbd0c0b70	-0.034190595
113	0x3ddf561f	0.10905098
114	0x3dbec496	0.093148395
115	0xbd7e325c	-0.062059745
116	0x3d2d15a0	0.04225695
117	0x3d5a1f66	0.0532526
118	0x3d6637d3	0.056205582
119	0x3da80498	0.08204001
120	0x3d9eb3df	0.077491514
121	0x3d9f8029	0.077881165
122	0xbdb3c762	-0.08778264
123	0x3ddedc7a	0.10881896
124	0x3db941f5	0.090457834
125	0x3d977e7e	0.07397173
126	0xbd88a0f6	-0.06671326
127	0xbe1c8bd9	-0.15287723
128	0xbdc67235	-0.09689752
129	0xbded853a	-0.115976766
130	0x3bd1a7a0	0.0063981563
131	0xbcb01a21	-0.021496834
132	0x3e231fa1	0.15930034
133	0x3c9eedde	0.019400533
134	0x3db03610	0.086040616
135	0xbd5e7a0b	-0.054315608
136	0x3d5bf09e	0.053696267
137	0x3d4736e2	0.048636325
138	0xbdbc8ee2	-0.0920694
139	0x3b2d4747	0.002644019
140	0xbdead14f	-0.11465704
141	0xbdbc857b	-0.09205147
142	0xbc2bf68e	-0.010495795
143	0xbd9987bf	-0.07496595
144	0xbd971e2d	-0.073788024
145	0xbd55a482	-0.05215884
146	0xbcee9f0e	-0.029128578
147	0x3e1df48f	0.15425323
148	0x3dcc9b6d	0.099905826
149	0xbb8608cd	-0.0040904046
150	0xbdec56ab	-0.11539968
151	0x3d74e5cb	0.05978946
152	0xbd9abfed	-0.07556138
153	0x3d8478e9	0.06468374
154	0x3d5ce9f2	0.053934045
155	0x3c9860b5	0.018600801
156	0x3dcfa7ec	0.101394504
157	0xbccdfd15	-0.025145093
158	0x3c121ea7	0.008918441
159	0xbcb77992	-0.022396836
160	0x3e1118a5	0.14169557
161	0x3e260d13	0.16215925
162	0x3dbd57b9	0.092452474
163	0x3e0addc0	0.13561153
164	0x3cdaad95	0.026694098
165	0x3d90c46b	0.07068714
166	0xbd3ca68d	-0.046057273
167	0xbd2b906a	-0.04188577
168	0xbdf11fe4	-0.11773661
169	0x3d485a71	0.048914377
170	0xbd1fcadf	-0.039011832
171	0x3d52ce26	0.05146613
172	0xbde63e99	-0.11242408
173	0x3dc44230	0.09582937
174	0xbe065994	-0.13120109
175	0xbda99628	-0.08280593
176	0xbe028cd8	-0.1274904
177	0x3c39f28f	0.011349334
178	0x3d11fb34	0.035639957
179	0xbd8408b3	-0.06446972
180	0xbb4a68e3	-0.0030885271
181	0x3d5b6064	0.053558722
182	0xbd2ff0c9	-0.04295424
183	0x3e2a2ce5	0.16618688
184	0xbd881e43	-0.06646397
185	0xbd4b1108	-0.04957679
186	0x3e1e8e78	0.15484035
187	0x3c634e75	0.013873686
188	0x3de70bb4	0.11281529
189	0xbdc83ee6	-0.09777622
190	0x3daa8a8f	0.08327209
191	0xbd60d442	-0.054889925
192	0x3dee1c7d	0.116265275
193	0xbddadf11	-0.10687078
194	0x3e2289d5	0.15872891
195	0x3c45ef43	0.01208097
196	0xbc30c095	-0.010788103
197	0xbd7671dc	-0.06016718
198	0xbd0a2e08	-0.033735305
199	0x3def2173	0.11676302
200	0xbd051763	-0.032493006
201	0x3d3f3f9b	0.04669152
202	0xbdd0bd4f	-0.10192358
203	0x3bac5e67	0.005260277
204	0xbd4becb4	-0.049786285
205	0xbdf63d26	-0.12023382
206	0xbdb33096	-0.087495014
207	0xbdd34b2d	-0.10317073
208	0x3e101ce8	0.14073527
209	0x3bd9fec2	0.006652684
210	0x3d44efd7	0.04808029
211	0xbdc45689	-0.09586818
212	0x3db12ca5	0.086510934
213	0x3d4e05fb	0.050298672
214	0x3d6a5191	0.057206694
215	0x3dcaec1c	0.099083155
216	0x3dcd1f0e	0.10015689
217	0x3dec1cfe	0.11528967
218	0xbd9f8ee1	-0.07790924
219	0x3ca0a619	0.019610452
220	0xbcd20d5f	-0.025641141
221	0x3dd54152	0.104128495
222	0xbd701191	-0.058610503
223	0xbc940913	-0.018070733
224	0x3d76775b	0.06017242
225	0xbcbe1376	-0.02320264
226	0x3d699895	0.05703028
227	0xbd312168	-0.04324475
228	0xbca57257	-0.020196123
229	0xbd990684	-0.07471946
230	0x3c6eeb75	0.0145825045
231	0x3b3ed137	0.00291164
232	0xbbb3777b	-0.0054768897
233	0xbd729aef	-0.059229787
234	0x3db3f04a	0.08786066
235	0xbe1c690c	-0.15274447
236	0xbd920ba6	-0.07131128
237	0x3e1f4ad0	0.15555882
238	0x3d1c5714	0.03816898
239	0x3d92c867	0.0716713
240	0xbe10f31f	-0.14155243
241	0x3a3e3924	0.00072564394
242	0x3d89171b	0.0669386
243	0x3e0e48c0	0.1389494
244	0x3da31d88	0.07964617
245	0xbd7acf1d	-0.061232675
246	0xbc7bde13	-0.015372771
247	0xbe04929c	-0.12946552
248	0xbd95a25d	-0.07306359
249	0xbd977411	-0.07395185
250	0xbd4046a0	-0.046942353
251	0x3ddd2bec	0.10799393
252	0x3e26ecf9	0.16301335
253	0xbdeb9089	-0.11502177
254	0x3b7d92a4	0.003869214
255	0xbd3b8887	-0.0457845

bias f4 [80]
0	0x3d61c2fb	0.05511759
1	0x3abe184c	0.0014503091
2	0x3da2a6cd	0.07941971
3	0x3d1610da	0.036637165
4	0xbc2c0aab	-0.01050059
5	0xbd273052	-0.040817566
6	0xbc19aa69	-0.009379008
7	0x3c599ead	0.01328246
8	0xbccb4702	-0.024814133
9	0xbbc5dfaa	-0.0060386257
10	0xbd4f1304	-0.050555244
11	0x3dadeae4	0.084920675
12	0xbcbb3cfb	-0.022856226
13	0xbd5fe370	-0.05466026
14	0x3dc3119b	0.09524842
15	0x3d8de778	0.06928915
16	0x3d0094c9	0.031391893
17	0xbc1ac21c	-0.009445693
18	0x3d89fd3f	0.06737756
19	0x3c973773	0.018459057
20	0xbd8f2535	-0.069895186
21	0xbd26e6d2	-0.04074747
22	0x3d054341	0.03253484
23	0x3d956eb8	0.072965086
24	0xbd921cf7	-0.07134431
25	0x3dec0401	0.11524201
26	0x3c85df5e	0.016341861
27	0xbda8f447	-0.08249717
28	0xbd839514	-0.06424919
29	0xbdb3c233	-0.08777275
30	0x3c44825f	0.0119939735
31	0xbceac1a1	-0.028656783
32	0xbce0cf1d	-0.02744251
33	0x3ad83610	0.0016495604
34	0xbd7c68a0	-0.061623216
35	0xbdb13817	-0.086532764
36	0x3dae4749	0.0850969
37	0xbc31e711	-0.010858313
38	0x3d994595	0.07483975
39	0xbd214574	-0.039372876
40	0x3bd3cbf7	0.0064635235
41	0x3dbd35e5	0.09238795
42	0xbceaba1e	-0.0286532
43	0xbcd334b1	-0.025781961
44	0x3c2e4e81	0.010638834
45	0x3cfb2ed8	0.030661985
46	0x3dc5e554	0.096628815
47	0x3c2bc856	0.0104847755
48	0x3d1d2a4c	0.038370416
49	0x3d9093bf	0.0705943
50	0x3dd7ffaa	0.10546811
51	0x3d520f98	0.051284403
52	0xbcf109c9	-0.029423611
53	0xbdc4bf20	-0.09606767
54	0x3d8eb3a5	0.06967858
55	0xbca27892	-0.019832883
56	0xbd640a21	-0.055673722
57	0xbd3d2075	-0.04617353
58	0xbd286c8f	-0.041119155
59	0xbd2703f2	-0.040775247
60	0x3cf61cb0	0.030042976
61	0x3d763e69	0.060118113
62	0xbcd132a9	-0.025536852
63	0xbcc18537	-0.023623092
64	0x3c56f3c1	0.013119639
65	0xbcbcb516	-0.023035567
66	0x3d369b8d	0.04458194
67	0xbd2df556	-0.0424703
68	0x3cacd7d9	0.021099018
69	0x3d45c450	0.04828292
70	0x3d74ab8a	0.059733905
71	0xbc28492f	-0.010271355
72	0x3da0e3ef	0.07855975
73	0x3d34e683	0.044165146
74	0xbbb62d50	-0.005559601
75	0x3ca1c84e	0.019748833
76	0xbd6505a6	-0.05591359
77	0x3d65077c	0.05591534
78	0xbd13e720	-0.03610909
79	0xbd10b02b	-0.035324257

weight f4 [80, 80]
0	0xbd839808	-0.06425482
1	0xbca0bc7b	-0.019621124
2	0xbdccd451	-0.10001434
3	0x3e19f4da	0.1503481
4	0x3c83f96a	0.01611014
5	0x3d7dbfac	0.06195037
6	0x3e5b0674	0.2138918
7	0xbc4fca49	-0.012682506
8	0xbc5d63f7	-0.013512603
9	0x3e26639c	0.16248935
10	0x3de3c274	0.11121073
11	0xbd88236a	-0.0664738
12	0xbd2fe3c5	-0.042941827
13	0xbcc3346c	-0.023828708
14	0x3cd6a40b	0.026201269
15	0x3d7dff7b	0.062011223
16	0x3d451c50	0.048122704
17	0x3d6f523b	0.05842803
18	0x3dafcdb9	0.0858416
19	0xbde34193	-0.11096492
20	0xbcaa0b82	-0.02075744
21	0x3c7d61ce	0.015465213
22	0xbc729da7	-0.014808095
23	0x3ddf1504	0.1089268
24	0xbc1a6f6a	-0.009425977
25	0x3b649fdc	0.0034885323
26	0xbde3d3d7	-0.111243896
27	0x3d3b390a	0.045708694
28	0xbd1a7555	-0.037709553
29	0x3dbcd0bd	0.09219501
30	0x3ccb1e8b	0.024794837
31	0x3de178b4	0.110093504
32	0x3dde62fe	0.10858725
33	0xbe30621c	-0.17224926
34	0x3c828168	0.015930846
35	0x3d0885d0	0.03333074
36	0x3cb0cc3e	0.021581765
37	0xbd52843b	-0.051395636
38	0x3db17326	0.08664541
39	0xbd95e5a9	-0.07319195
40	0xbe24abcd	-0.16081162
41	0xbbee6e58	-0.0072763376
42	0xbcd90e16	-0.026495975
43	0xbce87d2e	-0.028380003
44	0xbb8b511a	-0.0042516114
45	0x3d61ac52	0.055095978
46	0x3dc31221	0.09524942
47	0xbe16088e	-0.14651701
48	0x3d9326bd	0.07185123
49	0x3d7f9a5a	0.06240306
50	0x3d889c05	0.06670383
51	0x3d85d639	0.06535
52	0x3c5ed040	0.013599455
53	0xbcb6dd79	-0.022322403
54	0xbd89a8a3	-0.06721618
55	0xbcffac33	-0.03121004
56	0xbdf4ed88	-0.11959368
57	0xbd2e46fc	-0.042548165
58	0xbe10fe9d	-0.14159627
59	0xbbfef2f4	-0.007780427
60	0xbd0204d4	-0.031742886
61	0xbcdb672a	-0.02678259
62	0xbce93a3a	-0.028470147
63	0x3e23b971	0.15988709
64	0x3dc19a26	0.094532296
65	0x3d35d805	0.044395465
66	0xbe058f6c	-0.13042992
67	0xbd90039e	-0.0703194
68	0xbcde0187	-0.027100338
69	0x3d29f1ad	0.041490246
70	0x3d58524f	0.05281287
71	0xbd8f7386	-0.07004456
72	0x3e01a6c8	0.12661278
73	0x3cf38edf	0.029731212
74	0x3df171c8	0.1178928
75	0xbe1d5dc4	-0.153678
76	0xbd8db766	-0.06919746
77	0x3dba2d80	0.0909071
78	0x3e27872b	0.16360156
79	0x3c5b5475	0.013386835
80	0xbc2d03ed	-0.010560018
81	0xbd859017	-0.065216236
82	0x3de9ee01	0.11422349
83	0xbe262be1	-0.16227676
84	0x3bddbbac	0.006766757
85	0xbc819f75	-0.015823105
86	0x3d8c676a	0.06855662
87	0xbe3124cb	-0.17299192
88	0xba869c03	-0.0010269884
89	0x3e005849	0.12533678
90	0x3cb1aa14	0.021687545
91	0x3db0d03f	0.0863347
92	0xbd18ad01	-0.037274364
93	0x3df63974	0.12022677
94	0x3baf3c86	0.005347791
95	0x3de34987	0.110980086
96	0x3d990fbe	0.07473706
97	0x3d7e9cb3	0.06216116
98	0x3d83e590	0.0644027
99	0x3d083e77	0.033262696
100	0xbd0304e2	-0.03198708
101	0xbe257f1b	-0.16161768
102	0x3dce73c3	0.100806735
103	0x3d87a66b	0.066235386
104	0xbd808bf6	-0.062766954
105	0xbdf6d490	-0.12052262
106	0x3e0c8889	0.13723959
107	0xbd9843b0	-0.07434785
108	0x3cce8e7b	0.025214424
109	0xbcde9f2e	-0.027175512
110	0xbd416940	-0.047219515
111	0xbe2401bb	-0.16016285
112	0x3e507765	0.20358045
113	0x3e1c0a25	0.15238245
114	0xbdde54a2	-0.10855986
115	0xbdaee1a0	-0.08539128
116	0x3e0f8339	0.14014901
117	0x3dd4ba74	0.103871256
118	0x3d6caa0d	0.05777936
119	0xbe126c13	-0.1429904
120	0xbdf52980	-0.11970806
121	0xbd497520	-0.049183965
122	0xbc735f82	-0.014854314
123	0x3e15bbc6	0.14622411
124	0xbdeb169b	-0.11478921
125	0xbd2d84bd	-0.042362917
126	0xbda57100	-0.08078194
127	0x3cbb64ad	0.022875154
128	0xbbe594f5	-0.0070062825
129	0x3da29e12	0.07940306
130	0xbd8a2b62	-0.06746556
131	0x3df6cdf0	0.12050998
132	0x3d9c8069	0.0764168
133	0x3d81d8b1	0.06340159
134	0x3e12c413	0.14332609
135	0x3d7d8541	0.06189466
136	0x3d1497ab	0.036277454
137	0xbd9c68af	-0.07637154
138	0xbce815e5	-0.028330753
139	0x3d0b0b8a	0.03394655
140	0x3d80c9aa	0.06288464
141	0x3d0ae37d	0.033908356
142	0xbdc651e2	-0.09683587
143	0x3d69936f	0.05702537
144	0x3d3e5aa1	0.04647315
145	0x3d53248a	0.05154852
146	0x3d9c049e	0.07618068
147	0x3d32a5b1	0.043615047
148	0xbd213ec0	-0.039366484
149	0xbc962f24	-0.018333025
150	0xbc8360fc	-0.016037457
151	0x3d8fe3cd	0.070258714
152	0xbd01515a	-0.031571724
153	0x3e0acd40	0.13554859
154	0xbcfa7c93	-0.03057698
155	0x3d53449b	0.0515791
156	0xbd13b7d6	-0.03606399
157	0xbe3903ee	-0.18067905
158	0x3e2aa557	0.16664635
159	0xbd0c5490	-0.034260333
160	0xbb47d958	-0.0030494537
161	0x3d6efbeb	0.058345716
162	0xbe06c94c	-0.13162726
163	0xbe01c8b3	-0.12674217
164	0x3db6915b	0.08914443
165	0xbda4009d	-0.080079295
166	0x3df9f201	0.12204362
167	0x3cae2a3e	0.021260377
168	0x3c4bc2e2	0.0124366
169	0x3cb1d575	0.02170823
170	0xbd5f94f7	-0.054585423
171	0xbbf87181	-0.00758189
172	0xbe120c5d	-0.14262529
173	0x3c8d326c	0.017235957
174	0x3da13fc6	0.07873492
175	0x3e1dafeb	0.15399139
176	0xbc510914	-0.012758512
177	0xbdda7b00	-0.10667992
178	0xbd54385b	-0.051811557
179	0x3cf5699b	0.029957583
180	0x3e08ec73	0.13371448
181	0xbc9b9326	-0.018991064
182	0xbcc9e7f7	-0.024646742
183	0xbdd45d57	-0.10369366
184	0x3d8a6533	0.067575835
185	0x3c512f14	0.012767572
186	0xbdba5fa8	-0.09100276
187	0x3d8caef4	0.06869307
188	0xbdae6772	-0.085158244
189	0xbd71025c	-0.05884014
190	0xbd39f096	-0.045395456
191	0x3d07d27e	0.033159725
192	0x3d17fe63	0.037107836
193	0x3db189c5	0.086688556
194	0xbb109961	-0.0022064077
195	0x3dddbd27	0.108270936
196	0xbdfdee2c	-0.12398943
197	0x3e047989	0.12936987
198	0x3e2d8b28	0.16947615
199	0x3d57edce	0.052717023
200	0x3d36e4f7	0.04465195
201	0xbdb152a2	-0.08658339
202	0x3cff6c65	0.031179616
203	0x3bcfaf19	0.006338012
204	0x3ccac504	0.024752147
205	0x3d8a9399	0.06766433
206	0xbc37570b	-0.011190186
207	0x3e03d219	0.12873115
208	0xbbb68d7f	-0.005571067
209	0xbd2a3dd7	-0.04156288
210	0xbcc61ed4	-0.024184622
211	0xbd1ad6a9	-0.037802372
212	0x3d1184dd	0.0355271
213	0x3daa4420	0.08313775
214	0x3e0416e0	0.12899351
215	0xbd32d8ee	-0.04366391
216	0xbdd6ab99	-0.104819484
217	0x3d8bc765	0.06825141
218	0xbd890514	-0.06690422
219	0x3d4207fb	0.047370892
220	0xbd0a4fa6	-0.033767365
221	0xbe7e464e	-0.24831507
222	0x3c623016	0.01380541
223	0x3dc0fc05	0.09423069
224	0x3d1144ca	0.035465993
225	0x3dd15d43	0.102228664
226	0x3d82a739	0.063795514
227	0xbc906f1f	-0.017631112
228	0xbe34e15c	-0.17664093
229	0x3e1422f9	0.14466466
230	0x3d149e23	0.036283623
231	0xbdc5eaf6	-0.09663956
232	0x3d855195	0.06509701
233	0x3e07f8e8	0.13278544
234	0xbdf383da	-0.11890383
235	0xbdaea2f1	-0.08527172
236	0x3e1c5b2a	0.15269151
237	0x3df6c831	0.12049902
238	0x3beec7d5	0.0072870054
239	0x3dbddabd	0.09270237
240	0xbdceefa2	-0.101043
241	0xbd91ca29	-0.07118637
242	0xbd598180	-0.053102016
243	0x3da34ce4	0.0797365
244	0xbdcaa798	-0.09895247
245	0xbe21efb5	-0.15814097
246	0x3b282145	0.0025654596
247	0xbdd36b7c	-0.103232354
248	0x3cd47011	0.025932344
249	0x3d926d4a	0.071497515
250	0x3c910406	0.017702114
251	0x3da9da60	0.08293605
252	0x3d341796	0.043967806
253	0x3e0e51e3	0.13898425
254	0x3deb80e2	0.11499192
255	0x3e19ba3e	0.15012452

bias f4 [80]
0	0xbd6f3405	-0.05839922
1	0x3b5ffb58	0.0034176912
2	0x3cf9c8db	0.030491283
3	0x3d9889eb	0.07448181
4	0xbd843d42	-0.064569965
5	0xbc597c74	-0.013274301
6	0xbdc1e2cb	-0.094670855
7	0x3ccf80a2	0.025329892
8	0x3d7483a7	0.059695866
9	0xbc475ae1	-0.012167663
10	0x3d7b368d	0.06133132
11	0x3d2a0533	0.041508865
12	0xbd71782f	-0.058952507
13	0x3d75405b	0.059875827
14	0x3db76959	0.0895564
15	0x3ca02c77	0.019552452
16	0xbc88ad09	-0.016684072
17	0xbcbe494f	-0.023228316
18	0xbc909bd5	-0.017652432
19	0x3c124b6e	0.008929117
20	0xbdb37b8c	-0.08763799
21	0xbd7f88b3	-0.062386226
22	0x3e0272b4	0.12739068
23	0x3c5ef749	0.013608762
24	0x3d03c9d0	0.032174885
25	0x3cbaca10	0.022801429
26	0xbafa0560	-0.0019075088
27	0x3d903573	0.07041445
28	0x3d2c9513	0.042134356
29	0x3d1006fe	0.03516292
30	0x3d9a4ef1	0.07534588
31	0xbd776531	-0.060399238
32	0xbd074248	-0.033022195
33	0xbe3b6db8	-0.18303573
34	0xbda30845	-0.07960562
35	0x3dd41b78	0.10356802
36	0x3cb0c88d	0.021580005
37	0x3d9886e7	0.074476056
38	0xbdc922da	-0.098211005
39	0xbdb42c72	-0.0879754
40	0xbaa98403	-0.0012933019
41	0x3bfe8e46	0.007768425
42	0xbd928529	-0.071543045
43	0x3d7f7d53	0.062375378
44	0xbc208e6d	-0.009799582
45	0xbb115604	-0.0022176513
46	0xbdcf19b8	-0.10112327
47	0x3d511d5e	0.051053397
48	0xbd8e77f9	-0.06956477
49	0xbc9061e3	-0.017624801
50	0x3da80c37	0.08205455
51	0x3d4cfb59	0.05004439
52	0xbdc80645	-0.09766821
53	0xbd019d79	-0.03164432
54	0xbd6fb2b3	-0.05852003
55	0xbb26ac4e	-0.0025432291
56	0xbd9a6db2	-0.07540454
57	0x3d079cd7	0.03310856
58	0xbb8a86dc	-0.0042275023
59	0xbc207ee8	-0.009795882
60	0xbd6d4a79	-0.05793235
61	0xbd15e359	-0.03659377
62	0x3d4b969e	0.049704187
63	0x3d01bf38	0.0316765
64	0x3cc40973	0.023930287
65	0x3dba87a3	0.09107902
66	0x3c894859	0.01675813
67	0x3d53f4ec	0.051747248
68	0x3db8ce2b	0.090236984
69	0xbceffd61	-0.029295625
70	0x3c560059	0.013061606
71	0xbd77454b	-0.060368817
72	0x3d3d5847	0.046226766
73	0xbcef9a0b	-0.029248258
74	0x3cb9121e	0.022591647
75	0x3d9fc298	0.07800788
76	0xbdec0db1	-0.11526049
77	0xbc4be492	-0.012444632
78	0xbbc2b494	-0.0059419367
79	0xbc92d4ff	-0.01792383

weight f4 [80, 80]
0	0x3dc83fb1	0.09777773
1	0x3d5a82da	0.053347446
2	0xbe1dfdf7	-0.15428911
3	0x3e43c693	0.19118719
4	0xbd4b4dc1	-0.0496347
5	0x3dc3f77d	0.09568689
6	0x3d6d5be2	0.057948954
7	0xbda664a4	-0.081246644
8	0xbd03f3ea	-0.032215036
9	0xbd56755f	-0.052358028
10	0x3c4f77cd	0.01266284
11	0xbd8fee39	-0.07027859
12	0x3c9ee37b	0.01939558
13	0xbda5adda	-0.080898
14	0x3df42311	0.11920751
15	0x3db1a7ff	0.08674621
16	0x3dccbd82	0.09997083
17	0x3c069c59	0.008215987
18	0xbe09bf5e	-0.13451907
19	0xbe0156fb	-0.12630837
20	0xbbbf06d4	-0.0058296714
21	0x3d8caff3	0.06869497
22	0x3d448ca9	0.047985706
23	0x3ca1b051	0.019737395
24	0x3d605f5f	0.054778453
25	0xbdd6d1bc	-0.104892224
26	0x3e00789f	0.12546013
27	0x3d5216f3	0.051291417
28	0xbcbfe780	-0.023425817
29	0x3d9047a7	0.070449166
30	0xbd7b5340	-0.06135869
31	0x3d2a1201	0.041521076
32	0x3e209bd1	0.15684439
33	0xbda4d292	-0.080479756
34	0x3d9f8038	0.07788128
35	0xbd8253db	-0.063636504
36	0xbc653d11	-0.01399161
37	0x3c3ef2b5	0.011654546
38	0x3db0f59a	0.08640595
39	0xbce063d7	-0.027391357
40	0x3e070a6a	0.13187566
41	0x3d3f2a6b	0.046671312
42	0x3d58fdfc	0.052976593
43	0x3bd0f858	0.006377261
44	0x3e3919c4	0.18076235
45	0x3d232937	0.039834227
46	0x3c11ddf4	0.008903015
47	0xbd9fdfcb	-0.07806357
48	0x3d58f566	0.052968405
49	0xbd16f809	-0.03685764
50	0x3d33520b	0.043779414
51	0xbc8007f9	-0.015628802
52	0x3d1c3c8a	0.038143672
53	0xbc7e7aea	-0.015532235
54	0xbd4933e3	-0.04912175
55	0xbe00a568	-0.12563097
56	0x3d4bbf6e	0.04974311
57	0x3e0f93b5	0.1402119
58	0xbdc3f883	-0.09568884
59	0xbdf3c5c0	-0.11902952
60	0xbc2a0ebf	-0.010379492
61	0xbd389904	-0.045067802
62	0xbca98ba9	-0.020696478
63	0xbdae52ed	-0.085119106
64	0xbd61e66d	-0.05515139
65	0x3df37af0	0.11888683
66	0x3e10ce7d	0.14141269
67	0xbe0e1fa0	-0.13879251
68	0x3de84d1c	0.113428324
69	0x3e153372	0.14570406
70	0xbd1001ed	-0.035158087
71	0x3d4a971c	0.049460515
72	0x3d36f300	0.044665337
73	0xbe334458	-0.1750654
74	0xbd86ebe2	-0.0658796
75	0xbd1a2d8f	-0.037641104
76	0xbc72c6e7	-0.01481793
77	0x3d984b68	0.074362576
78	0x3e2cbe74	0.16869527
79	0xbe2255e5	-0.15853079
80	0xbc345149	-0.011005708
81	0xbd0e3bb5	-0.03472491
82	0x3de2084c	0.11036739
83	0xbc030102	-0.007995846
84	0xbda1d8e8	-0.079027
85	0xbcd37051	-0.025810393
86	0x3d884486	0.06653695
87	0xbdc0c30c	-0.09412202
88	0xbdcb1217	-0.0991556
89	0xbdcac3e9	-0.09900648
90	0xbd70fccb	-0.058834832
91	0x3d99992f	0.074999206
92	0xbd866f63	-0.06564214
93	0x3bb2a69b	0.00545199
94	0xbe108bb9	-0.141158
95	0xbd265dc9	-0.040616784
96	0x3c62864e	0.013825966
97	0xbdbee705	-0.09321407
98	0x3db9cbe5	0.09072093
99	0xbd3fc0c2	-0.046814688
100	0x3d47a941	0.048745397
101	0xbd3a4a97	-0.04548129
102	0x3bcca1f9	0.0062448946
103	0xbda62232	-0.08111991
104	0x3d92cdef	0.07168185
105	0x3e459373	0.19294529
106	0x3e376f47	0.17913543
107	0xbd969c12	-0.07353987
108	0x3deecd99	0.116603084
109	0x3da2ed70	0.07955444
110	0xbd536281	-0.051607613
111	0x3b010be8	0.0019690935
112	0xbcd60a03	-0.02612782
113	0xbdbe9b98	-0.09307021
114	0xbced770e	-0.028987434
115	0x3db5b49f	0.08872341
116	0x3cdbc196	0.026825707
117	0x3db13ff2	0.08654775
118	0x3e2a3e85	0.16625412
119	0xbdb51dee	-0.08843599
120	0xbc31202c	-0.010810893
121	0xbe14c375	-0.14527686
122	0xbd1aa66f	-0.03775638
123	0x3d2d62fa	0.04233072
124	0x3d9b6bca	0.075889185
125	0xbcab7b4a	-0.020932812
126	0xbd9a854e	-0.07544957
127	0x3c0a1c79	0.00842964
128	0x3a3a35fb	0.00071033806
129	0xbc38ff76	-0.011291375
130	0x3e3f6ffe	0.18695065
131	0xbdc3414c	-0.09533939
132	0x3d168656	0.036749206
133	0x3deec5d9	0.1165883
134	0xba80414b	-0.0009785084
135	0xbc99b345	-0.01876224
136	0x3e06908b	0.13141076
137	0x3d8bff91	0.06835855
138	0x3e1911a6	0.14948139
139	0xbc94be54	-0.018157162
140	0xbe02b834	-0.1276558
141	0xbc73473f	-0.014848529
142	0x3d89e01a	0.06732197
143	0xbd95ce17	-0.07314699
144	0xbd477db3	-0.04870386
145	0x3dacbd06	0.08434491
146	0xbd6b8bc8	-0.057506353
147	0x3e344a33	0.1760643
148	0xbdae4159	-0.08508558
149	0xbd912fb5	-0.070891775
150	0x3e0f3f2d	0.13988943
151	0x3d1013c1	0.03517509
152	0x3e04ff25	0.12987955
153	0xbcf4e69b	-0.029895118
154	0xbd4ffee2	-0.050780185
155	0xbca20ea4	-0.019782372
156	0x3dbebc1b	0.09313222
157	0x3e040814	0.12893707
158	0x3c933dd8	0.017973825
159	0x3b996aa7	0.0046819034
160	0xbe172c90	-0.14763093
161	0x37fe1942	3.0290921e-05
162	0x3d025e7f	0.0318284
163	0xbdc83658	-0.0977599
164	0x3e34ce66	0.1765686
165	0xbd556941	-0.05210233
166	0x3daf3c3f	0.08556413
167	0x3ad3e211	0.0016165396
168	0x3dd50347	0.10401016
169	0xbb71450c	-0.0036814837
170	0xbd8576c6	-0.06516795
171	0xbc9614cf	-0.01832047
172	0x3e3203f0	0.17384315
173	0x3c938460	0.018007457
174	0x3e0ec6c9	0.13943018
175	0x3e381f2e	0.17980644
176	0xbc3d5452	-0.011555748
177	0x3df450b1	0.11929453
178	0xbcaa1972	-0.020764086
179	0x3dea889c	0.114518374
180	0x3da05f78	0.07830709
181	0x3db65b33	0.089041136
182	0x3d8a716c	0.06759915
183	0xbe28963c	-0.1646356
184	0xbdcdc7e0	-0.10047889
185	0xbd68aa40	-0.056802988
186	0xbd574dd7	-0.05256447
187	0xbbf240fd	-0.007393001
188	0xbcef500d	-0.029212976
189	0xbe1d2924	-0.15347725
190	0x3e000b0e	0.12504217
191	0xbd28d33c	-0.041217074
192	0x3d0ab92a	0.033867992
193	0xbdab21e6	-0.08356075
194	0xbd9e5f49	-0.07733018
195	0x3d9f4948	0.07777649
196	0xbd0b1aa7	-0.033960965
197	0x3d561f85	0.052276153
198	0x3e2169c2	0.15763
199	0xbc1f683a	-0.009729439
200	0x3d8facfd	0.07015417
201	0x3c36cd44	0.011157338
202	0x3dfb0bec	0.12258133
203	0xbdca21a6	-0.09869699
204	0x3d6d105e	0.057876937
205	0x3cc52cc6	0.024069201
206	0xbd3d7e90	-0.046263278
207	0x3e0152fb	0.12629311
208	0x3d4748a4	0.04865326
209	0xbcd68746	-0.02618755
210	0x3e06dc5a	0.13169995
211	0x3c76c7fb	0.0150623275
212	0xbe0d9f41	-0.13830282
213	0x3c8089e8	0.015690759
214	0xbc3749dc	-0.011187043
215	0x3b4a92d0	0.003091026
216	0x3bc348ef	0.005959622
217	0xbd1f4eaf	-0.038893398
218	0x3d365ea0	0.044523835
219	0x3e06c90a	0.13162628
220	0x3d7d3795	0.061820585
221	0x3d34e07d	0.0441594
222	0x3dc22092	0.094788685
223	0x3caaa54b	0.020830771
224	0xbdffa835	-0.12483255
225	0x3dd3b060	0.10336375
226	0xbdaac589	-0.08338458
227	0xbdbc4778	-0.09193319
228	0x3b70dd64	0.0036753053
229	0x3d2a8ca2	0.041638024
230	0xbde6fa76	-0.112782404
231	0xbc813560	-0.015772521
232	0x3d8c3606	0.06846242
233	0x3e4d11f7	0.20026384
234	0xbdd1ea6e	-0.10249792
235	0xbcaf435a	-0.02139442
236	0xbca1b1b4	-0.019738056
237	0xbd9d8272	-0.07690896
238	0x3d842e54	0.06454149
239	0xbd6928f0	-0.056923807
240	0x3c17316d	0.009228093
241	0xbbd09fca	-0.0063667046
242	0xbd2ffe2e	-0.042967014
243	0xbdb270ea	-0.08712943
244	0xbcd89226	-0.026436877
245	0x3daf8c9c	0.08571741
246	0xbc53f32c	-0.012936395
247	0x3db4e498	0.08832663
248	0x3d2f239a	0.04275856
249	0xbd8d9973	-0.06914034
250	0xbc85e039	-0.01634227
251	0xbcfe553f	-0.031046508
252	0xbc9e3987	-0.01931454
253	0x3de9ea8f	0.114216916
254	0xbbcb1a80	-0.0061982274
255	0x3dd1eab4	0.10249844

bias f4 [80]
0	0xbbc36d90	-0.0059639886
1	0xbd95732b	-0.07297357
2	0x3ca54070	0.020172328
3	0xbb562737	-0.0032677182
4	0xbc3482d0	-0.011017516
5	0x3c0f91d8	0.008762799
6	0x3d89485b	0.06703254
7	0x3dcaa02a	0.0989383
8	0x3d930851	0.071793206
9	0xbde09351	-0.109655984
10	0x3d96a26f	0.073552005
11	0xbc9ab34c	-0.018884324
12	0xbd7fa4e6	-0.06241312
13	0x3d2aa0d0	0.04165727
14	0xbdb95f97	-0.090514354
15	0xbdaac390	-0.08338082
16	0xbd5b1844	-0.05348994
17	0x3db133a8	0.08652431
18	0xbd55dfeb	-0.052215498
19	0xbd09eefe	-0.033675186
20	0xbd383571	-0.04497284
21	0xbd1e607c	-0.038666233
22	0x3947cff1	0.00019055583
23	0x3d150148	0.036378175
24	0xbda82695	-0.08210484
25	0xbd445b90	-0.047938883
26	0x3d92a5e4	0.071605474
27	0x3caebf5c	0.021331482
28	0x3da52962	0.08064534
29	0x3cf6363b	0.030055156
30	0xbd945fb4	-0.072448164
31	0x3dad6c23	0.08467891
32	0xbc80194e	-0.015637066
33	0x3db84ecb	0.089994036
34	0xbd5cf29f	-0.05394232
35	0xbcf950f8	-0.030434117
36	0x3db7e60f	0.08979427
37	0xbd24d05f	-0.04023778
38	0x3ca1e015	0.019760171
39	0xbcf3b6bd	-0.029750222
40	0x3da6b65c	0.08140251
41	0x3dbe9a53	0.09306779
42	0xbcbda2b7	-0.023148878
43	0xbd040a6a	-0.032236494
44	0x3d0c503c	0.034256205
45	0x3d3fd7e2	0.04683674
46	0xbca9353e	-0.02065527
47	0xbd5f8fcc	-0.054580495
48	0x3e035d2d	0.12828512
49	0x3e0e4b2e	0.13895866
50	0xbd6dbd8b	-0.05804209
51	0x3c49a873	0.012308228
52	0xbdf99af6	-0.121877596
53	0x3d477d9f	0.048703786
54	0xbc73a244	-0.01487023
55	0xbcb68d45	-0.02228416
56	0xbd1bacac	-0.03800647
57	0x3c0e9dd5	0.008704622
58	0x3d8d439c	0.06897661
59	0x3c50452c	0.012711804
60	0xba41fd4e	-0.0007400111
61	0x3d145732	0.03621597
62	0x3dc4ac21	0.096031435
63	0xbce5c910	-0.028049976
64	0x3d9dd4d4	0.07706609
65	0xbad34346	-0.0016118072
66	0x3d6eb342	0.058276422
67	0xbd3fb565	-0.04680385
68	0x3d827a2d	0.063709594
69	0xbc8f1df4	-0.017470337
70	0xbdbfb4a6	-0.09360628
71	0x3dbc89d2	0.09205975
72	0x3d803a44	0.06261113
73	0x3b8a1e4b	0.004215037
74	0xbdebc34e	-0.11511861
75	0xbdd80d6a	-0.105494335
76	0x3db5d52c	0.0887855
77	0x3d5b5c5b	0.053554874
78	0x3a97b77c	0.0011575068
79	0x3d62192b	0.055199783

weight f4 [400, 80]
0	0x3d7fde51	0.062467877
1	0xbc12591c	-0.008932378
2	0xbb04e02d	-0.002027522
3	0x3dd35975	0.10319797
4	0xbc472cab	-0.012156646
5	0xbddedb3d	-0.1088166
6	0xbcea2349	-0.028581278
7	0x3d8449c1	0.0645938
8	0xbd6a35bc	-0.05718015
9	0xbcdc69b1	-0.026905866
10	0x3db8ddc7	0.09026676
11	0xbd0bfb57	-0.034175243
12	0x3bad43b6	0.005287613
13	0x3d746ad0	0.059672177
14	0x3da82f8c	0.08212194
15	0xbdf906e2	-0.12159516
16	0xbd95701f	-0.07296776
17	0xbda9f923	-0.08299472
18	0xbc863365	-0.016381929
19	0xbd398756	-0.045295082
20	0x3c48c7d4	0.012254674
21	0xbda6336a	-0.08115275
22	0x3cc4113c	0.023934
23	0xb8faecf4	-0.00011965065
24	0x3df2f27b	0.11862656
25	0xbd6a22cd	-0.057162095
26	0xbde716dc	-0.11283657
27	0xbd93339b	-0.07187577
28	0xbc79a446	-0.01523692
29	0xbccc8d04	-0.024969585
30	0xbe200b34	-0.15629274
31	0x3d9a567e	0.07536028
32	0x3d3348de	0.043770663
33	0xbd046b61	-0.032328967
34	0xbe2b5a7d	-0.16733737
35	0x3dbb188a	0.0913554
36	0xbde21b48	-0.1104036
37	0x3da30293	0.07959475
38	0xbdb2a0e8	-0.08722097
39	0x3d610b9b	0.05494271
40	0xbc998199	-0.018738555
41	0xbdfcd747	-0.123457484
42	0xbe430e5b	-0.19048445
43	0xbdd02f9e	-0.10165332
44	0x3dd32e88	0.103116095
45	0xbbc6b416	-0.0060639484
46	0x3d8e7d9b	0.06957551
47	0xbcba56a3	-0.02274639
48	0x3e30cb76	0.17265114
49	0x3dc558cf	0.096360795
50	0x3dc7b619	0.09751529
51	0x3ca43ed1	0.020049484
52	0xbd67f699	-0.05663166
53	0x3d3c93fb	0.046039563
54	0x3dea09bb	0.11427637
55	0x3c9cb182	0.019127611
56	0xbe99661f	-0.29960725
57	0x3c348163	0.011017176
58	0x3ddff175	0.10934726
59	0x3e2cc97d	0.16873737
60	0x3d466935	0.048440177
61	0x3c47e886	0.012201434
62	0x3e65c927	0.22440015
63	0xbdb50354	-0.088385254
64	0x3dba0963	0.090838216
65	0xbc065aa3	-0.00820032
66	0xbd9be163	-0.076113485
67	0x3c1da30c	0.009621393
68	0x3dfe5d6a	0.12420161
69	0xbe41ac1d	-0.18913312
70	0xbd899757	-0.06718319
71	0xbd0dec6d	-0.0346493
72	0xbcecd71a	-0.028911162
73	0x3e1696c1	0.14705946
74	0xbc096388	-0.0083855465
75	0xbc916a91	-0.01775101
76	0x3d85e2af	0.06537377
77	0x3db89061	0.09011913
78	0xbd8c4157	-0.068484
79	0xbc0130fb	-0.007885213
80	0xbdc5927e	-0.09647082
81	0xbcaec30d	-0.021333242
82	0x3dc48b4b	0.095968805
83	0xbd1ea751	-0.038733784
84	0xbd7f631f	-0.06235039
85	0x3dae63f0	0.08515155
86	0xbd1ee0a5	-0.038788456
87	0x3d63bd33	0.055600356
88	0xbc802001	-0.01564026
89	0x3d16ce3d	0.036817778
90	0x3e0368cc	0.12832946
91	0x3d0ebde6	0.03484907
92	0xbc95c8bf	-0.0182842
93	0xbcf101da	-0.029419828
94	0xbe11e8f3	-0.1424902
95	0xbe2b4896	-0.16726908
96	0x3e1c11b7	0.15241133
97	0x3d4eebe5	0.050517935
98	0xbe0a1240	-0.13483524
99	0xbe0adb80	-0.13560295
100	0xbd024a2e	-0.031809025
101	0xbc6d3557	-0.014478049
102	0xbc3e1b55	-0.011603196
103	0x3dc77c87	0.097405486
104	0x3cdc3265	0.026879499
105	0xbca893ca	-0.020578284
106	0x3d6b146b	0.05739252
107	0x3cb0db2f	0.02158889
108	0x3e396020	0.18103075
109	0x3d8d0a47	0.06886726
110	0x3dbeb9d7	0.0931279
111	0xbe213863	-0.15744166
112	0xbde23dd9	-0.11046953
113	0xbe2b9aec	-0.16758317
114	0x3db3ccff	0.08779334
115	0x3e085fdd	0.13317819
116	0x3dfb2d78	0.12264532
117	0xbd43b7da	-0.047782756
118	0xb9b47c93	-0.0003442509
119	0xbb753fd1	-0.003742207
120	0xbc8e2897	-0.01735334
121	0xbbc4ce11	-0.0060060103
122	0x3de7eb9c	0.11324236
123	0x3e1c864f	0.1528561
124	0x3e1f42e5	0.15552862
125	0xbd8e06c7	-0.069348864
126	0x3db193fd	0.08670805
127	0xbdbf341e	-0.093361124
128	0xbc7bc3ed	-0.015366537
129	0xbdc380da	-0.09546061
130	0xbdd3a3ad	-0.10333953
131	0xbb55db5a	-0.0032631964
132	0x3cca6195	0.024704734
133	0xbd1d41a3	-0.038392674
134	0x3d8c70c3	0.06857445
135	0xbc5914dc	-0.013249602
136	0xbde555cf	-0.11198007
137	0xbdadd23e	-0.08487366
138	0xbc3a6990	-0.011377707
139	0x3c594587	0.0132612055
140	0x3c279c23	0.010230097
141	0xbe62c603	-0.22145848
142	0x3d7c6abf	0.06162524
143	0x3d6d03af	0.05786484
144	0xbbde7ed6	-0.0067900224
145	0x3d4ec4dc	0.05048071
146	0x3df7e6cf	0.1210457
147	0xbdf15ef7	-0.11785691
148	0xba1678f7	-0.0005740071
149	0xbd1697ec	-0.036765978
150	0x3de75ddf	0.11297201
151	0xbddec541	-0.10877467
152	0xbc1d5289	-0.009602197
153	0xbd3459f1	-0.044031087
154	0x3db54f03	0.08852961
155	0x3d8e7a6f	0.06956946
156	0x3e1a70e5	0.15082128
157	0xbe0f430a	-0.13990417
158	0x3d9c0ec7	0.07620006
159	0x3c8761fd	0.016526217
160	0xbe211bb1	-0.1573322
161	0x3e42af2d	0.19012137
162	0xbe71b328	-0.23603499
163	0x3d54a6f2	0.051917024
164	0x3e0d82e9	0.1381947
165	0x3d41b158	0.04728827
166	0xbd27c5ad	-0.040960003
167	0x3dcd2347	0.10016494
168	0xbd6cbbcd	-0.05779629
169	0x3dbec146	0.09314208
170	0xbdd9d690	-0.10636628
171	0xbd310468	-0.043217093
172	0xbd36348c	-0.044483706
173	0xbe19ab53	-0.15006761
174	0xbdb8e1fc	-0.09027478
175	0xbd1bd19f	-0.038041707
176	0xbe1b9d48	-0.15196717
177	0x3d652f4b	0.055953305
178	0x3d86d06f	0.06582724
179	0xbd68d98b	-0.05684809
180	0x3d454cf2	0.048169084
181	0xbe404a28	-0.18778288
182	0xbd5af17a	-0.053452946
183	0xbd03e7d6	-0.032203518
184	0x3c1caccd	0.009562683
185	0x3d41add8	0.04728493
186	0xbe11b033	-0.14227371
187	0x3d6d0053	0.057861637
188	0x3d5406c9	0.051764283
189	0x3d07d308	0.03316024
190	0x3bd1dddd	0.006404622
191	0xbd2c9812	-0.042137213
192	0x3ace4731	0.001573777
193	0x3d41435c	0.04718338
194	0xbd972538	-0.07380146
195	0xbac3fa2f	-0.001495188
196	0xbd5e7763	-0.054313075
197	0x3dc9f8e2	0.09861924
198	0x3d87ac60	0.06624675
199	0xbe26d259	-0.16291179
200	0xbcf1c767	-0.029514028
201	0xbdd56bd8	-0.1042096
202	0xbda3fc8d	-0.080071546
203	0x3e5642f3	0.20923977
204	0xbdde10a2	-0.10843016
205	0x3e562728	0.20913374
206	0x3e157f08	0.1459924
207	0xbc8c98bb	-0.017162671
208	0xbd9ff080	-0.078095436
209	0x3b8a0324	0.0042118
210	0x3d8712ac	0.06595358
211	0xbc67f1b4	-0.014156748
212	0x3db3557d	0.0875654
213	0xbd22b4a9	-0.039723072
214	0x3a2ab48a	0.0006511888
215	0xbdca5376	-0.098792
216	0x3e4e4e5c	0.20147079
217	0xbd00ee43	-0.031477224
218	0x3cc2eddd	0.023795063
219	0x3e19eff5	0.15032943
220	0xbd15efac	-0.036605522
221	0x3d2def0e	0.04246431
222	0x3ccf38c1	0.025295617
223	0x3d26a6f3	0.04068656
224	0xbd752af0	-0.0598554
225	0x3df9a06f	0.121888034
226	0x3e0178d7	0.12643753
227	0x3a24cd8c	0.00062867324
228	0x3da9e1d0	0.082950234
229	0x3cd9134a	0.026498456
230	0xba40dfe5	-0.00073575816
231	0x3c9246d1	0.017856034
232	0xbe0065c3	-0.12538819
233	0x3e13962e	0.14412758
234	0xbdb38b20	-0.0876677
235	0x3dd51b06	0.10405545
236	0xbd9d1fe0	-0.07672095
237	0x3c8b414a	0.016998906
238	0x3c37bd23	0.011214527
239	0xbe2e174c	-0.17001075
240	0x3cdd2da2	0.026999298
241	0xbd26db83	-0.040736686
242	0xbddcfe85	-0.10790733
243	0xbdad90df	-0.084748976
244	0xbe08de98	-0.13366163
245	0xbdba1a0e	-0.09087001
246	0x3da63fa4	0.08117607
247	0xbd248a1e	-0.04017078
248	0xbbb25d11	-0.0054432233
249	0x3dab6077	0.083680086
250	0x3ccf650f	0.025316743
251	0x3d886903	0.066606544
252	0xbd278dbc	-0.040906653
253	0x3d21837b	0.03943203
254	0x3e364d41	0.17802908
255	0xbd88d114	-0.066805035

bias f4 [400]
0	0xbcd25a2a	-0.02567776
1	0x3cb7c9db	0.02243512
2	0x3c9ae71e	0.018909033
3	0x3d99f24d	0.07516918
4	0xbacecdaf	-0.0015777851
5	0x3d92156b	0.071329914
6	0x3c8867a7	0.016650988
7	0xbc9c76f4	-0.01909969
8	0x3d601db0	0.054715812
9	0x3dcd6bff	0.10030364
10	0x3d4394ce	0.047749333
11	0x3d362f07	0.044478443
12	0x3ccbf2ed	0.02489611
13	0xbbec7574	-0.00721615
14	0xbd906a31	-0.070515044
15	0xbaf964c9	-0.0019027229
16	0x3d2167bb	0.039405566
17	0xbd7f538a	-0.06233553
18	0xbc496fbf	-0.012294709
19	0x3d5aed22	0.053448804
20	0x3d263d43	0.040585767
21	0xbc125444	-0.008931223
22	0xbd3af085	-0.045639534
23	0x3c79fc2f	0.015257879
24	0x3c664ffe	0.014057158
25	0xbd3c3506	-0.045949005
26	0xbd28d7a7	-0.041221287
27	0xbcdd5e42	-0.027022485
28	0x3c7261d3	0.014793831
29	0xbb858b8f	-0.0040754746
30	0x3cbce3e7	0.023057891
31	0x3c27b1c4	0.010235254
32	0x3da7eb92	0.08199228
33	0xbbedaf10	-0.007253535
34	0xbd9c0527	-0.0761817
35	0xbc2fb92f	-0.010725304
36	0xbd252197	-0.040315237
37	0x3cea1583	0.02857471
38	0x3dbe0386	0.09278016
39	0x3bebfda0	0.0072018653
40	0xbb99e9f2	-0.004697078
41	0xbda7685c	-0.08174202
42	0x3d288a58	0.04114756
43	0x3ce173e1	0.027521076
44	0x3d10fa20	0.035394788
45	0x3db23b90	0.08702767
46	0xbca9458c	-0.020663045
47	0xbd818f79	-0.06326193
48	0xbdc0f424	-0.09421566
49	0xbd2eeda1	-0.04270709
50	0xbd066284	-0.032808796
51	0x3da0f9d3	0.0786015
52	0xbcdf410e	-0.0272527
53	0x3c4180ec	0.0118105225
54	0xbcd96d0b	-0.026541254
55	0x3d0c2b60	0.034221053
56	0xbdf3c572	-0.11902894
57	0x3d10fef6	0.0353994
58	0x3c43b1bf	0.011944233
59	0x3d0dad94	0.034589365
60	0xbbc8734f	-0.0061172615
61	0x3d03c9a5	0.032174725
62	0x3c9a60d9	0.018845009
63	0x3cfcb3ac	0.030847393
64	0x3d782249	0.060579572
65	0xbd25687c	-0.040382847
66	0xbb2ae3c2	-0.0026075696
67	0x3d1f679d	0.038917173
68	0xbd77e745	-0.06052329
69	0x3dc909eb	0.09816345
70	0xbd4c75ba	-0.04991696
71	0xbd184668	-0.03717652
72	0x3d74c5aa	0.05975882
73	0x3c28e065	0.010307406
74	0x3cae0198	0.021240994
75	0x3cae73b2	0.021295402
76	0x3d16da2a	0.03682915
77	0x3cee1c84	0.029066332
78	0x3ce7ccc7	0.028295888
79	0xbbd84acb	-0.006600713
80	0x3d22463c	0.039617762
81	0x3d05c28e	0.032656245
82	0xbd038e3c	-0.032118067
83	0xbdbe2866	-0.09285049
84	0x3cafb360	0.021447837
85	0xbda695c0	-0.08134031
86	0x3d943fdc	0.07238743
87	0x3b3f782a	0.002921591
88	0x3c7b6daa	0.01534597
89	0x3dc68335	0.096929945
90	0xbdb66092	-0.08905138
91	0x3d13b069	0.03605691
92	0xbbbd6e78	-0.005780991
93	0xbcdac185	-0.026703605
94	0x3d0d67e0	0.03452289
95	0xbc32f320	-0.010922223
96	0xbbf04ee3	-0.007333623
97	0xbd3d997c	-0.046288952
98	0x3d8c5af5	0.06853286
99	0xbc839b23	-0.016065186
100	0x3d6c4642	0.05768419
101	0x3d02cba6	0.031932496
102	0xbd43a52c	-0.047764942
103	0x3d826fb2	0.063689604
104	0x3d94fd6f	0.07274901
105	0xbd883cff	-0.06652259
106	0x3d4c41f9	0.049867604
107	0xbd158f75	-0.036513764
108	0xbd7d5279	-0.06184623
109	0x3b3f0e6e	0.0029152888
110	0x3ae4120a	0.0017400396
111	0x3ce8da6e	0.028424468
112	0x3d295663	0.04134215
113	0x3ca54f4e	0.020179417
114	0xbcd8ca3f	-0.026463626
115	0x3be17ac5	0.0068810903
116	0x3b7f8633	0.00389899
117	0x3dcb9f2d	0.0994247
118	0x3db8adea	0.090175465
119	0xbdc15c38	-0.094414175
120	0xbd19f26c	-0.037584707
121	0xbd05ef4b	-0.03269891
122	0xbb9c6307	-0.004772547
123	0xbd8063f7	-0.06269067
124	0x3bde48ef	0.0067835967
125	0xbd8b5eaf	-0.06805169
126	0x3d2c048b	0.04199652
127	0xbc5342d9	-0.012894356
128	0x3d16b669	0.036795054
129	0x3c98ec45	0.01866735
130	0xbc298b76	-0.0103481915
131	0xbdcaba4d	-0.09898815
132	0x3c616cee	0.013758881
133	0x3cd372bd	0.025811547
134	0xbd298bc5	-0.04139306
135	0xbc9d719f	-0.019219218
136	0xbc0246c2	-0.00795144
137	0xbda76373	-0.08173265
138	0x3dd82694	0.10554233
139	0xbdbeec81	-0.09322453
140	0x3cf5711d	0.029961163
141	0xbcba525a	-0.022744346
142	0x3bdacd1c	0.006677283
143	0x3ce5f5c1	0.028071286
144	0xbd62e6f9	-0.055396054
145	0x3ce0f9b1	0.027462812
146	0x3d2cb808	0.042167693
147	0xbd3a03b9	-0.045413706
148	0x3c66ca16	0.014086267
149	0x3dc095c2	0.09403564
150	0xbcc9549e	-0.024576481
151	0x3cd331c9	0.025780575
152	0xbc935f7c	-0.017989866
153	0xbc9a1efd	-0.018813604
154	0x3ce5bc18	0.028043792
155	0x3dd4518e	0.10367118
156	0xbd65bf51	-0.056090657
157	0xbd1ac84f	-0.037788685
158	0x3acff8fa	0.0015867047
159	0xbd843d7b	-0.06457039
160	0x3d42ae03	0.04752923
161	0xbc2b5d2e	-0.0104592275
162	0x3c0d5f58	0.008628689
163	0xbda4c351	-0.08045066
164	0x3d1a5be9	0.03768531
165	0x3d0a3df1	0.03375048
166	0xbd84d417	-0.064857654
167	0x3d71fcc8	0.05907896
168	0x3d9a26c5	0.07526926
169	0x3c93377d	0.017970795
170	0xbdcd8271	-0.10034645
171	0x3d227f13	0.03967197
172	0x3d85675a	0.06513853
173	0x3d875c9c	0.06609461
174	0xbcfcfefd	-0.030883307
175	0x3ccfa21e	0.025345858
176	0x3d2effc7	0.042724397
177	0x3d9ef2e3	0.07761171
178	0xbe003202	-0.12519076
179	0x3bae256c	0.0053145196
180	0xbc4c7729	-0.012479582
181	0x3d442ee8	0.047896296
182	0x3d0731e0	0.03300655
183	0x3c2e660b	0.010644446
184	0x3df7bf62	0.1209705
185	0x3d8768ef	0.06611811
186	0xbd8225de	-0.06354879
187	0x3c87ad81	0.016562225
188	0xbd15a901	-0.036538128
189	0xbd107f48	-0.035277635
190	0xbc2f2cdb	-0.010691847
191	0xbc5c5db7	-0.013450078
192	0xbcedf367	-0.029046727
193	0xbd0e785d	-0.034782756
194	0xbd4852d6	-0.048907124
195	0xbd672dc4	-0.05644013
196	0xbcd770ff	-0.026298998
197	0x3dcdb2d5	0.10043875
198	0xbca2faa8	-0.019894913
199	0xbded7551	-0.11594642
200	0x3d7ea81b	0.062172037
201	0xbdb0ba7f	-0.08629321
202	0xbca4ef21	-0.020133557
203	0x3dc74c3b	0.09731337
204	0xbd5baf51	-0.05363399
205	0xbde3282c	-0.110916466
206	0x3c428fbc	0.011875089
207	0x3c576305	0.013146167
208	0x3ddae6c0	0.10688543
209	0x3d5e6d11	0.054303233
210	0xbd8b6711	-0.06806768
211	0x3d34be54	0.044126824
212	0xbd9cc913	-0.07655539
213	0x3d0a367b	0.033743363
214	0x3b9a2162	0.0047036866
215	0x3cc8b9e8	0.02450271
216	0x3d42ca44	0.047556177
217	0xbd36688d	-0.0445333
218	0x3bb54b8c	0.0055326875
219	0xbd5fd26a	-0.054644026
220	0xbd0406a6	-0.032232903
221	0x3daad6eb	0.083417736
222	0x3cb482c6	0.022035014
223	0xbd3e018e	-0.0463882
224	0xbde5eccc	-0.11226806
225	0xbca95039	-0.020668136
226	0xbe0a6a0c	-0.13517016
227	0x3dc3dcf6	0.09563629
228	0x3ccb4e2d	0.02481755
229	0xbc9c44e9	-0.019075828
230	0xbda049f1	-0.07826603
231	0x3d4829be	0.048867933
232	0xbd37c950	-0.04486972
233	0x3d15d153	0.03657658
234	0xbda1ff65	-0.07910041
235	0xbd54e909	-0.051980052
236	0xbd12b743	-0.035819303
237	0x3d8061f9	0.06268687
238	0x3db3db25	0.08782033
239	0xbd952f6a	-0.07284434
240	0xbd3e5ba2	-0.046474107
241	0xbc13ed14	-0.009028692
242	0xbbecd673	-0.007227713
243	0x3ce72e97	0.028220458
244	0xbcf62b90	-0.03005007
245	0x3ce9e2d0	0.028550535
246	0xbd082710	-0.033240378
247	0xbc1f8ddc	-0.009738412
248	0x3d810cab	0.06301244
249	0x3d072677	0.032995667
250	0x3d022f1c	0.03178321
251	0xbc7d4a1b	-0.015459563
252	0xbd98c0a8	-0.07458621
253	0xbd0f1656	-0.03493341
254	0xbdd10f1b	-0.10207959
255	0x3d3c6848	0.045997888
