notebooks/figs/models-for-figs/v_d4.pt (torch, 166371 bytes, 10 tensors)

weight f8 [80, 5]
-0.39617786189903187 -0.015216815536867666 -0.22235098964707792 -0.31027258994608353 0.2733727043623026 0.22515854292204843 0.022205994206842772 -0.17445167004273823
0.3110464404824219 -0.042401276614394835 -0.1603302000902431 -0.41753939852348226 -0.2911356788257238 0.2509798418158618 -0.20338441017859776 0.6796370643285011
-0.11426722853961704 0.22054647366629654 -0.33457031198578707 -0.23530309913006223 -0.5045063640185189 0.08774633992804755 0.056337070390186095 0.10788276778571573
-0.1354396113318163 -0.1057305760793189 0.30421760961888267 -0.2511698124069317 0.38928436294540514 0.26847076401069697 0.4455204724769713 -0.11377793899824433
0.2970003865635613 -0.33013183639758004 -0.08493412229848324 0.39023589267598724 -0.11824030404104782 -0.2074675606619959 0.19943153629803728 0.10122439157451403
0.2791302087366158 -0.2711403628589903 0.14311792732961545 0.1263411511805176 -0.04656996398569909 -0.27690681040197734 -0.33132403255204657 0.07575184224305306
0.42441402373518466 0.26172673401455493 -0.7098435174069153 -0.35747220648039524 0.22060511618483267 -0.03001152717068757 0.4961162631580537 0.6028929440901727
-0.41029038352988495 -0.31349605009248627 -0.13692798378352955 -0.01867401201887816 -0.5057522035352401 0.062137959288393635 0.1930625683080629 -0.012244270240205404
0.4805046552843747 -0.06506684587992051 -0.003284192414486334 -0.0006377214759066639 -0.1374782687623085 0.14928781310902786 -0.2600377928934199 -0.2728669746795507
-0.038360753809824136 -0.2757919309628766 -0.2863419624566422 -0.6538853151100876 -0.27296762993218493 0.49086960125686113 -0.10953080921264276 -0.2113853881740405
-0.4698354355794075 0.040083380474936516 -0.12636570729141022 0.4478562029008904 0.4176025420311838 -0.18193851536938632 0.11655547911478327 -0.01783525683374541
-0.15056009125528236 0.15555817264522884 -0.1360433029981557 -0.3256713651812847 0.298625199984786 -0.19743971890643472 0.3601795841468569 0.6470935927594744
-0.01647414290289662 -0.09762780070946253 -0.126754438549189 0.023249848609195916 -0.858699761212312 0.30749607344042945 -0.19450359489682983 -0.4029494300699823
-0.27762741973461036 0.16322455269485286 -0.33658693039381277 0.3645902953164473 0.26310417304093137 0.3711793228123833 -0.3986938606768515 0.40509377066645597
-0.1375530663448381 -0.08840027298355685 -0.29483130717260486 -0.7888840767997162 -0.17830925037961753 -0.01934932590480949 0.2077896927226423 -0.5140245747737548
0.20446304519857927 -0.45935836323613255 -0.23580497609093665 0.021437415449487504 0.08490767658552517 0.2987863861003725 0.2513287740380441 -0.158754159868723
-0.3462489036049289 0.3292283343197508 -0.2627428689956345 -0.3120212675072797 0.13383602599729535 -0.13227977904481633 -0.37117090722518487 0.5230890220724401
-0.3665301781573815 0.10359456377539207 0.36152451481365505 0.2589807813302595 0.03449728809911411 -0.1329876315058146 0.18029107766446836 0.19310192496362774
0.0346303504349373 -0.4859596357814053 -0.11235407319940512 -0.1476795187383518 -0.3311081798587226 -0.1704341676495907 0.4554853924354435 0.09098961671542288
-0.4304316427387311 -0.17279179680776888 -0.04820006963359902 -0.38598254280901295 -0.1739820723107965 -0.06593493413329551 0.4164063109332198 -0.32943181117679377
-0.6249768671678595 0.1797961340516424 -0.10399388196489484 -0.456584993814784 -0.11894830678760969 -0.564190100803732 -0.15332562004283543 -0.05487290069128101
0.2518525022530084 0.362129301489461 0.16097284350421406 0.36457877291271945 0.20016651136081387 -0.2730166967433985 0.27732229029219646 0.13906065013712807
0.28486129847950864 0.13461827796182102 0.4029942335958189 0.2722386568923207 0.19766833831322628 0.13864985027926316 0.01840084406205311 0.2281786674237844
0.011717878051795194 -0.7460119438269166 -0.3965779451361426 0.1644170923724938 -0.009848286908255056 -0.13427997102753098 0.5231787306135927 0.15821833299911356
0.16384205174231348 0.2886639477425902 0.03685804004973229 0.6421295781986545 0.07257711806425944 -0.11935612026142205 0.05651951090351627 -0.19901003338244946
0.5564742042909012 -0.06053756763788736 0.3412418925134744 -0.40308772818597965 -0.13816846815788683 -0.8135745899626692 -0.20877810981343184 -0.048241450713839173
-0.2769343322537486 0.326645248262102 0.08320723549391966 0.24434526898176012 -0.08739299329969714 0.0722525184737359 0.01897446286210673 -0.8230579508632628
-0.16960244228941374 -0.17570831163092568 -0.11655698316768759 -0.33478500792851146 -0.3869285637720587 0.40818864138270144 -0.0719483261025217 0.3871806748636796
0.0778583464733275 0.49807743072418803 -0.388253215373988 0.42476276854557693 0.336622315511515 -0.03517290006668166 0.23210578095766454 0.3708145872260875
-0.2754228054567452 -0.2941825789021867 -0.06267119274881378 0.357042558634417 0.08222396007540643 0.21047896001591052 -0.10280654078371214 -0.15803213937822547
0.0102537772302139 -0.44833270717443097 0.30045744088961135 -0.4047305608533022 0.06273734239997507 0.6328424566158948 0.19306364158367023 -0.31465194256390777
-0.31102984883356555 0.32249522130391595 0.5020304809453436 -0.13338377225397796 0.3043254866665286 -0.47308712855794255 -0.08347207818817567 0.8912757403305858
00000000: df5a 1064 fa5a d9bf 6611 a468 fe29 8fbf
00000010: 493b 624a ff75 ccbf 3279 aa90 81db d3bf
00000020: 0bbb 363a f07e d13f 69f2 21c1 fed1 cc3f
00000030: 2000 930b 2bbd 963f 6577 c8ac 6e54 c6bf
00000040: 8a30 5a54 2fe8 d33f bd25 bcc0 9eb5 a5bf
00000050: ff6f f932 b385 c4bf 9fca 5c2b f7b8 dabf
00000060: e855 d08a f7a1 d2bf f57a 23c1 0d10 d03f
00000070: a8dd 1d17 8008 cabf 6f17 8e3a 96bf e53f
00000080: ea0b 95f9 9d40 bdbf 108b d2e9 dd3a cc3f
00000090: 1541 0c99 9969 d5bf b99d b475 691e cebf
000000a0: 4bab c287 ea24 e0bf 7dac 554c 8b76 b63f
000000b0: 70b0 c165 36d8 ac3f 720d 717f 349e bb3f
000000c0: a665 a0ce 1556 c1bf 88aa 72b6 2811 bbbf
000000d0: 9c8b 0b23 4d78 d33f 3cef 818c 2a13 d0bf
000000e0: 1e76 ecf5 08ea d83f bdea d6ff 9f2e d13f
000000f0: fd2b bf4c 6883 dc3f 43f5 000f 8d20 bdbf
00000100: 9026 cce8 0d02 d33f bc8b 2c48 e120 d5bf
00000110: 9421 961d 3ebe b5bf e432 31f7 9ff9 d83f
00000120: d2e6 ec1e ff44 bebf f417 030a 4c8e cabf
00000130: 3276 18fb f886 c93f a9ba 5e7b d7e9 b93f
00000140: df5c 76f3 44dd d13f 47b7 c61b 5d5a d1bf
00000150: 6f0e ad30 b051 c23f d5ca 3a64 f22b c03f
00000160: 7bc5 96b0 04d8 a7bf a7d5 ad57 d7b8 d1bf
00000170: fc26 0cb7 6934 d5bf a6b0 0b05 7964 b33f
00000180: 3a02 fa6f 9929 db3f ba35 c57c 21c0 d03f
00000190: 344a 91c0 09b7 e6bf 04fc 031b d3e0 d6bf
000001a0: ab0c acd7 c93c cc3f 04f2 cd7e 57bb 9ebf
000001b0: b6c3 516d 5ec0 df3f 0668 bb24 e64a e33f
000001c0: 1ff2 c798 3242 dabf 4ea2 a4bc 5110 d4bf
000001d0: 08f5 202e db86 c1bf f6f0 9fbb 471f 93bf
000001e0: 950a c23e 1f2f e0bf 94b8 f7ed 8bd0 af3f
000001f0: b881 7b34 46b6 c83f 5be6 f521 8613 89bf
00000200: ca6a 0199 96c0 de3f 78ae 1b87 38a8 b0bf
00000210: 549b 7260 73e7 6abf 505b 0571 98e5 44bf
00000220: 0c56 1f4e e398 c1bf 3150 7ff1 dc1b c33f
00000230: 70e1 0c8e 75a4 d0bf 6c0e 1a0b a776 d1bf
00000240: ea4e 204e 05a4 a3bf a21e ff32 93a6 d1bf
00000250: b951 0e3d 6d53 d2bf 7c70 77e5 a0ec e4bf
00000260: 2e39 db38 4d78 d1bf ffeb ff54 686a df3f
00000270: ed03 790b 360a bcbf 84a6 8728 ad0e cbbf
00000280: a930 94a5 c811 debf 3d86 8110 cf85 a43f
00000290: a285 1362 c02c c0bf bd48 3110 ada9 dc3f
000002a0: 8d06 3003 00ba da3f ac78 b2e2 c249 c7bf
000002b0: f9b4 f772 94d6 bd3f 3b4c 44d3 6743 92bf
000002c0: 6c19 0396 8d45 c3bf ff81 1188 54e9 c33f
000002d0: 4cc3 9bf0 dd69 c1bf 6aa0 acb5 ccd7 d4bf
000002e0: 288d ecde ac1c d33f 9739 d167 b445 c9bf
000002f0: 943f a6ab 2e0d d73f 794c 4b9f fdb4 e43f
00000300: 6183 fd03 99de 90bf 8840 3ab3 22fe b8bf
00000310: a086 184c 7d39 c0bf cb5e a7ed cece 973f
00000320: 2cad efeb 777a ebbf c3cd c402 04ae d33f
00000330: 06a6 8469 7ee5 c8bf 18ea 0568 ecc9 d9bf
00000340: bee9 0ecc a5c4 d1bf 7a43 ddc9 8ae4 c43f
00000350: 695b 93e8 a38a d5bf 0dae b488 7255 d73f
00000360: 24b9 a9e2 b2d6 d03f 2a8f 1beb 66c1 d73f
00000370: 9346 2e41 3384 d9bf 21d9 346c 0eed d93f
00000380: 5032 b5c0 569b c1bf 4cfe 6b79 66a1 b6bf
00000390: 4e2b 8921 84de d2bf ef13 c6d1 893e e9bf
000003a0: b034 7a67 d6d2 c6bf 93dc d747 4fd0 93bf
000003b0: 0e46 5847 da98 ca3f 70cb 3faa e372 e0bf
000003c0: f429 2f56 d82b ca3f de91 cf9e 2066 ddbf
000003d0: 98b6 4582 db2e cebf 9cb4 1099 b0f3 953f
000003e0: 9c3a 1d6e 82bc b53f dba1 32ef 501f d33f
000003f0: 0c61 4248 c515 d03f 48bc 5e6a 0e52 c4bf
00000400: e293 5029 f128 d6bf fb78 34b8 1312 d53f
00000410: 4afb 6577 c7d0 d0bf 3b6a e60c 28f8 d3bf
00000420: bbad 57f5 8921 c13f 33b5 7536 8bee c0bf
00000430: 7e90 f09e 43c1 d7bf fd53 5630 25bd e03f
00000440: 63b6 0bfe 3a75 d7bf 0d6d 755f 2c85 ba3f
00000450: 31ec f4b7 3723 d73f 92c8 8620 2493 d03f
00000460: de6d 5fe8 a0a9 a13f 3c84 0b1c bd05 c1bf
00000470: a72c 2a2d c713 c73f fbb7 415a 90b7 c83f
00000480: aa57 22bd 11bb a13f 7bdc b671 f619 dfbf
00000490: e5bd f68d 3cc3 bcbf 3b97 a297 29e7 c2bf
000004a0: 699a fb5c e030 d5bf 4b86 166c c9d0 c5bf
000004b0: 9e38 1434 ac26 dd3f 2c7d 1174 184b b73f
000004c0: 6f7d 2e29 318c dbbf 9339 27a6 0a1e c6bf
000004d0: 9082 7bf5 adad a8bf ad43 8c1f f0b3 d8bf
000004e0: 8e24 5567 0b45 c6bf fe33 c4a1 1ce1 b0bf
000004f0: 8e98 d3a7 66a6 da3f 500c d129 6915 d5bf
00000500: 80c2 a77c cfff e3bf 047a d949 8f03 c73f
00000510: 7cf7 05d2 579f babf d6d8 1144 b038 ddbf
00000520: 673e 916f 6573 bebf 24ba f565 d80d e2bf
00000530: ff87 dc85 2ca0 c3bf ecb8 cf03 4d18 acbf
00000540: 7fea 25f5 591e d03f 0a84 b460 202d d73f
00000550: 5d86 3215 c29a c43f d075 9e34 4255 d73f
00000560: 2c49 0666 0e9f c93f 1597 f105 1b79 d1bf
00000570: 726f d0fd a5bf d13f 67ee 3f48 bdcc c13f
00000580: bb65 37e2 2a3b d23f 181a a5f6 2b3b c13f
00000590: f251 7153 a8ca d93f 8fce 03b0 5b6c d13f
000005a0: b846 4134 324d c93f c5b9 453e 47bf c13f
000005b0: 3f7b dcbd abd7 923f 1e71 1d65 f534 cd3f
000005c0: e07a 16f8 8aff 873f 122f a570 54df e7bf
000005d0: e32c 2b76 8861 d9bf bc56 5289 9e0b c53f
000005e0: 9a67 8ab1 562b 84bf ec18 090a 1630 c1bf
000005f0: 7257 3e52 e1bd e03f 27ee ed92 7f40 c43f
00000600: e4ac f8be c6f8 c43f e6ac c559 7879 d23f
00000610: a56d 3799 0edf a23f 340a 4554 538c e43f
00000620: f51f 86fc 6994 b23f 07aa 1969 1f8e bebf
00000630: d241 d515 20f0 ac3f eb0b 7a28 2979 c9bf
00000640: c8e7 8ffd a2ce e13f 3744 5eb2 c7fe aebf
00000650: 99b6 173c e8d6 d53f f792 7e78 30cc d9bf
00000660: 1bcc 091e 81af c1bf 7ae1 1794 cd08 eabf
00000670: 417b e2b8 3db9 cabf 484c 417a 1ab3 a8bf
00000680: 3dd8 0ac7 4ab9 d1bf 677d ab78 c1e7 d43f
00000690: 1ba9 3cc3 114d b53f f4bf 9aad b446 cf3f
000006a0: c52a 1f20 635f b6bf 0ef9 e51b 247f b23f
000006b0: ccc2 cea5 0a6e 933f a574 b5a0 7d56 eabf
000006c0: 8e35 7a67 88b5 c5bf bf8b 0b26 9c7d c6bf
000006d0: 305d d3ae add6 bdbf a39e 0f19 1e6d d5bf
000006e0: f382 d205 70c3 d8bf 8d97 5540 c31f da3f
000006f0: fbbd 9c9b 346b b2bf 92b1 0b74 91c7 d83f
00000700: 0bd6 d24b 86ee b33f 8d82 f528 80e0 df3f
00000710: a547 a603 24d9 d8bf 028c dd2d 502f db3f
00000720: b272 0e53 388b d53f e7d6 fbae 2e02 a2bf
00000730: a07d 3669 a4b5 cd3f a002 411b 6dbb d73f
00000740: 3998 80f9 86a0 d1bf 6e05 dc2a e3d3 d2bf
00000750: 64e9 4123 380b b0bf e35b 2708 c9d9 d63f
00000760: efb2 7823 a10c b53f c1d8 e17c f9f0 ca3f
00000770: 7b1e 7b8a 8751 babf 9456 2cab 653a c4bf
00000780: b3f5 e9ae eeff 843f 14a5 c2aa 7bb1 dcbf
00000790: aa7c 9dd8 b13a d33f 7fa0 a302 1be7 d9bf
000007a0: 6f89 d8f1 8d0f b03f 2af0 d5d2 3e40 e43f
000007b0: 0203 5335 4fb6 c83f a7d4 bbe6 4123 d4bf
000007c0: ae7a 34bd e9e7 d3bf 6676 27ff c2a3 d43f
000007d0: 412c 283a a210 e03f f2ef d22d b812 c1bf
000007e0: 0c9c 249b 117a d33f 8027 543c 0f47 debf
000007f0: ce86 f215 6d5e b5bf 8a04 8eb3 5485 ec3f

bias f8 [80]
0.12171198829588079 -0.41497712943858994 0.3527516030315372 0.18044199626476326 0.31354766813523777 -0.31894055184572695 0.1878375115975167 -0.2829671721226808
-0.3200089403925861 0.2557162081469606 -0.34525438974325107 0.37291749448665046 -0.3656597520026588 0.5021206891394345 0.2521154758473785 0.1400290174181534
0.4560887617579347 0.5278847478583972 0.5209923031326865 0.23311968427225016 0.3603246142838584 0.26402253369839457 -0.20513399776398575 -0.00560364633389035
-0.27530793475341164 -0.11464831547680299 0.23848427859908378 0.09128329831436652 -0.34956620681637174 0.5256684618331398 0.15622847168611356 0.04914225424646631
-0.332539739489721 0.3502961738359619 -0.3173615852711825 -0.05559421444562212 -0.3700824722654499 0.038327368210145984 -0.40140613655327123 0.296793311532645
0.09313853369179158 0.1976952110821445 -0.4676968004223243 0.23370121480442974 0.0402645085458807 0.29692122695730316 -0.4064120808502334 0.4291410985376548
-0.05673298035080938 0.19827920935973717 -0.3482034476511219 -0.316960352325171 0.21961823510275932 -0.04514344993379208 0.12877368294754593 0.3750513759246383
0.055886144763254215 0.3030762380990564 -0.42435328338324446 -0.3626241860713528 -0.0910806606664121 0.41286492932044055 0.43099067316563294 -0.3944398703959004
0.3026618641128533 -0.43024294760078013 -0.49033516017683 0.47465104457156715 -0.025258303599212932 -0.12004256506897182 -0.4351109652136886 -0.3043101184475827
0.01825895408907083 0.49459532000930845 -0.1574543934803796 -0.19785005102876524 0.23048038520300887 -0.1976147132446368 0.2811878209104189 0.07848358841737436
00000000: ae0e 4351 8428 bf3f 7fb5 e13b fc8e dabf
00000010: 2073 a875 7b93 d63f 421c 642c b918 c73f
00000020: a32f 183d 2a11 d43f f1ea e2a1 8569 d4bf
00000030: 4bfd a240 0f0b c83f f1f1 8657 221c d2bf
00000040: 387b 5ac7 067b d4bf c017 c383 a75d d03f
00000050: 56da 2fde a518 d6bf 884a bb56 e1dd d73f
00000060: 2927 1429 f866 d7bf 9cf6 4f68 5f11 e03f
00000070: 341e e5f2 a822 d03f 63a7 2689 78ec c13f
00000080: a7b3 f4ea 8e30 dd3f 1c7d 038e 6ee4 e03f
00000090: ff85 ed0c f8ab e03f 8c67 00a6 ddd6 cd3f
000000a0: 4ac0 92f8 8e0f d73f 0011 e9c4 bee5 d03f
000000b0: d3d6 d8b1 d441 cabf a0e8 e05b d9f3 76bf
000000c0: d617 062c a59e d1bf 10ad 838d 9759 bdbf
000000d0: 5abb 9820 a786 ce3f 2e64 ee9c 575e b73f
000000e0: a609 84f0 4a5f d6bf 2c95 83aa 46d2 e03f
000000f0: 1947 4c68 4bff c33f 7b3a ae6d 2c29 a93f
00000100: 35a3 6ec2 5448 d5bf 5285 a2a4 406b d63f
00000110: bec5 6ff7 a64f d4bf 6711 c849 d876 acbf
00000120: e0fc cc64 6eaf d7bf 2837 0212 a59f a33f
00000130: 9b3d 3a5d a3b0 d9bf 6e12 ad5f a9fe d23f
00000140: af21 344c edd7 b73f 6c39 16a1 134e c93f
00000150: 847e 908f beee ddbf 706c 4fe1 ebe9 cd3f
00000160: 8fc3 c9b6 8c9d a43f 9444 d1e3 c100 d33f
00000170: 2cde fcd0 a702 dabf eead e539 0c77 db3f
00000180: 5934 6cee 1a0c adbf a7a1 d68f 3661 c93f
00000190: 6a06 011d f748 d6bf 3560 d712 1449 d4bf
000001a0: 4790 af48 731c cc3f 9541 30d2 0a1d a7bf
000001b0: f22e 6cf2 a77b c03f c3a1 7a7c d700 d83f
000001c0: a98a 1dd8 1b9d ac3f 4921 b5e0 9965 d33f
000001d0: 4933 85ac 9a28 dbbf a890 fa12 3c35 d7bf
000001e0: 823d dcea 0f51 b7bf 692f 4606 616c da3f
000001f0: 9f27 88e7 5995 db3f 0fb0 e5b9 803e d9bf
00000200: 471c 07de cf5e d33f 65eb 51b7 1989 dbbf
00000210: 4075 42b9 a661 dfbf 9a9d 5cc6 ae60 de3f
00000220: 8eec a40f 50dd 99bf 4064 190b 1cbb bebf
00000230: 8352 6ea9 dbd8 dbbf 94c0 a425 d179 d3bf
00000240: 99d8 afaa 79b2 923f e374 0c21 73a7 df3f
00000250: 280c 4e2f 7727 c4bf e619 5785 2653 c9bf
00000260: f97f 689a 6180 cd3f 8e0c 4c5d 704b c9bf
00000270: 1100 b633 fbfe d13f 297d 861d 8017 b43f

weight f8 [80, 80]
-0.10564014684482155 -0.004405002659266734 -0.0409079719842505 -0.10024872207758254 0.02232648688121783 0.07069418781009136 -0.013344790750771615 0.049718116595622704
-0.11326268819048882 0.0019461219172618891 -0.02961000514919613 -0.048501905606506336 0.06108897382161923 -0.030391999199787634 -0.05431252161836818 0.09362560443201275
0.024624327172396775 0.08921335825968633 -0.021331793400706175 -0.01404740233992851 0.0516966158902693 -0.0031647428700335434 0.033987602497963704 0.08436917524434627
0.016425966340361826 0.050168376604393924 0.11343542138584489 0.00363227311636413 -0.05828324586213295 0.11437786715068607 0.053182616814592604 -0.10313392879636486
0.0566400504473867 0.029184751065563296 0.07849483144859865 0.036542230210155915 -0.07421488501694287 0.039200931858352994 0.08554596324577839 0.052278320857766944
-0.06665553673332578 0.0561505170477622 -0.016548543642700145 0.23025492620337262 0.11500487952163199 -0.10893548073793523 -0.1978935767811039 0.028823841743867488
-0.03359404835907126 0.0014469710979486934 0.03921692752803401 0.059901980286898304 -0.1214967261200334 0.07585050047776781 -0.15372444045239653 -0.1345073074890412
0.02021020341464363 0.12432869262826043 -0.10137585735146595 -0.06751322961029185 -0.01990784957366807 0.08607401354712095 -0.1059166230187218 -0.05180999956364202
-0.13100712552673238 0.0562440833897659 0.07706681267201011 -0.01820359615175579 0.04107443704486997 -0.03263385493100309 -0.04923993653830134 0.03906090039917036
0.10275799379816429 -0.08832940016050388 0.08975589083127924 -0.13485413135731553 -0.028635887735922978 -0.07190590268374747 -0.1083860324739801 -0.08046224359509739
-0.06212844256260336 0.18656662514989747 0.11609973336582824 0.0521211868104356 -0.1111734250187363 0.1270026946147247 -0.016588683861913218 0.2621778332183343
-0.16054968335389758 -0.12320640545605065 -0.040244069821806665 0.14806798123277398 -0.046272579922805444 -0.103397941925932 0.13333378206104965 -0.20127450120930554
0.04349693590430151 -0.012987057536536045 -0.17041422279263288 0.13899127274598536 -0.1352272493076538 -0.030781423179478875 -0.01633682129974125 0.059848859857170957
0.1645198260949901 0.13894228911779968 0.08807290226382605 0.05411370860901658 -0.0267986300530925 0.12376792502445204 0.23051648308666864 -0.010697494986061928
-0.1273907725645493 0.004766151774129577 -0.04098719577020225 -0.010049120959295048 0.000337793048946952 -0.13882347045182478 0.09028756744759889 0.22337889338037417
-0.07970928014893827 -0.18743574170384192 0.033660452936455115 -0.13130742794622338 -0.11127814586092856 -0.0034872246327288066 0.12896083747619808 -0.05823040519834341
-0.08210796886425695 0.2303571790199003 -0.08723945014054765 0.1266540134910535 0.23782758225233425 0.08139772875167009 0.2070607329537729 0.000681816231603777
-0.06558724414711532 -0.03549530741298279 0.14392502417040248 -0.1310717733890138 0.026455931420008193 0.08284359622785661 0.10290376506460945 0.21317003635796364
-0.11025424673555871 0.14614256146384771 -0.03070122736294833 -0.12021332657361118 0.034812760692821035 0.23928488869276704 0.11950448222512437 0.008924703571805259
-0.08051285981000553 -0.18780795254007623 -0.10631944938012253 0.0022939667853272127 -0.006312401045511052 0.04695598445923701 -0.27872747237107703 0.15286214226684552
0.05768198659857246 -0.25191594976727616 0.03725711709845942 0.006244714931962717 0.1530464725374249 -0.04196232784672827 0.11989854119621023 -0.1908019526638639
-0.31269555616948086 0.07571247531212727 0.11556721478585993 0.10214331316680679 0.06011144151282315 0.10975609451529222 0.04950740530070753 0.05052765575205251
-0.019162297943258366 0.1316203204277801 0.11697260966358604 0.10149456391683027 0.26751169246169504 -0.051077887188251375 0.007115967619984865 -0.037001479685850866
-0.023374199493715598 0.02898235212541367 0.1336886706460386 0.00822161266580457 -0.19135952717916943 0.2478083372073009 -0.026161384522726046 -0.0944875277709688
0.18321096381359545 -0.005827494604423318 -0.13499495900147004 -0.05368004443706616 -0.2219116954473478 0.03181302478442951 -0.33875085146639444 -0.058336172829568114
-0.037542152056952 0.1004930008409256 -0.1749758912207295 0.0569669718196639 0.009045921324090413 -0.048869008244284314 -0.19080863377674573 0.09448030880277232
0.030124570188122708 -0.02470091996528528 -0.07495168373516706 -0.08585291650058083 -0.09823670153229322 0.025326679306183555 -0.04190201792141731 0.0020633240488744362
-0.06343956031398247 0.15396413048974333 -0.10842475016060223 -0.23214093375189815 0.03490850102675794 0.2167040257678154 -0.03786439464315549 -0.14723981299234842
0.14813494469611796 -0.13816521274488097 -0.18787470495590344 0.08323675597016926 0.06988614824465175 -0.020416292804362066 -0.0408030135170009 -0.09018623805404186
-0.07744493289183424 0.1751841404062572 0.04907307410385285 0.0018695324023320823 0.17119177427914362 -0.1489457920938696 0.028206869127045637 -0.13451515408660245
0.029814325932912916 -0.015428361824954391 -0.015928893565364644 0.02140400879972738 -0.04824396331282121 0.13865178044522555 -0.01637984139816791 -0.1486646542042924
-0.026879535794022746 -0.05855485730470445 -0.1277227295259717 -0.010266809420058937 0.028484996419451895 0.00624998753271785 -0.01680074941208241 0.024171226430907748
00000000: 6dd8 d78f 3b0b bbbf b5f7 c3e5 fa0a 72bf
00000010: 28d6 a2c3 e3f1 a4bf 92fc c976 e6a9 b9bf
00000020: 3926 f52b c1dc 963f 3560 a9a8 0319 b23f
00000030: 25b0 c57e 8354 8bbf 2905 9829 a774 a93f
00000040: 229c a295 c8fe bcbf cc58 467f a0e2 5f3f
00000050: 8a31 00cf 1552 9ebf 9d4b bfe4 3dd5 a8bf
00000060: 4b8c 6bd1 0d47 af3f 001a 7e8a 141f 9fbf
00000070: 5e76 3ad0 d9ce abbf e18d 1afd d8f7 b73f
00000080: d3d7 909f 1e37 993f 9f78 17c8 afd6 b63f
00000090: 2f91 156c 00d8 95bf bc64 266d e2c4 8cbf
000000a0: 8f0a 2095 fa77 aa3f 00bd 1064 f2ec 69bf
000000b0: bc7a 65b2 d266 a13f 9f07 77e0 3799 b53f
000000c0: 75bd f2f0 f7d1 903f 665a 9e61 abaf a93f
000000d0: 2468 0f91 1a0a bd3f bb6a d6c7 6dc1 6d3f
000000e0: 9fe2 c335 4dd7 adbf de65 cc2e de47 bd3f
000000f0: 6466 de7f c03a ab3f 41d3 4933 fc66 babf
00000100: 1b71 a1b8 ecff ac3f e356 797d 9be2 9d3f
00000110: 2c0d fabd 3c18 b43f 22de 59c7 a9b5 a23f
00000120: 0230 0628 bfff b2bf d8d3 9b00 2512 a43f
00000130: 1b08 721a 57e6 b53f 4e70 bf5c 39c4 aa3f
00000140: 26f1 5d56 5610 b1bf 514c bfb4 c2bf ac3f
00000150: 31a1 f7f6 19f2 90bf 10a8 e450 fe78 cd3f
00000160: 2a03 6db4 f570 bd3f 6fba 2417 32e3 bbbf
00000170: d180 2ea4 9354 c9bf f13a 8a46 ff83 9d3f
00000180: 78bc 1536 3d33 a1bf 7406 d062 09b5 573f
00000190: b771 5dba 3d14 a43f c081 98ec 78ab ae3f
000001a0: 5ab1 41d1 681a bfbf 4cef ef3a f06a b33f
000001b0: 7862 2b12 3ead c3bf 7585 5e13 8937 c1bf
000001c0: bf79 d8ca fbb1 943f eaf5 ca54 01d4 bf3f
000001d0: aab2 eda7 c4f3 b9bf 123a 3909 8c48 b1bf
000001e0: da0d 692b b962 94bf 8f68 3851 f208 b63f
000001f0: 0dda f70f 5a1d bbbf 7896 761b d786 aabf
00000200: 7e13 d76b d7c4 c0bf 1a4d 8145 06cc ac3f
00000210: 8982 0890 a6ba b33f 98c6 90a8 f6a3 92bf
00000220: 2960 9e67 b507 a53f 0b96 5777 62b5 a0bf
00000230: 19a1 2d1a fa35 a9bf 7693 8853 caff a33f
00000240: 0704 c40e 594e ba3f 0bf4 f66c c19c b6bf
00000250: 8262 bef7 3dfa b63f 1180 f471 e642 c1bf
00000260: 8557 45e5 b952 9dbf 8482 6adc 6c68 b2bf
00000270: f4a5 d1e0 2fbf bbbf 2bc1 cd70 2c99 b4bf
00000280: 3864 ea99 4ccf afbf 8a9e c548 6ae1 c73f
00000290: e06b e14d b6b8 bd3f 391e 8fd1 a0af aa3f
000002a0: a9c8 a390 dc75 bcbf 18e3 efd1 9f41 c03f
000002b0: d5b1 aeba 9ffc 90bf 3a2b da88 85c7 d03f
000002c0: c2ae b15b e48c c4bf 7f69 177a 748a bfbf
000002d0: 1736 7ce7 de9a a4bf 7460 7d40 e4f3 c23f
000002e0: 43a3 f022 0ab1 a7bf 79ab 0b9b 4978 babf
000002f0: d1bc b3d4 1411 c13f 1739 1be4 5cc3 c9bf
00000300: 54d0 5efa 3a45 a63f 7623 205b f598 8abf
00000310: 7174 d51c 22d0 c5bf 55cc 6f4d 77ca c13f
00000320: f7f6 a662 204f c1bf a752 8557 2a85 9fbf
00000330: 45db cf84 99ba 90bf 0531 947f 82a4 ae3f
00000340: 4290 4f54 fc0e c53f f36a e565 dcc8 c13f
00000350: 520e e31a f28b b63f 5564 7bc1 cab4 ab3f
00000360: ca5e 9f9e 1971 9bbf db17 4636 41af bf3f
00000370: 31e9 056a 9081 cd3f 2001 ea78 91e8 85bf
00000380: 7f0b fd40 574e c0bf 3169 f61f ac85 733f
00000390: 8e89 c612 46fc a4bf 1c61 fd2e a294 84bf
000003a0: 635d 1919 3a23 363f e9ff c0ac f7c4 c1bf
000003b0: ae3e 6c05 161d b73f 77ba d7f8 ad97 cc3f
000003c0: 8e69 6dcf d367 b4bf b818 5cf6 e4fd c7bf
000003d0: acad 0f61 f13b a13f af1d 608a aece c0bf
000003e0: d971 3b7d b97c bcbf 5645 0b78 3d91 6cbf
000003f0: c667 b6e9 c981 c03f 8c5f eb2b 60d0 adbf
00000400: fe51 0321 0705 b5bf 6d07 2513 587c cd3f
00000410: 1651 4619 5355 b6bf b3f4 ecde 3236 c03f
00000420: b425 ee5b 2271 ce3f a204 f546 7bd6 b43f
00000430: 4b3f 2952 f780 ca3f 68cf 5335 7d57 463f
00000440: 6589 a55c 53ca b0bf d01d 00e1 702c a2bf
00000450: 52a6 f19b 226c c23f 8538 11ba f5c6 c0bf
00000460: 13c6 ef80 4317 9b3f ee4e 7be8 3c35 b53f
00000470: c377 96b1 e657 ba3f c181 52df 2749 cb3f
00000480: 4f6e f94f 9f39 bcbf 133c 05a9 ccb4 c23f
00000490: be39 e27d 2470 9fbf b151 2df2 4cc6 bebf
000004a0: e27a 5169 fad2 a13f 4264 ae21 e3a0 ce3f
000004b0: e3df e182 d897 be3f 263b bd6f 1d47 823f
000004c0: 9e99 caa3 7d9c b4bf f94e 0b4b 170a c8bf
000004d0: c22f 045e c037 bbbf dc5f 460a ccca 623f
000004e0: b498 cb40 08db 79bf 5333 3563 9d0a a83f
000004f0: 3b27 95c0 abd6 d1bf aa92 ea96 fc90 c33f
00000500: 1cb3 044c 7e88 ad3f b6d6 6513 641f d0bf
00000510: 1956 f666 5d13 a33f 446e 7de6 0e94 793f
00000520: dd7f 28dd 0697 c33f 810d 8813 167c a5bf
00000530: e79c 46b9 abb1 be3f 6424 5ac9 326c c8bf
00000540: 908e d638 3403 d4bf 2463 5d8d e461 b33f
00000550: 4ebd fe1f d095 bd3f 2f78 8e6d 1026 ba3f
00000560: b673 d346 edc6 ae3f 70d8 7ab4 f918 bc3f
00000570: 524b 5add 0859 a93f 0c4a ffc9 c2de a93f
00000580: 3315 ee0b 489f 93bf 3ef9 dc45 efd8 c03f
00000590: 896a 08bd eaf1 bd3f fd9b be38 8cfb b93f
000005a0: f2ea 9a5c e91e d13f 246d 0b7e e126 aabf
000005b0: 5ad0 5003 a225 7d3f 5e05 4fa2 dbf1 a2bf
000005c0: 4d2f 95f9 67ef 97bf 60c3 28ba 8cad 9d3f
000005d0: 239e 22da b51c c13f 01fb 282c 7ed6 803f
000005e0: 6e9b 810f 787e c8bf b4a1 fdff 2eb8 cf3f
000005f0: 52d3 c5cb 0cca 9abf e8fc a7a9 5530 b8bf
00000600: 4f8c ecf4 7473 c73f 6ed8 e52b 92de 77bf
00000610: 5fa1 04cb 8347 c1bf 5a2c 9c66 f37b abbf
00000620: 34ec 4539 9a67 ccbf a369 12fa cb49 a03f
00000630: 9194 220d 18ae d5bf fa1e f424 3dde adbf
00000640: f1b4 9c96 b938 a3bf 78b3 16c8 e8b9 b93f
00000650: 8fd4 3029 9c65 c6bf fcd0 d561 c62a ad3f
00000660: 3446 fe01 ab86 823f 91f1 64d0 5b05 a9bf
00000670: ccca eed4 6a6c c8bf ed83 6c8c dc2f b83f
00000680: 7261 0eaf f9d8 9e3f cf61 baad 324b 99bf
00000690: 9a34 6c96 0830 b3bf e2de a2ec 74fa b5bf
000006a0: e61d 595c 0a26 b9bf 1469 58ad 3cef 993f
000006b0: dbc0 3769 2e74 a5bf fd6e f3a9 1ae7 603f
000006c0: 7938 d234 933d b0bf 74f2 9abc 18b5 c33f
000006d0: 354a 0474 b9c1 bbbf bc7e 434b cbb6 cdbf
000006e0: 344d 86ec 86df a13f 9eca ca1f f5bc cb3f
000006f0: 8fb2 5941 f662 a3bf 4f53 bc12 c1d8 c2bf
00000700: 0fab 6efb 15f6 c23f 1a92 17cf 65af c1bf
00000710: 2500 c440 470c c8bf f38d b708 014f b53f
00000720: ce78 2701 0fe4 b13f fce6 9937 02e8 94bf
00000730: d27c 44f1 21e4 a4bf 1ccb fdfe 7116 b7bf
00000740: 5ce7 025e 6ed3 b3bf c54f e914 6f6c c63f
00000750: 8ecc c720 1b20 a93f 568f b721 63a1 5e3f
00000760: eac2 efaf 9ce9 c53f 14c2 f5dc a710 c3bf
00000770: c55e b1f1 42e2 9c3f 5d26 cfe5 ca37 c1bf
00000780: 482a 568b a587 9e3f e494 c0ab e798 8fbf
00000790: 20e6 b2f3 a94f 90bf c347 31b7 eeea 953f
000007a0: 2fe4 50c9 6eb3 a8bf 6daf 456f 57bf c13f
000007b0: 35a6 798c e0c5 90bf 7775 f081 7107 c3bf
000007c0: 30ff aa1c 4f86 9bbf f192 4afa e6fa adbf
000007d0: 268c 22e9 3759 c0bf aa1e 8cd5 c306 85bf
000007e0: 5e61 31c0 2b2b 9d3f 5bda da40 9699 793f
000007f0: dbbd 1735 3734 91bf 018f 198c 57c0 983f

bias f8 [80]
0.09794334417941185 0.006381999223507667 0.18548349856139926 0.0540900162819595 -0.10540720733414474 0.16016316664487062 -0.07083874347166452 -0.023071342716843718
-0.0009227926732852268 0.18057164553290586 -0.03368830851955024 -0.0920546681416114 -0.11225579529451968 0.08330008049377353 -0.1301491589898612 -0.03571291758674636
-0.004883518031704166 -0.07869429348660838 0.02556715731748135 0.18356896087804658 0.003568570150095989 0.08594084762439348 0.11690399730105576 0.11856374056944476
-0.10228760014946402 0.012550406272312235 -0.09828765354527866 0.03090020117003646 0.10116628222664567 -0.22184033093166874 -0.004591073934363275 -0.06966793930943645
0.046451675822425605 0.0010948036475689812 0.0751634069920595 0.1330515725141884 0.024934998076406374 0.08235116561109337 0.02733838709591102 0.06374733218868568
-0.10515727567074537 0.10076872125174914 -0.019501416562474887 -0.0038439751523384733 -0.20663245875495803 0.056097233230168186 -0.06700058584806293 -0.06179405510958216
0.10435751387021512 0.10241640128483155 -0.04407140653388449 -0.007907859870102415 0.06924510610503491 0.04657736645748868 -0.06793166645516434 0.0874809324002197
-0.046422863692318475 0.037602484567201735 -0.10872222783759732 0.015552688202206018 0.06994363112486321 -0.07330447957873966 -0.06153999825190588 -0.05944313731664609
0.035760977245644754 0.045053482718465016 -0.023072817895600263 0.11846266305877948 0.10075159670951961 0.06371059818354305 0.12672568539838314 -0.06021169873660174
-0.07204368898760018 0.11543811517386872 0.11337164008090676 0.02504778171381435 -0.12543705286769868 0.05373623620483814 -0.027722533756203496 0.11079453451203147
00000000: b787 1ca4 d012 b93f ed43 2bdf 0224 7a3f
00000010: 6d6a 225c ecbd c73f 1c37 f1c5 afb1 ab3f
00000020: ae49 437c f7fb babf f0ba 6105 3a80 c43f
00000030: e822 80e6 7c22 b2bf 984c c699 03a0 97bf
00000040: 92dc 262d f23c 4ebf c109 13c0 f81c c73f
00000050: 99b3 b20e 983f a1bf 3cc3 1c0d e590 b7bf
00000060: 1891 93b9 cbbc bcbf ad94 7971 2753 b53f
00000070: 534f bb46 baa8 c0bf 04de 28aa f648 a2bf
00000080: fbff c463 bd00 74bf 9f24 e828 4f25 b4bf
00000090: f7fe 1ee2 462e 9a3f be15 c40d 307f c73f
000000a0: 8b13 d282 d53b 6d3f 31f2 ef29 3800 b63f
000000b0: 4301 2e9d 6bed bd3f b9b8 3c7c 315a be3f
000000c0: 47a3 6d29 852f babf dcc2 ed03 07b4 893f
000000d0: 56da 9331 6129 b9bf 644a dc65 4da4 9f3f
000000e0: be10 9f91 08e6 b93f d785 2493 4365 ccbf
000000f0: d8fc 6c06 17ce 72bf 05eb e910 c2d5 b1bf
00000100: 61e0 0099 83c8 a73f 188e 2877 f0ef 513f
00000110: 8207 e3b6 e83d b33f ab9d 507c d507 c13f
00000120: f252 0e65 8f88 993f e24d 164b f714 b53f
00000130: d061 021a 98fe 9b3f c128 f5c2 be51 b03f
00000140: 163b f153 96eb babf ad6a 3c9a facb b93f
00000150: ae2d 72e9 2df8 93bf fd19 1c72 667d 6fbf
00000160: b382 52b2 ee72 cabf a843 3dcc c6b8 ac3f
00000170: d2bf 074d f326 b1bf 44d5 906b 78a3 afbf
00000180: c318 2a8d 2cb7 ba3f 29a5 1716 f637 ba3f
00000190: fbe5 8003 8790 a6bf ab01 30fc fe31 80bf
000001a0: 9b11 211a 0cba b13f a262 5613 fdd8 a73f
000001b0: 6fa7 c93d f863 b1bf 50ba ae7f 2665 b63f
000001c0: 9aba b0d2 bcc4 a7bf d2cf ed02 a240 a33f
000001d0: 5726 e94c 38d5 bbbf 4400 8c79 16da 8f3f
000001e0: 96a9 3e68 d3e7 b13f 81e4 7016 15c4 b2bf
000001f0: 0992 c6af 2b82 afbf 9246 7eb5 546f aebf
00000200: 5070 7c47 434f a23f c483 b105 4011 a73f
00000210: 2a15 2799 66a0 97bf 3e70 a2af 9153 be3f
00000220: 701d e34c dbca b93f be5e 9b77 564f b03f
00000230: e8b3 2c19 8c38 c03f 0514 d259 11d4 aebf
00000240: 81be 1588 7471 b2bf b936 6231 5a8d bd3f
00000250: 1bfe 707e ec05 bd3f f555 312d 20a6 993f
00000260: 68fe e243 520e c0bf 4046 38e2 5083 ab3f
00000270: 046f 61bf 4b63 9cbf 0802 4ed6 075d bc3f

weight f8 [80, 80]
0.09245317513843038 0.07871621440998894 -0.08334099856832414 -0.0782033429893391 0.12023724096028007 -0.009580199757049082 -0.1123949258795104 0.10412421577140524
-0.2173377263725896 -0.05514934802744507 0.0263428941931356 0.06316510112089588 -0.04834158744883459 -0.021059793371304435 0.1890995188981061 0.08356130722803981
-0.020338301335979525 0.005611805603830999 -0.039393769671507366 -0.09589812866237511 -0.2218446126795952 -0.10575768204375556 -0.05196404369866444 0.03771064563996181
0.1122761329805908 -0.08825996457307823 0.10930741365562606 -0.09207894146390744 0.14224442685951966 -0.03621428048115444 0.10267742748105028 0.0443241700062097
-0.12459492712062811 -0.03120509180749545 -0.019977871081528466 0.004791471179687141 0.038761175456271474 0.11179324294005116 0.05065522268280133 -0.08110979280515593
-0.10558126072559498 0.045496105670432246 -0.08963867940453597 0.04216972108576707 0.1065422785348992 0.11734234853153387 -0.06718208105091934 -0.05164887458294034
-0.0592567248519008 0.04534774575931375 -0.11000995227006576 -0.09112809982441356 -0.09956936643522636 0.09402191116517712 0.06378578734921565 0.10431284444066505
0.0026095120981369678 -0.0771121259402447 -0.062200494065277834 -0.03834195823935172 -0.12217596604851286 0.1353988411738166 0.029546587799275277 -0.07434869147350917
-0.024636599759525948 -0.018094857938685496 -0.01859385813600524 -0.05918257361164658 0.05291842566500176 -0.09136947320894048 0.09920319733953477 -0.0024664407423500463
0.11774632088278886 -0.03361244251052773 0.0595616317794472 -0.03312150939084871 -0.032111628363791736 0.017293555232174043 -0.024491865822458665 -0.04686143672674546
0.09786518978158527 -0.07323809532471888 0.14704304218890138 0.09195660205797632 -0.10752620979707211 0.01869317777161309 0.0034792121342491224 -0.015950692059303842
-0.04244953538922234 0.2058095438607259 0.05022478405753584 0.03388266168528827 -0.09968703512235517 -0.06671314782058498 -0.02311199598921325 -0.0176163223382587
0.08082924133592471 0.030347852069791608 0.036312065099024106 -0.011901174648424596 -0.09676394850676619 0.018468667208644148 0.08807153851248777 0.06914811717621627
-0.10493092435541522 0.10506295446221556 -0.07633069094245556 0.10891043894701607 -0.08013680262294412 -0.017448325535606945 -0.17049736410685357 0.0697825724798671
0.038193024215536775 0.07108056446607873 -0.03106502437928276 -0.13374130513550964 -0.026064277223769226 0.1587944081484726 -0.08598235520427812 0.16479067829456095
-0.0636114707673757 -0.0147419228226427 0.01991893220933619 0.08039852380114289 -0.17711295471994287 0.05681374416479536 0.04779645935089528 0.05105225891229572
0.05020300468414253 -0.04785202144547482 0.07407892998608659 -0.11979926063000368 0.1473100670980721 0.0029955410867608763 -0.1609242357844481 -0.06102330443307983
0.08223765698601265 -0.26345281554626854 -0.02489517007425841 0.10993655991549826 0.06810706668270268 -0.036312149469559823 0.12810464582228975 0.043064535253014756
0.010506660239446046 0.07676338904566957 0.07650871895092046 -0.06859410778468217 0.08654837278416785 -0.005764912144896966 -0.03385556117626456 0.05736348632298428
-0.17166439111862436 0.07631752909830962 -0.05452874494079726 0.19584006743637358 0.0033603951618301937 -0.08589853156585187 0.09275218057219138 0.11683261866938624
0.1255295558485599 -0.05834647369801982 0.07800216624451244 0.08277571580466474 -0.050788039578051565 0.06861887066718728 -0.016615980328614773 0.10856704811118599
0.10119406679184989 0.03992507134014171 0.03449773664774833 0.035901964102557464 0.015292673259151228 0.08910193283367657 -0.04926295454692063 -0.04094233797896106
0.005551825999614603 0.05491780383293251 0.012393855387943442 0.016174791992259734 -0.03922109377927055 0.11586060298403913 -0.018858858264091147 0.008933620854842393
-0.07023222717137087 0.06844689586936611 0.1096663495736637 0.01486126762312573 0.01163270457206895 -0.10001314201982335 0.09832362567161484 0.016011509908487494
0.034931073597347685 -0.026143706889124048 0.05900502415168118 0.15866293122512887 0.043384439508750886 -0.05773524263881475 -0.0007075876563932282 0.019948513674254216
0.09298680577969315 0.11683577422482044 -0.06394146604920223 0.1365148294816673 -0.02634993319320136 -0.06313052940880896 -0.061269765877304413 0.01573697708628519
-0.01250973086956654 0.07671654544508201 0.005547066964061654 -0.005243213076777994 -0.023671454712875524 -0.0024318969892143686 0.009332448423127282 -0.07135313117297798
-0.0166968165498597 0.12981104699535093 -0.029992264967054774 -0.016618574906899285 0.067903459730259 0.05707130289322972 0.05447792638376642 -0.09529432651838853
0.056772824308869776 0.09316464462787222 0.023581175573342505 0.06253410780534245 0.12338237709935132 0.0018319418336967689 0.08913186711732123 -0.0015950187013649556
0.0894717412464739 0.15983954181126311 0.03847711787194684 -0.02275474212117414 -0.010170836487624473 0.06638629099275876 -0.018965747867527232 0.1479597522006938
-0.008462788659033087 -0.0050695246452035075 -0.006485882793947599 0.06752562930444386 -0.0751899933604549 0.0002670797500315806 0.09416958044749782 -0.07027182966492554
0.0012472044542691254 -0.09382382356067767 0.019327729950641588 -0.007336156054903121 0.11308041055684909 -0.03671654666758736 -0.14376920073591726 -0.030446799738427944
00000000: e483 a1e3 02ab b73f a44a 8eee be26 b43f
00000010: da55 44ef d555 b5bf abbb 9360 2205 b4bf
00000020: 5e88 af29 dec7 be3f 9556 2aa5 c89e 83bf
00000030: 198b e3f2 e9c5 bcbf 9cb7 7575 e2a7 ba3f
00000040: cb87 7afd b8d1 cbbf ede1 580c 893c acbf
00000050: 7980 2ab4 a1f9 9a3f 6612 908b 962b b03f
00000060: b749 4282 3ac0 a8bf 933c 29cf b290 95bf
00000070: 56a8 adbc 6934 c83f 7a64 c119 4664 b53f
00000080: 907c 604c 90d3 94bf f3b0 a398 67fc 763f
00000090: f780 cf90 6b2b a4bf 873d 5a9e c78c b8bf
000000a0: c856 207e 6765 ccbf 0fbf ad79 ef12 bbbf
000000b0: 2be2 81f8 079b aabf 1a28 784b cf4e a33f
000000c0: 50e2 45ef 20be bc3f 8532 637d 3498 b6bf
000000d0: 637b dc16 92fb bb3f 34df 3c4a 7c92 b7bf
000000e0: f42f b3bc 1035 c23f 3824 a19c ad8a a2bf
000000f0: b38a 1161 1149 ba3f 11b2 3259 a8b1 a63f
00000100: ae08 3b01 74e5 bfbf a8a2 2043 3af4 9fbf
00000110: da66 c13b 1475 94bf 7b83 43c0 38a0 733f
00000120: 54df e039 81d8 a33f 9c5f 5762 7b9e bc3f
00000130: 32a5 9639 7bef a93f 66c5 7b83 9cc3 b4bf
00000140: 8c0a e39d 5f07 bbbf ec54 e6fb 434b a73f
00000150: b9c5 7f7c 8ff2 b6bf 4abe e309 4597 a53f
00000160: fade f2d1 5a46 bb3f 2df7 60ed 250a be3f
00000170: edac fd48 d832 b1bf 73f9 6aa6 b871 aabf
00000180: 0e2d 9dbe e556 aebf 2d97 f7d9 d137 a73f
00000190: 2305 3cbb 9c29 bcbf 2413 7ed0 2b54 b7bf
000001a0: 1dd2 85c4 607d b9bf 99d5 8fe9 d111 b83f
000001b0: 554f 9dee 4354 b03f 7ae6 6c1f 3fb4 ba3f
000001c0: e628 d723 8b60 653f 8dd3 09cb 9ebd b3bf
000001d0: c05e 9c3f bed8 afbf f1bc 67a1 8ea1 a3bf
000001e0: 0e1b 8992 ec46 bfbf eb00 61cd bf54 c13f
000001f0: 72a1 39f1 7541 9e3f be0d 610e 8408 b3bf
00000200: 47d9 0139 563a 99bf 8428 4a5c 7587 92bf
00000210: 4405 67b2 440a 93bf d06d 4fa4 2d4d aebf
00000220: e789 2cb7 1f18 ab3f 6eff 4863 fd63 b7bf
00000230: 2960 3b78 6165 b93f 28e6 6d4a 8034 64bf
00000240: 6c78 6a75 9f24 be3f 1d8e a46a a635 a1bf
00000250: 23a1 2db9 dc7e ae3f d475 416f 4df5 a0bf
00000260: 0a9f 4973 ef70 a0bf 8772 9dd8 66b5 913f
00000270: 42e4 e64a 6514 99bf 1eb1 5ee4 38fe a7bf
00000280: a55b 876d b10d b93f 0db2 3d58 bbbf b2bf
00000290: 8320 a770 4ed2 c23f f283 7dc6 778a b73f
000002a0: fc8f 8a72 d686 bbbf cae3 bfec 4d24 933f
000002b0: 8366 a3ca 6f80 6c3f 941d f9d2 6055 90bf
000002c0: 0d47 740c f2bb a5bf 4712 0b96 f757 ca3f
000002d0: 4199 f319 10b7 a93f 1bf3 ad77 1159 a13f
000002e0: 458b afeb 1685 b9bf b545 1ae4 1c14 b1bf
000002f0: 4c02 adcb abaa 97bf 1b43 4661 030a 92bf
00000300: 6729 19a4 39b1 b43f 1b0c 93e0 8113 9f3f
00000310: 45df 19b8 7e97 a23f 1a16 319f a45f 88bf
00000320: 21b5 44aa 85c5 b8bf dfb7 a546 73e9 923f
00000330: 239a 9e39 db8b b63f 3011 dae5 b0b3 b13f
00000340: 1b10 72c8 c0dc babf d6b4 6fe1 67e5 ba3f
00000350: f667 477d 688a b3bf ac6e 78f5 8de1 bb3f
00000360: a2b7 7872 d883 b4bf a37b 2e4e f9dd 91bf
00000370: 6c52 728d dbd2 c5bf 42bc a14a 45dd b13f
00000380: 78d3 e13b 098e a33f cb55 c3fb 5532 b23f
00000390: 4eaa 087f 82cf 9fbf 2837 d761 6f1e c1bf
000003a0: 1972 1409 98b0 9abf dd86 e40a 6053 c43f
000003b0: 89ab a28b f002 b6bf 60fb fa66 dc17 c53f
000003c0: a6a9 9862 d748 b0bf 232d 3a63 0331 8ebf
000003d0: 2930 a4e9 a065 943f d161 5f66 ff94 b43f
000003e0: b22b 1c26 a3ab c6bf e25d 4dea b016 ad3f
000003f0: 21aa 8d0b c778 a83f a399 d48c 8523 aa3f
00000400: f203 8f4e 35b4 a93f acc5 4f66 0f80 a8bf
00000410: 0ae8 9c35 d6f6 b23f 18a8 7d12 2aab bebf
00000420: 8265 4768 0edb c23f 96fa 0be0 1a8a 683f
00000430: d2fb e954 2a99 c4bf d5f8 aa51 723e afbf
00000440: d42c 41ef 860d b53f acdc b332 69dc d0bf
00000450: d36e 3095 1e7e 99bf 83c8 7869 cd24 bc3f
00000460: d558 07f8 766f b13f 6ca4 d68c 8197 a2bf
00000470: ecdd 22a8 bb65 c03f 1beb 0e05 8e0c a63f
00000480: cfe6 f210 8484 853f de34 7bf5 c3a6 b33f
00000490: 76c8 c04d 1396 b33f a42d a229 628f b1bf
000004a0: d248 a1be 0828 b63f 9fbd 06d2 f29c 77bf
000004b0: 835e 1420 8455 a1bf 12c8 7b33 bf5e ad3f
000004c0: de01 df48 19f9 c5bf 83b9 96ab 8b89 b33f
000004d0: 6be0 6c10 31eb abbf 475d 718e 4911 c93f
000004e0: 2858 4b6a 4287 6b3f b489 d937 72fd b5bf
000004f0: 21b4 305e 9bbe b73f 7282 4a14 bee8 bd3f
00000500: 3286 863c 5a11 c03f 1066 bdc8 96df adbf
00000510: db8e 0931 f3f7 b33f e3b5 4810 ca30 b53f
00000520: e107 08d2 e300 aabf 0e6e 679d 0191 b13f
00000530: 3fd6 6890 c703 91bf bf90 0fd1 0ccb bb3f
00000540: 8494 6bb7 dae7 b93f 568b 6417 0f71 a43f
00000550: 9c4e 60f5 afa9 a13f 5784 5d03 be61 a23f
00000560: 1cba 21dc c351 8f3f 8cf1 875f 62cf b63f
00000570: 2ee1 5d75 fe38 a9bf be67 48e5 64f6 a4bf
00000580: 2872 9ff1 82bd 763f 1b76 dcb6 2f1e ac3f
00000590: f324 801c f361 893f 0e64 81ea 1f90 903f
000005a0: 44cd 3086 c914 a4bf fa16 b65c 0aa9 bd3f
000005b0: 79ca ef8d bc4f 93bf bf54 404b ca4b 823f
000005c0: 1e87 d33e bdfa b1bf 868a 455b bc85 b13f
000005d0: a6fd e308 1813 bc3f 21f1 5893 956f 8e3f
000005e0: 65c8 9b2d e3d2 873f 4f35 2516 769a b9bf
000005f0: 0c09 afb4 bc2b b93f d287 aa3d 5265 903f
00000600: 4df7 6d55 7ce2 a13f a209 5778 6ac5 9abf
00000610: 4ff4 0f12 e835 ae3f c886 5922 114f c43f
00000620: 0ad5 b039 7c36 a63f e9b0 eb45 798f adbf
00000630: 0a04 f0eb ac2f 47bf a2c3 5617 626d 943f
00000640: 6c85 c8b9 fbcd b73f cc66 4c05 f3e8 bd3f
00000650: 6624 8ac9 775e b0bf bd79 0564 5179 c13f
00000660: c72e 4415 7afb 9abf e3a3 3087 5229 b0bf
00000670: 366b 5a31 c05e afbf 01a9 b1a7 5a1d 903f
00000680: 887e bba7 b39e 89bf 71ac bf0d b2a3 b33f
00000690: 419b 3073 85b8 763f 7c31 0d4b e879 75bf
000006a0: f2b7 5c6f 543d 98bf 863a 26c1 0eec 63bf
000006b0: 33c9 2606 e41c 833f 5cea dae4 3244 b2bf
000006c0: 6ba7 1d64 f818 91bf 2395 c0fc a59d c03f
000006d0: 4476 aad4 4ab6 9ebf 13cf ecae 7504 91bf
000006e0: 9fa3 d302 1f62 b13f 42dd ee26 7338 ad3f
000006f0: f826 58e0 87e4 ab3f 0f0d e47f 3565 b8bf
00000700: 9292 6adf 5311 ad3f e0f6 d15d a3d9 b73f
00000710: e311 8ee7 a925 983f 6b92 e83b 3c02 b03f
00000720: 4a61 8bca fc95 bf3f c4c4 e390 b803 5e3f
00000730: 47e1 4c96 58d1 b63f bff0 2a4a fe21 5abf
00000740: 15dd 91ba 9ee7 b63f 9bef 5742 9f75 c43f
00000750: ce06 cfd5 45b3 a33f e619 f5e4 044d 97bf
00000760: e9cf b290 72d4 84bf 9b75 b724 b1fe b03f
00000770: 9b41 57cb c16b 93bf 5cc2 695c 58f0 c23f
00000780: 5624 3044 f054 81bf 102c eb28 c8c3 74bf
00000790: 1e67 c5e7 f090 7abf ba20 8111 5c49 b13f
000007a0: 6c38 78c2 a63f b3bf e806 b4ca da80 313f
000007b0: b2cf 4c64 7f1b b83f 1aae 3daa 55fd b1bf
000007c0: 06b5 eb95 276f 543f 725e c78d d604 b8bf
000007d0: c2fa 2c00 a6ca 933f 81b9 5865 840c 7ebf
000007e0: 84f0 2879 d6f2 bc3f bc95 51de 82cc a2bf
000007f0: f899 aa77 0767 c2bf 0de0 9324 722d 9fbf

bias f8 [80]
-0.01609701990728414 0.08358922525163497 0.18921566986009758 0.16810910990120762 -0.11143170778768796 -0.11001794632039719 0.13224451707371854 0.1471064933131304
0.03873554955140389 0.04490698690673367 0.12559997623400046 -0.00852417947766394 -0.028936883940174928 -0.010002700866864936 -0.014327049338268059 0.17370509662906428
-0.09559265060504275 0.0505605577937951 0.028598926485080483 -0.008411510424458927 0.07040235923296526 0.13583009668663748 0.03621360599927699 0.04371865670293001
-0.1524220175538843 0.047984900233165484 0.1278944652373859 0.003244499089094613 0.038023901287123095 0.024629092589737927 -0.014280154336972377 0.12858610410318233
0.104977692945749 0.03667437854791623 0.11572478679357441 0.030757385180833405 0.05803462565008804 -0.05317033881154766 0.06976959848783254 0.09453640078532631
-0.10859829495559635 -0.03467217650421673 -0.013147846286570779 0.0851777240703429 0.15394877662089837 -0.04185275568516416 0.17327511236338364 0.0017523614293255081
-0.10738814557155363 -0.020626153567548877 0.13962962831863016 0.132735312999235 -0.0950174014190834 -0.0586303944453381 0.09511403853491093 -0.09470301990310669
0.04915862739275106 0.10823998325290783 -0.03829229276606726 -0.029598772464939933 -0.11716529193009018 -0.07485453027689269 -0.011365250763334101 -0.17022360944920611
0.16893425580562338 0.14951161475269378 -0.08920609250617521 0.1341231647082785 0.0722980260516924 0.0699702833651472 -0.0712735976923456 -0.019765701189948397
-0.07349089373626487 0.09433513856705668 -0.05804928827680296 0.16316300961511554 -0.08813184862332886 -0.0637355280180621 0.03150380725909258 -0.14741756576121967
00000000: 1467 42b8 bc7b 90bf bbf5 c07c 1a66 b53f
00000010: 124d f814 3838 c83f c3b9 976c 9984 c53f
00000020: 1880 afd4 c986 bcbf 0050 6bd9 222a bcbf
00000030: 7016 f469 63ed c03f d391 e7b4 62d4 c23f
00000040: be1f 085d 25d5 a33f 30ad 4070 0cfe a63f
00000050: 1dd6 26f7 a813 c03f 4687 a700 2075 81bf
00000060: c64e af68 a1a1 9dbf bb43 c2c8 4b7c 84bf
00000070: 5f2b d902 8057 8dbf 0fce 95f6 f73b c63f
00000080: 492c 168c c278 b8bf 813c 62cc 12e3 a93f
00000090: 2b07 d177 0949 9d3f 22d0 76d1 0d3a 81bf
000000a0: 2282 7796 e305 b23f b872 8a6f e162 c13f
000000b0: bace dffa 968a a23f c73c 87b1 4a62 a63f
000000c0: 64c9 4a8e 9082 c3bf d012 6812 7a91 a83f
000000d0: 8059 c488 d85e c03f d394 582f 3594 6a3f
000000e0: 8332 fd68 de77 a33f 4bf4 cf6c 5e38 993f
000000f0: fc7e dfde e93e 8dbf 9eee eb6b 8275 c03f
00000100: 19f3 026e d1df ba3f 01c9 edf0 fbc6 a23f
00000110: fd6e 9dbe 23a0 bd3f 093f d92d dd7e 9f3f
00000120: 57cc 67e6 b6b6 ad3f 222c a084 2439 abbf
00000130: 7ca2 c29f 6bdc b13f f78e a79d 8933 b83f
00000140: 6f53 3c0d 19cd bbbf 5160 5530 8dc0 a1bf
00000150: 5c5e 820e 42ed 8abf 73d6 3a13 35ce b53f
00000160: ad48 6cf0 97b4 c33f b79c d471 b96d a5bf
00000170: dbdd 67fe e02d c63f 2703 e7c1 efb5 5c3f
00000180: 9839 351d ca7d bbbf f040 0fbc 051f 95bf
00000190: fd2f 9737 62df c13f a792 2d82 78fd c03f
000001a0: 8d57 a577 0f53 b8bf 3c7c 6395 cd04 aebf
000001b0: 7ede e5c4 6459 b83f bff7 5005 753e b8bf
000001c0: d7ac efd1 512b a93f 07da 3094 9db5 bb3f
000001d0: cefc 3c22 0c9b a3bf e563 f4fe 234f 9ebf
000001e0: 58e7 1069 8bfe bdbf 7727 7f9f aa29 b3bf
000001f0: da01 b722 aa46 87bf 8cb3 cb21 e3c9 c5bf
00000200: ecfb ed3f a39f c53f 8713 de53 3223 c33f
00000210: 4b00 ebe1 35d6 b6bf 166f 07a7 f22a c13f
00000220: 8516 7599 1f82 b23f cfc2 be8e 92e9 b13f
00000230: a529 288b fc3e b2bf 0bfa c5c0 753d 94bf
00000240: 73ac 2699 4cd0 b2bf c956 02ff 5826 b83f
00000250: 8aee 68e5 a2b8 adbf 985f 1b87 86e2 c43f
00000260: 8dbe 920f cf8f b6bf 644d 6eb8 f850 b0bf
00000270: 292c c15b 4421 a03f 7472 e62b 94de c2bf
