notebooks/figs/models-for-figs/v_d400-v2.pt (torch, 759583 bytes, 10 tensors)

weight f4 [150, 401]
00000000: 8fff 1d3f c72a 6dbc a514 6b3e ca9f 8fbd
00000010: 3e7f dd3a 98fb c2bd 3306 50bd d032 27bb
00000020: 4d01 0d3e 504e c5bc 2267 7f3d 3df4 013e
00000030: 85b5 2ebd cb3a a13d 2bdb 463d abce 11bc
00000040: 2e78 113e 74b5 273d ec5c f1bd f3b6 96bd
00000050: 3fa5 20be 4190 13bd 1e9d 7ebe 6941 2fbd
00000060: c8ad a7bd 82f7 4e3d 4c94 b83c a441 dabd
00000070: 6888 53bd 6690 8abd 530b 29bc f8e6 083e
00000080: 2bd4 0fbc 6256 23be 4ef4 dfbd e983 5f3c
00000090: 9879 b5bc 10a4 42bd 4d5e 973c 0b1f 963d
000000a0: f7d4 d23d ca4d 3abd 5966 7dbd a15f c43d
000000b0: bb57 4e3d fbb9 17bd 9149 eb3c 2941 0cbe
000000c0: d456 3f3c 7ae2 0bbd a382 623c e12a 9a3d
000000d0: 1aec 003d 626e 66bd 02fd 10bd b4a9 85bd
000000e0: fcbd 303c 0918 66bd b81e f83d eb13 17bb
000000f0: 7fda 66bd 7802 d33d a05a f2bc 3568 b4bc
00000100: 6e41 923b 5c2d ebbd 6b2d c5bd 62c3 943c
00000110: 2acd 133e 1efa 87bc 8508 dfbd 71dc 9abd
00000120: 064b 4a3d f6bf a33d 6e3e c1bd 895f 333e
00000130: 531b 96bc 7c4c cfbd f440 b4bd 255d a53c
00000140: de60 5abd 0ebc 0fbc 5c50 b03b 3bd7 4b3a
00000150: 678f 88bd a89b f2bd e996 b43d 099f 613e
00000160: fe3b 963d 23b2 e4bc a8e3 be3b 80bc f43c
00000170: c67d 06bd 2391 e3bd bfba 1abd 1ae9 89bc
00000180: 843e bebd ca38 42bd f217 113e 3e7f 11bd
00000190: b33b 393d 51da 0ebd 6e51 9f3d bdb3 413c
000001a0: bac6 02be eb68 0cbd fef2 76bd 2908 163e
000001b0: 65dd d8ba 4291 81bb a40e 013d d036 d5bd
000001c0: a592 a1bc 21e9 b23d 5aa2 4d3d 2bc7 0a3d
000001d0: 64d9 8ebd 5f60 903d 4e05 d4bd e706 bdbd
000001e0: 0da8 e63c 9b50 2a3d d05e e7bd a9d7 2e3c
000001f0: 69e3 5c3a ad2e e43d 9a6c 70bc 02c6 973d
00000200: 0022 7f3d 6e16 b03d 2f09 883d 9a27 063e
00000210: 0d7b d53d 85da 073c 7b18 293c e8ce f53c
00000220: fc7e fabd b5e1 6b3c 1c76 8b3c 8b13 d23d
00000230: 448a 003e 4ad4 43bd 4b22 943d d48e f23d
00000240: 1a4d f0bd 7ad5 95bd 6b22 d23c 006c 423d
00000250: b63b ae3c 5209 a83b 7052 a8bd 6a8a 2f3d
00000260: 7db3 dabc f720 2e3e 39f8 843b fd89 5a3d
00000270: de59 243d f454 99bd ff0e 2abd 1782 183e
00000280: e992 973d c8ca 9e3c 371d 213d f35d 9cbd
00000290: dc77 a43c 749e 4abd 3f64 03be 4954 99bc
000002a0: 947c c93d 9136 0b3e 9c23 8b3c 26a8 3cbd
000002b0: 930d 443e cfff 88bd de5f aa3d 8eb2 a0bc
000002c0: 4034 c83d 61b8 97bb dd5c 3cbd 94e7 23be
000002d0: 991d 95bd e255 9a3d 8791 d2bd 18ea e1bc
000002e0: e24c e23b 57b9 19bc 4279 993b 3e05 f1bd
000002f0: 34e4 7b3d a55c ac3c 6ff8 25bd f1c4 503d
00000300: 630e af3c f3a7 5abd 4169 413d 7b44 863d
00000310: 1fbb 063c f5ed 953d e281 0a3e ceb4 c63b
00000320: 3228 943c 162c 64be e42b d0bd 1a1d d5bc
00000330: 8a3c 55bd c823 2e3d 72f4 11be b28f 92bd
00000340: 041b 8a3c 93dc 023d 1612 c7bd 62b1 b9bd
00000350: f4a5 5cbc c507 68bd a1d4 653d ebae 6abd
00000360: c67e 26bd e548 b5bb 6155 9d3d e4fb 8a3d
00000370: b403 9b3a 7ea2 8a3d 0575 003d bb80 2fbc
00000380: 3e58 b1bd 913c 883b a37f 3b3c 2e8a df3b
00000390: 82f8 88bc c1f6 64bd e166 f23d 757f 08be
000003a0: 9678 2a3d 23a5 953d 6fb7 653d ab74 8c3d
000003b0: 2e56 8e3a b2da dabc 09de e7bc af81 05bd
000003c0: 16e8 a53c ce40 17bd 8dc4 e3bc 837b 753d
000003d0: aac6 8d3d abd1 8f3c 42f6 e6bd 70e1 853d
000003e0: a85f 30bd f647 44bd b033 e43d 1ef9 663d
000003f0: c6d2 713c be05 7cbd ffca d33b a5b1 563e
0.61718076 -0.014475531 0.22957094 -0.07012899 0.0016898883 -0.09520644 -0.050787162 -0.0025512464
0.13770027 -0.024085194 0.062354214 0.12690826 -0.04265358 0.07872542 0.04854886 -0.008899371
0.14206001 0.04094453 -0.117853016 -0.073591135 -0.15688036 -0.036026243 -0.24864623 -0.04278699
-0.08187443 0.05052901 0.022531651 -0.10657051 -0.05164376 -0.06765823 -0.010317641 0.13369358
-0.008778612 -0.15950921 -0.10935269 0.01364229 -0.022152707 -0.047519743 0.018477583 0.0733014
0.10294526 -0.04548434 -0.061865184 0.09588552 0.050376635 -0.0370426 0.028721603 -0.13696732
0.011678416 -0.03415153 0.0138250915 0.0752771 0.031475164 -0.056257613 -0.035397537 -0.06526509
0.010787483 -0.056175265 0.12115234 -0.0023052644 -0.056360718 0.10303205 -0.029584229 -0.022022346
0.004463366 -0.11483261 -0.096278034 0.018159572 0.14433733 -0.016598757 -0.10890297 -0.07561577
0.049387954 0.07995598 -0.09435736 0.17516913 -0.018323576 -0.1012201 -0.08801451 0.020186016
-0.053315036 -0.008772863 0.0053806733 0.0007775907 -0.06667977 -0.11846095 0.08817846 0.22033323
0.07335661 -0.027916973 0.0058254786 0.02987504 -0.03283479 -0.11111667 -0.03777575 -0.016834784
-0.09289268 -0.04741744 0.1416929 -0.03552174 0.04522295 -0.03487617 0.07779203 0.011822638
-0.1277112 -0.034279745 -0.06029033 0.1465155 -0.0016545473 -0.0039540837 0.031508103 -0.10410845
-0.019723246 0.08735872 0.05020366 0.033881348 -0.06975058 0.07049631 -0.10352574 -0.09229832
0.028156305 0.041580778 -0.11297381 0.010671535 0.0008426221 0.11141715 -0.01467433 0.07410814
0.062288284 0.08598028 0.06642377 0.13101044 0.10423861 0.008291845 0.010320778 0.030005887
-0.122312516 0.0143970745 0.017024092 0.10257634 0.12552744 -0.047809877 0.07233103 0.118436486
-0.11733456 -0.07316108 0.025651177 0.047466278 0.021268707 0.005128064 -0.08218849 0.04285661
-0.026696915 0.17004763 0.0040579108 0.053354252 0.040124767 -0.07486907 -0.041518208 0.14893375
0.07401068 0.019383803 0.039334502 -0.07635107 0.020076685 -0.04946752 -0.1283121 -0.018716948
0.098382145 0.13595034 0.016984753 -0.046058796 0.19145803 -0.066894166 0.083190665 -0.019616392
0.09775591 -0.004630134 -0.045987 -0.16006309 -0.07281036 0.07535912 -0.102816634 -0.027577445
0.006906138 -0.009382567 0.0046836445 -0.11768578 0.06149693 0.02104027 -0.040520128 0.050969068
0.021369165 -0.053382825 0.04721952 0.0655603 0.008223324 0.07320777 0.13526109 0.006064034
0.018085573 -0.22282442 -0.101646215 -0.026014853 -0.052059688 0.042514592 -0.14253405 -0.07156314
0.016858585 0.031948637 -0.097202465 -0.09067036 -0.013467301 -0.056648035 0.05611098 -0.05729572
-0.040648244 -0.0055323713 0.076823 0.067863256 0.0011826665 0.06769274 0.0313616 -0.010711844
-0.08659409 0.0041576107 0.011444005 0.006821892 -0.01672006 -0.055899385 0.11836029 -0.13329871
0.041618906 0.07306888 0.05608314 0.0685819 0.0010859424 -0.02671561 -0.028304117 -0.03259438
0.020252269 -0.036927037 -0.027803684 0.059932243 0.06922658 0.017556032 -0.11277439 0.065371394
-0.043059975 -0.04792019 0.11142671 0.05638992 0.014759725 -0.061528914 0.006463408 0.20966204

bias f4 [150]
00000000: e7d5 bfbc 8f42 5b3e 6d93 823d 813f 423d
00000010: e7ab 1d3e 120e a73e 8ea9 a43d b01e 863e
00000020: 2371 a83c bb1f bb3c 7d25 d43d be7d 993c
00000030: 1e37 903d 30ee 923e c5fd 9b3e 26ef 003b
00000040: dd69 7a3e c350 c73d 6943 333e 094c 4f3e
00000050: 4fc0 893e 8e3f a13d eda5 dd3d 5a65 273e
00000060: f9ac fe37 164d 083e bc0e f23d 54cb 563b
00000070: f4af 783d f98a 693d 9eac 883e e165 c83e
00000080: 42ec b93d 9df2 2c3e d885 4b3e 93a0 0d3d
00000090: c851 c53d 3681 a43d 18c0 5a3e c61b 223d
000000a0: 097f 303e cd1e 5a3d b6c5 943e c6d9 7a3d
000000b0: 0d49 493e 765b a63c c902 7a3d a41a a1bd
000000c0: b488 193e 9837 993d 884a 0f3e db59 133e
000000d0: f14f cf3e 9575 0d3e 4ccd 1d3e 92b2 f03c
000000e0: 5994 49bb 9a8c f53d b7f7 f03c 35a7 cb3d
000000f0: 77f4 263e b3a2 3a3e 4e47 ba3d 52d5 e33c
00000100: 1673 a23e 11f6 0c3c 3904 453e 34d7 c03d
00000110: 1c80 4b3e b37a 2d3d dd97 373e 225f 0a3e
00000120: 51d8 503d 3f64 8b3e 8a7d c63d 836f 003e
00000130: f76e a93d 90e7 7b3e db8d 243e 2fc8 eabb
00000140: 4133 72bd 6df8 f43d 0db0 aa3e 230a 0d3c
00000150: 1de6 653e 0dd6 b6bb 94e5 743d bb80 ae3d
00000160: 9cba a13d c81e 6dbc 9d9c 093d c916 bf3d
00000170: 914a ae3c 60b3 70ba 15e9 953e f0c8 873d
00000180: 5f50 473e 7eab 503e a2f7 3abd 328a cb3c
00000190: 48cb 923e 6077 8e3d ee65 723e b899 e63d
000001a0: 2aa2 683e 39b9 5f3e 22ef 9f3e a03c 89bc
000001b0: e016 dc3c b712 473d 8ef9 9a3d 3fd9 0d3e
000001c0: 4316 063e 7da4 883d 9a33 b0bb 5320 0e3e
000001d0: cc22 573e efad 8a3e 0952 a73e f0b7 e23d
000001e0: aeeb 3f3e 511b d3ba 6cd4 fd3d 12bf a13d
000001f0: 3632 a23e f491 413e a148 9e3e ca85 173d
00000200: f990 6a3e fec5 0bbd c82a e2bc c942 fe3c
00000210: f32e f03c fa42 dcbb e184 033d c63c 9a3e
00000220: 524e 233e 1470 893e 41ed 223e 06d0 643e
00000230: 97f3 bbbc 27e3 0a3d 6fe6 a73d 7e09 62ba
00000240: 9440 603e 6cb9 8d3d f8b5 673e 7e88 283e
00000250: dfcd 8a3d 621f 903c
-0.023417426 0.21412109 0.063757755 0.047423843 0.15397607 0.32627922 0.080401525 0.26195288
0.02056176 0.022842279 0.10358713 0.018736716 0.07041763 0.28697348 0.30467048 0.0019673794
0.24454446 0.09732201 0.17506184 0.20243849 0.26904532 0.0787345 0.108226635 0.16347256
3.0359706e-05 0.13310656 0.118192166 0.0032775002 0.060714677 0.0570173 0.26694196 0.39140227
0.09078266 0.16889425 0.19875276 0.034576964 0.09634739 0.080324575 0.2136234 0.039577268
0.1723596 0.05325203 0.2905709 0.06124284 0.19656773 0.020307284 0.061037812 -0.078664094
0.14993554 0.07481307 0.13993275 0.14389746 0.40490678 0.13814385 0.15410346 0.029382024
-0.0030758588 0.11989708 0.029414995 0.099440016 0.16304193 0.18226127 0.090956315 0.02781168
0.3172843 0.008603589 0.19239892 0.09416047 0.19873089 0.042353343 0.17929025 0.13512853
0.050987545 0.2722492 0.096919134 0.12542538 0.08273118 0.24600053 0.16069739 -0.007164977
-0.05913091 0.11961446 0.3333744 0.008608374 0.22451063 -0.005579716 0.059789255 0.08520647
0.07896921 -0.014472671 0.033596624 0.09330518 0.02127579 -0.00091820024 0.2927939 0.06630123
0.19464253 0.20377919 -0.045646317 0.02484617 0.28670716 0.06956363 0.23671696 0.11259788
0.2271811 0.21848 0.3123713 -0.016752541 0.026866376 0.048601832 0.0756713 0.13852404
0.1309443 0.06671999 -0.005377245 0.13879518 0.21009368 0.27085826 0.32679775 0.110702395
0.18742248 -0.0016106163 0.12394032 0.07897772 0.31678933 0.18903333 0.30914786 0.036992826
0.22906865 -0.034124367 -0.02760829 0.031037705 0.029319262 -0.0067218514 0.032109145 0.3012449
0.15947846 0.2684332 0.15910818 0.2234498 -0.022943301 0.033908036 0.081982486 -0.000862263
0.21899635 0.06920132 0.2262801 0.16458318 0.06777548 0.01759309

weight f4 [150, 150]
00000000: 1e63 d9bd 3905 363d bbb7 6a3d 6af2 953c
00000010: 5019 acb9 70cc 4cbd 16fe d0bd 93ce 98bd
00000020: ed5e 8b3d d2b1 8f3c daaf f0bc f93c c2bd
00000030: 865e ae3c 589d bdbd 0bcb 113d 01b8 a1bd
00000040: eb74 9e3d c7ba 25bd 7585 8dbd 9fc2 f23c
00000050: 1169 5d3d 977f aebb 936b 813a 2363 a8bd
00000060: d1d9 00be 5b55 80bd b285 8b3d 235c 843c
00000070: eb5d a8bd 8b53 c7bd 0b0e a1bd c646 3b3d
00000080: 2f39 b0bd 1022 e3bc 0ff9 5bbd 0676 c83c
00000090: 26ac 10bd f5fa 973d c24e c4bc 302f a8bd
000000a0: 7f50 573d 2804 0fbd b5cd 4ebd 68e9 3cbb
000000b0: 81f3 89bd ca8f 01bd 67aa 7ebd e56f b6bd
000000c0: 62e9 043b d92f 903c cddd 833c 1d77 453c
000000d0: 6471 2cbd f3a8 a9bd 5d05 c5bc 566f 95bb
000000e0: 077b 71bd 1e7d 99bd 9090 b5bb 6350 95bd
000000f0: 6a32 cbbd 940c e8bb 0a0f a939 7ac0 2f3b
00000100: 8c96 e9bc b276 a7bd 6019 a8bd 5771 653c
00000110: e4f2 bdbb dbae 0bbd de16 afbc e071 cd3d
00000120: 5bbe 9dbc 39c6 7b3d 3efe a9bc ff41 a93c
00000130: ed1c ff3c 264a 0e3d b0b3 1bbd ac86 65bd
00000140: c0a3 bcbd 7ae1 32bc b1b1 d1bd 57e8 6c3c
00000150: 941a 9a3c 787a e2bc 2a4a acbc 7f73 9abd
00000160: e63f 8537 0c02 083d 465d 82bc dbc9 d23a
00000170: 8c78 4cbd 76a7 7c3d be4b f03a 22cc bebd
00000180: 0ad9 3a3d 700b 83bd 0e70 523d e3c9 b83d
00000190: c946 863c 6f16 9a3d c83a adbd 3d50 823d
000001a0: 5fff 1ebd ff58 b5bc 3ea4 263b 2f12 9bbd
000001b0: f96d aa3c a887 a6bd a0ae b7bd ab90 24bd
000001c0: 017b 41bc a431 f53c e00b f5bd 4e9a bdbc
000001d0: c1f7 513d 6600 96bd 3fcc 1cbd 7aca 263d
000001e0: 1d07 5d3b f5b5 203d e40b d3bc fe38 483d
000001f0: 7c53 7a3c 830e 8bbd 150e 163c 32b1 bebc
00000200: 6900 b63c ce18 263c ae8a 0fbd b7ed 9bbc
00000210: 9464 97bd 23d0 173d b360 b5bd 1f17 9bbc
00000220: 65a5 8ebc d184 143d abd0 c53d 2712 433d
00000230: e292 83bd e485 013c d755 623d 421f a7bc
00000240: 0811 42bc c307 023c eedc 59bc fb1e 023c
00000250: d4d1 343d d3f5 b8bc e3cb 18bc ecc1 463d
00000260: af8a 24bd 5abc 05bd 34f9 8b3d ceac 003e
00000270: ae9b 563c 581f fabc d69e 9bbd 7cc5 243d
00000280: 2b29 563d d2ba 82bd 6c19 42bd f77f 07bc
00000290: 6ef7 923d 0405 5fbd 174a 1f3d bb1f 703d
000002a0: 5480 aa3d 4cdd 1cbd b9bb f63d 6786 513c
000002b0: a2fe a3bd 42b5 cb3c 323e 4fbc 89de aebc
000002c0: 9e0b 7e3c a4a2 823d 95a0 febd cbd9 f93c
000002d0: a3bc e63d 4f92 0e3d ed94 f9bc 9f7f 983d
000002e0: 7636 1a3c a63b 283d 79de b33a 319d 773c
000002f0: 79a8 e0bc e410 07bd 3184 033d 0462 063d
00000300: 2208 d6bc c7b5 3b3d 5823 64bd 024d ebbc
00000310: e63e ad3d 6c2c 0d3d 892d dabd c3d0 003d
00000320: e1fd 453d 1786 e13a 153c 553c 7e3c a93d
00000330: c1de 963b cb11 973b d0bb c3bb 4660 9b3d
00000340: b8d1 e63c 91dd 2ebd 164c a83c abe3 073c
00000350: f8e9 b8bd a098 513c c979 b73d b0e7 91bb
00000360: 36d9 29bd 19ac d53b 78b7 acbc 61bf 3cbd
00000370: 0dc0 46bc 32ad 6c3d 4291 163e 1d51 febd
00000380: fd6c b7bc 1378 153d d128 983c 60a5 5ebc
00000390: 67b4 db3d 715f 15bc ca70 893d 9b8c 273d
000003a0: 0bd1 0a3c bbbb a1bd e758 323d 0d0c 623d
000003b0: 48c3 83bd d27d 39bc 77f5 813d d383 823d
000003c0: 380c a6bb 1ac5 48bd c41e c8bc 139b 16bd
000003d0: 0a4b 80bd 94da 9f3b 1a88 933d 7f75 d83d
000003e0: 25b3 d13c 3a46 523d e40d c8bc 1d35 163d
000003f0: e9df 8a3b 4c32 0f3e 20d8 6a3d af08 c83c
-0.10614608 0.044438574 0.057304125 0.018304069 -0.00032825256 -0.049999654 -0.10204713 -0.07461276
0.06805215 0.017540846 -0.029380728 -0.09484286 0.021285307 -0.092585266 0.035594027 -0.07896424
0.07737144 -0.040461328 -0.069102205 0.029633818 0.054055277 -0.0053252685 0.0009873979 -0.08222034
-0.1258309 -0.0626628 0.0681261 0.016157215 -0.082210384 -0.097327314 -0.078640066 0.04572179
-0.08604657 -0.027726203 -0.053704318 0.02447034 -0.035320424 0.07420913 -0.023963336 -0.08212125
0.052567 -0.034916073 -0.050489146 -0.0028825644 -0.06735898 -0.03163127 -0.062174227 -0.08908061
0.0020280709 0.01760094 0.016096974 0.012052325 -0.042100325 -0.08284178 -0.024050409 -0.0045603914
-0.05895522 -0.07494567 -0.005540915 -0.07290723 -0.09921725 -0.0070815776 0.00032245397 0.0026817606
-0.02851417 -0.08176936 -0.08207965 0.014004073 -0.005796777 -0.034102302 -0.021373209 0.100314856
-0.019255808 0.061468337 -0.020751115 0.020661352 0.031141723 0.034738682 -0.03801316 -0.056036636
-0.0921092 -0.010918016 -0.1023897 0.014459691 0.018811502 -0.027646288 -0.021031458 -0.075415604
1.588459e-05 0.033205077 -0.015913617 0.0016081886 -0.04991965 0.06168314 0.001833312 -0.09316279
0.04561714 -0.06398666 0.051376395 0.09022882 0.016391175 0.0752381 -0.08458477 0.063629605
-0.03881776 -0.022137163 0.0025427486 -0.075718276 0.020804392 -0.08131343 -0.08968854 -0.04017703
-0.011809112 0.029930897 -0.119651556 -0.023144867 0.051261667 -0.07324295 -0.03828072 0.04072044
0.0033726164 0.039236028 -0.025762506 0.048882477 0.015278693 -0.06789877 0.009158631 -0.023277853
0.022216992 0.01013775 -0.035044365 -0.01903425 -0.07392231 0.03706373 -0.088563345 -0.018931923
-0.01741285 0.036259476 0.09658941 0.047624733 -0.064245 0.007905457 0.055257645 -0.020400647
-0.011844881 0.007936421 -0.013297303 0.007941957 0.04414542 -0.022578156 -0.009325954 0.048524782
-0.04017132 -0.03265033 0.06834641 0.1256592 0.01309864 -0.030532524 -0.07598655 0.0402274
0.052285355 -0.063832894 -0.047387525 -0.008270255 0.071761 -0.054448143 0.038889017 0.05862401
0.08325258 -0.038296983 0.12047524 0.012788392 -0.08007552 0.024866704 -0.012649106 -0.021346347
0.015505699 0.063786775 -0.12432972 0.03049936 0.11266448 0.0348075 -0.030466521 0.07446217
0.009412399 0.04107251 0.0013722918 0.015113161 -0.027424084 -0.032975093 0.03210849 0.03280832
-0.026126925 0.045827653 -0.05569777 -0.028723244 0.084592625 0.034466192 -0.106532164 0.03144909
0.04833782 0.00172061 0.013014813 0.08263491 0.004604191 0.0046102754 -0.0059733167 0.07586722
0.028176174 -0.04269177 0.020544093 0.008294026 -0.09029001 0.012792736 0.089587756 -0.004452668
-0.041466914 0.00652076 -0.021083578 -0.04608095 -0.012130749 0.05778236 0.14703849 -0.12417815
-0.022390837 0.036491465 0.01857415 -0.013589233 0.107277684 -0.009116993 0.06710966 0.040905576
0.008472691 -0.07897135 0.043541815 0.055187274 -0.06433731 -0.011321502 0.06345647 0.063728
-0.0050673746 -0.049016096 -0.024428733 -0.036768984 -0.062643126 0.0048783515 0.07203694 0.105692856
0.025598118 0.051336505 -0.024420686 0.036671747 0.004238118 0.1398403 0.05733502 0.024418203

bias f4 [150]
00000000: ee11 bd3c cdc3 ea3e ac5c 413e fbc0 ca3d
00000010: b046 bf3e 4164 c1bd 630f 743e e72d 5d3e
00000020: ee37 453e 11a3 a1bc 7414 35bd 0bf8 2d3c
00000030: c6b5 c43d ad96 b3bc bec4 243e 401c 043f
00000040: dd50 3b3e c975 a43d 039e 653e 553d 913e
00000050: dc70 8bbb 2ed5 a4be 5cc0 8c3e ed93 c13d
00000060: 3d6b 343d 2c07 ce3e a343 8b3d fe08 6cbd
00000070: 5408 df3e 7014 b73c 7ecb e03e f5d1 2b3e
00000080: ce64 ab3e b0ab a43e 4e05 8a3e 0d37 07ba
00000090: fa74 fc3d 3618 c2bb 72ce 9e3e 2fc3 013d
000000a0: 7e29 c63e fc2e a63e 5054 543e ce3b a33d
000000b0: 9ddb ae3c 62ce 3e3e cce6 ef3d 6700 203e
000000c0: b70e 433e 8273 193e 5953 133e f0b6 fa3d
000000d0: 565b 263e a389 b63e ea2f 193e 2254 133e
000000e0: cde6 363d 4101 0b3d 94a0 4b3e d18d 813e
000000f0: 87fd 7e3e 3b17 a43e 8420 0e3e ce01 083e
00000100: a3ac 693d 5f28 923d f7fc 6c3c 2a50 a33d
00000110: bff1 7f3e f01b e53e 7cc4 883e 3975 2e3e
00000120: 520a ebba eb76 19bd d9db 853e 56d8 fe3d
00000130: 6605 983e c54e b53e 5811 2fbd 6137 323e
00000140: 3470 753d dc71 c13e f197 7b3e 86e1 953e
00000150: da01 8fbc 231c 1cbd 7dd5 973d 169b b43e
00000160: 12d9 913c 8213 723e f43d 39bd de05 3b3d
00000170: 17ec abbc efe3 303e 46ce c33d ce49 483e
00000180: 0fde 3c3e 0a80 1f3e e275 ab3b 18f8 be3e
00000190: 2d38 153e 50cf 083e 97b2 993e 2c99 253e
000001a0: 3727 093e f129 bd3e 2459 803e 4cbb b93d
000001b0: 3fd2 b93d c8b2 673d 120f a13e 32eb 113e
000001c0: 18bf 3c3e 967a 2dbd e546 973e 1c5b 57bd
000001d0: 39aa 9abb 9f17 003d e105 793e ff06 94bc
000001e0: 32e2 a53e 2cf4 d9bc 11c0 4d3b e180 813e
000001f0: c64c 7d3e ff9b 303e 7b95 8b3e f7b2 963e
00000200: d1a0 973d 4e19 bb3e 7d6f b0bc e540 1b3c
00000210: b50e 3d3e 1f54 3dbd 425a 4f3e b4db 9c3e
00000220: 1fa8 0d3e c97c 2b3e 1d5c 803e 021e 2c3e
00000230: 5486 493e 60cd 7a3c 9d61 d03d 9c25 843e
00000240: 4b9e 8f3d f47f 1c3e 27e2 babd 5ac6 76bd
00000250: c04c d63d 52d3 d23e
0.023079839 0.4585251 0.18883008 0.09900089 0.37358618 -0.0944295 0.23833995 0.21599542
0.19259617 -0.019731076 -0.04420896 0.01061822 0.09604983 -0.021922434 0.16090676 0.51605606
0.18292566 0.08030278 0.22423558 0.28367105 -0.0042553972 -0.32193893 0.2749051 0.09452043
0.044047583 0.40239847 0.0680001 -0.057625763 0.4356104 0.022348613 0.43905252 0.16779311
0.33475345 0.32162237 0.26957172 -0.00051580445 0.12326999 -0.0059232963 0.3101688 0.031680282
0.3870353 0.3245772 0.20735288 0.07970391 0.021344954 0.18633416 0.11713943 0.15625153
0.19048582 0.14985469 0.14387263 0.12241924 0.1624578 0.35651883 0.14959684 0.14387563
0.044653703 0.033936743 0.19885474 0.2530351 0.249014 0.32048973 0.13879591 0.13281938
0.057049405 0.071366064 0.014464608 0.079742745 0.24994563 0.44747877 0.26712406 0.17036904
-0.0017932153 -0.037466925 0.26144293 0.124436066 0.2969162 0.3541166 -0.04274115 0.17403938
0.05992146 0.3778218 0.2456968 0.29273623 -0.017456938 -0.03811277 0.074137665 0.3527457
0.017803703 0.23640254 -0.0452251 0.045659892 -0.0209866 0.1727445 0.09560828 0.19559404
0.18444084 0.15576187 0.0052325586 0.37298656 0.1457221 0.13360333 0.30019066 0.16171712
0.13393866 0.3694606 0.2506801 0.09068927 0.090733044 0.056566983 0.3145681 0.14249876
0.18432271 -0.042353235 0.29546276 -0.052577123 -0.004719999 0.031272527 0.24318649 -0.018069742
0.32399136 -0.026605688 0.0031394998 0.2529364 0.24736318 0.17247008 0.27262482 0.29433414
0.0740372 0.36542743 -0.021537537 0.009475921 0.18462642 -0.046222802 0.20249274 0.3063637
0.13833664 0.1674682 0.25070277 0.16808322 0.19680148 0.015307754 0.10174868 0.25809944
0.07012614 0.15283185 -0.091251664 -0.060247757 0.10463858 0.4117685

weight f4 [150, 150]
00000000: 669c 94bb 8ed4 113e 02ab 073d dfcc 033e
00000010: d48b 973d 3bdd 30bd 6bcb 913d 1efc 46bd
00000020: b56b 073e fc19 9d3c 7fe3 76bd 7871 213d
00000030: c460 cabd 99e6 553d d2f9 f7bc efd8 a93d
00000040: c538 90bd 306e fb3b 93dd 943d 6ba8 023d
00000050: c666 c53a 2340 98bc 19c1 da3d 446e ad3d
00000060: d5f0 1cbd 9dea 13bc 0011 30bd 17de ec3a
00000070: a613 42bd 4c9b a8bb 42ec 47bc d627 e4bc
00000080: 5df3 ce3d 2846 54bb c0f4 f0bb 9d39 fbbc
00000090: 1108 afbd 2b87 48bc e49b 11bd 4800 b6bd
000000a0: 21d4 8f3d 5d6b a43d 1821 a6bd e1b8 593d
000000b0: 50d6 823d 1c5b 583c 9f3e 9dbd c405 b9bd
000000c0: 6cc1 f1bc cea3 1fbe 0ad6 24be a19b 4e3d
000000d0: fe49 a03d 791e 853d 8e4b a43c ba56 dabd
000000e0: dcf8 5abd b2c8 54bd 9897 a83d aec3 c9bd
000000f0: f3e8 cf3d e10d 323d 88d4 97bb c60f a83d
00000100: 4d95 b73d 0362 b8bc 7522 c83d 9c4b a0bd
00000110: 7d10 213c fe19 2bbd 024b 8f3d d663 f7bc
00000120: 8546 8dbd 7dfb 933b bbf6 2cbd d6fb 013d
00000130: 477e 043c 3367 ce3b a5e4 153d 5a62 0a3c
00000140: beb7 7b3d 6cba 4f3d a5ee a2bc a900 a1bc
00000150: f71d ed3d a6dd fe3c 646b 803d 24c2 cbbd
00000160: 4da3 b93b b71e 203d 31d5 9fbd 7425 8ebc
00000170: 321a 3fbd 4ba9 943d e938 7ebc a6de aa3d
00000180: 436e 9e3d 1cf6 c8bd f4ba a93d 4064 67bc
00000190: a23f 9b3d 44d8 1cbc e58a 973a ce42 a33b
000001a0: 2527 963c dc79 b93b 1cf7 6c3d ff93 c53d
000001b0: 8055 9ebc 25dc 9e3d 782d a1bc 5387 193d
000001c0: 77bc 1cbd ca05 c33d 94d3 86bd b1a9 a9bd
000001d0: 3f91 c43c ac8f 8b3b 46e0 c33d 1fae 07bd
000001e0: 59ab 553c 5576 ee3c 304f 0f3d 3c9a 61bd
000001f0: a28f cdbc f2a5 bc3c 9592 c13d 19a2 fabc
00000200: 9d6c 093d 6951 cabc 46c4 6b3d 3db6 203d
00000210: da52 adbd 91cc 6dbd 808b da3d 0cab 163e
00000220: 4063 d3bc 6072 853c b443 ddbc 0541 c2bd
00000230: 0a53 8e3d 8113 a6bd a6c3 05bc b266 1c3d
00000240: 76fd f7bd 5eb2 dd3d fb2c a2bd bca6 8abc
00000250: 7b43 0d3e 5e23 2f3d b068 d6bd b0bd 6cbd
00000260: e377 92bc f456 81bd 27a5 0cbe e347 6fbd
00000270: 9238 c73c 0058 9fbd 05c0 cebd 64af 1e3d
00000280: 9619 4abd 1df5 143d ec5b 1ebd c1b7 a2bd
00000290: 9c60 5b3d bdd3 273d da3b 84bd c8e8 62bd
000002a0: bedc 043c 259c 0d3c 02b6 78bd 5b4a 12be
000002b0: 47b8 e73c 3926 79bc c6a1 90bd 7ef9 01bd
000002c0: b1e7 3f3d 5ea8 89bd 1ff6 bdbc 4189 353d
000002d0: e04b 12be fbaf a7bd ce15 5dbd 20e1 2dba
000002e0: 814e 87bd 960b 423d be52 413d 85be dc3c
000002f0: c92d 1dbd 54ad 553d c47c 01bd c51c 34bd
00000300: 157d c5bc cf34 343d 5db1 d2bc 5a72 4a3d
00000310: 9e8d b7bd 52ca 4fbd 8a43 89bd 4f23 bebd
00000320: 36a5 c8bc 6ea2 b33b 1d79 ba3c f755 b2bc
00000330: f97e 56bc 0454 333d 0fbc d73a d67c 96bd
00000340: 1562 22bd fc8f 183d ad9f 133d 9d75 f3bc
00000350: 190b cdbc 8b63 45bd aea8 913d 8592 1cbd
00000360: 4cd9 a8bc c81f 0c39 8748 9abd 5f71 88bc
00000370: 765f 30bd ff46 dbbc 4308 95bd 1ef7 1d3d
00000380: c217 5bbd b5dd 9dbc 1f8c bebd 69bd 533d
00000390: fa4a 383c 7534 46bd f888 80bd 3073 e63c
000003a0: 8302 3f3c 7d2d 60bd 8d9f a1bc ea72 2bbd
000003b0: 994c 9abd 269f 52bc 6eca 89bd 4918 413b
000003c0: c672 a9bd fbd1 8f3d 15d0 99bd f050 7d3d
000003d0: d24c 513d 11e5 a7bc e500 8abc b977 0bbb
000003e0: 0c0b 6b3d 1a6f 1c3d 6e35 4ebd 675d 6bbd
000003f0: eb5f bf3b 6286 70bc 44c6 a5bd 9210 2fbd
-0.0045352457 0.1424124 0.03312207 0.12871121 0.07399717 -0.04317973 0.07118877 -0.04858028
0.1322468 0.01917743 -0.06027555 0.039414853 -0.09881738 0.05222187 -0.03027049 0.0829333
-0.07042078 0.0076730475 0.072688244 0.031898897 0.0015060536 -0.01858527 0.10681362 0.08468297
-0.038315613 -0.009028104 -0.042984962 0.0018071559 -0.04738202 -0.005145466 -0.012202324 -0.027851027
0.101050116 -0.003239045 -0.007353395 -0.03066712 -0.085464604 -0.012239258 -0.03554906 -0.088867724
0.07022882 0.080282904 -0.08111781 0.05315483 0.06388533 0.013205316 -0.0767796 -0.09034303
-0.029511176 -0.1558983 -0.16097274 0.050441388 0.07826613 0.06499953 0.020055559 -0.10661073
-0.053459987 -0.05194921 0.08232039 -0.09851776 0.101518534 0.043470267 -0.00463349 0.082061335
0.08964024 -0.022507673 0.09772197 -0.07826921 0.009830591 -0.041772835 0.069967285 -0.030198973
-0.06898216 0.0045160637 -0.042227488 0.03173431 0.0080867475 0.0062989234 0.036595006 0.0084463
0.061454527 0.050714895 -0.019889185 -0.019653635 0.11577981 0.03111155 0.06270483 -0.09949139
0.005665219 0.039091792 -0.07804335 -0.017351843 -0.04665584 0.072588526 -0.015516498 0.08343248
0.077358745 -0.09812567 0.082876116 -0.014123023 0.07580496 -0.009573046 0.001156178 0.004982329
0.018329212 0.0056602787 0.05785285 0.09647369 -0.019327879 0.07756833 -0.019675002 0.03748257
-0.03826567 0.095225886 -0.06583324 -0.08284319 0.02399504 0.0042590704 0.09564261 -0.03312504
0.013041341 0.02910916 0.03498763 -0.05507873 -0.025092904 0.023028348 0.094517864 -0.030594872
0.033550847 -0.024697023 0.057560228 0.039236296 -0.08463068 -0.058056418 0.10671139 0.14713687
-0.025804162 0.01628989 -0.027009822 -0.09485058 0.06949432 -0.08109189 -0.008164322 0.038183875
-0.12108891 0.108250365 -0.079187356 -0.016925208 0.13795273 0.04275834 -0.10469186 -0.057798088
-0.017879432 -0.06315413 -0.13734876 -0.058418166 0.024318967 -0.077804565 -0.100952186 0.038741484
-0.049340807 0.03636657 -0.038661882 -0.079452045 0.05355893 0.040973414 -0.06456728 -0.05539778
0.00810927 0.008643185 -0.06072045 -0.14286177 0.028286112 -0.015206867 -0.07062106 -0.031732075
0.046851818 -0.067215666 -0.023188649 0.04432035 -0.14286757 -0.081878625 -0.053975873 -0.00066329725
-0.0660677 0.04737433 0.04719805 0.026946316 -0.038373742 0.05216725 -0.031613126 -0.04397275
-0.024107495 0.043995675 -0.025719339 0.04942546 -0.08962558 -0.050730057 -0.06702335 -0.09284078
-0.024492841 0.0054820096 0.02276283 -0.021769507 -0.013091796 0.043781295 0.0016459244 -0.07348029
-0.03964432 0.03724669 0.03604095 -0.029719168 -0.025029706 -0.048190635 0.07112251 -0.03822567
-0.020611428 0.0001336328 -0.07533365 -0.016655622 -0.04305979 -0.026767252 -0.072769664 0.038565747
-0.053489454 -0.019270757 -0.0930407 0.051694307 0.011248345 -0.04838987 -0.06276125 0.028131098
0.011658314 -0.05473088 -0.0197294 -0.041857637 -0.07534141 -0.012855327 -0.067280635 0.0029463938
-0.082738444 0.070224725 -0.075103916 0.061844766 0.051098652 -0.02049497 -0.01684613 -0.0021281077
0.057383582 0.038191892 -0.050343923 -0.057462122 0.0058402917 -0.014680477 -0.08094457 -0.042740412

bias f4 [150]
00000000: 9134 8dbc e7aa 95bd 3786 923e 658c de3e
00000010: cfd2 603e ac22 9f3e e27e 3a3d e2e2 c53e
00000020: 6d2a 223f 933f 313e f74f 97bc f02f a13e
00000030: 1b13 5bbe d4bd 723e 3c65 953e ada6 193e
00000040: faa1 813c 1f75 993e 58bb 983e feff ae3e
00000050: 7df4 5f3e 5d13 363e 25eb c9bc 5139 23bd
00000060: 3bf5 78bd 7384 8f3e 6dc0 cf3e 7ea4 b4bd
00000070: dbac b53e fc79 9f3e 931f 673e 5241 823e
00000080: 9dd1 be3e 28f7 f7bd 02ff 4b3e fa4d bd3e
00000090: ce88 713e d910 ba3e b810 f73d e746 32bd
000000a0: 786d 7a3e 40a0 ff3e 6978 e13e c68b ad3e
000000b0: ae0e cd3e 87d5 0a3f ebb9 733e cf40 693e
000000c0: f370 ef3e 5e71 943e aa08 923e 5e3b 4a3e
000000d0: 0ed2 843e 309d 643e 55ad 973c 9593 a33e
000000e0: 350e 9d3e 9722 0e3e b374 1b3e 5b2a 8a3e
000000f0: a4f2 9c3e 6541 cc3d 064c 7c3e 346c 863e
00000100: 00fa 503d 0bc2 b63e 43e2 a33e ea87 cebd
00000110: 1a98 e83e 7530 053f 858f 673e 7bbf 0cbe
00000120: 556a 973e 04af d73e 4157 523e 4cbf 9ebd
00000130: 09c1 c53e 4c7d 363e cf68 db3d 6042 9f3e
00000140: 4357 c2bd 6ea9 083f 484c 51bd 7f74 90be
00000150: 6e10 153f ca62 a83e 04f9 ac3e 903a 9b3c
00000160: d71c 983e 9eda 013c ed50 883e e6b8 b53e
00000170: 82dc 563e 3e0a 893d 42e6 bc3e c2b5 c03e
00000180: cde0 de3e ad5b 8dbd 48e4 173f 9964 8b3e
00000190: 4a00 89bd 5429 a83e 9b6e fa3e 31fc 403e
000001a0: 50ce 4f3e f32c e33e ebcb c73e caaf 0b3f
000001b0: 81ce 873e c65e b4be 214b 5b3e 1ab0 713e
000001c0: 1f77 203e 845b 8a3e d317 d63e 41cd 14be
000001d0: 329a 3f3d bb2e 0d3e 6a04 923e 7016 9c3e
000001e0: b700 dc3d a031 ff3e 0446 853e 32d5 2d3d
000001f0: 1ee0 16bd 0818 95bc 16eb 2d3d c5ea f23e
00000200: 244f dc3e dbf5 da3d 2de4 e63d e83a e43e
00000210: 35d9 5f3e 2faf 0c3a b3b0 bd3e cfa6 253e
00000220: 0ae7 0c3e 16bf 143f 1dbc d23e 57b5 5bbd
00000230: 9376 48be 687a d13e 688f 933e f1c8 723e
00000240: 87f1 c13e 7497 653d 6a30 043f b682 e03e
00000250: 3f8d c8bd ac1b ea3e
-0.01723698 -0.07307988 0.28618023 0.43466488 0.21955417 0.3108114 0.04553116 0.3864966
0.63345987 0.17309408 -0.018470747 0.31481886 -0.21394007 0.23705226 0.29178798 0.15004988
0.015824307 0.2997217 0.29830432 0.34179682 0.21870609 0.17780824 -0.024648258 -0.039849583
-0.060780745 0.28030738 0.40576497 -0.08820437 0.3548344 0.31147754 0.22570638 0.2544046
0.37269297 -0.12107688 0.19921497 0.36973554 0.23587343 0.3634098 0.12063736 -0.04352465
0.24455822 0.4992695 0.44037178 0.338957 0.40050262 0.54232067 0.23801391 0.22778629
0.4676586 0.28992742 0.28522235 0.1974921 0.2594151 0.22325587 0.018515268 0.31948534
0.30674902 0.13880382 0.15181236 0.2698544 0.3065387 0.099734105 0.24638376 0.26254427
0.05101967 0.35694918 0.32008561 -0.10084517 0.45428544 0.52027065 0.22613342 -0.13744919
0.29573312 0.42125714 0.20541097 -0.07751331 0.38623837 0.17821234 0.1071335 0.31105328
-0.094893 0.5338353 -0.051098138 -0.2821388 0.58228195 0.3288787 0.33783734 0.018948823
0.29709503 0.007925658 0.2662424 0.3549263 0.20982555 0.06691407 0.36894423 0.3763867
0.43530884 -0.069022514 0.59332705 0.27225187 -0.06689508 0.3284403 0.4891251 0.18846203
0.20293546 0.4437023 0.39022765 0.5456511 0.26524737 -0.35228556 0.21415378 0.23602334
0.15670441 0.27022946 0.4181505 -0.14531423 0.04677791 0.13787358 0.28518993 0.30485868
0.10742324 0.49842548 0.2602998 0.042439647 -0.03683483 -0.018199936 0.042460524 0.4744474
0.4302913 0.106914245 0.1127399 0.44576192 0.21860202 0.00053666806 0.37048873 0.16176914
0.1376001 0.58104074 0.41159144 -0.053639736 -0.19576482 0.409137 0.28820348 0.23709466
0.37879583 0.05605264 0.51636374 0.43849725 -0.097925656 0.45724237

weight f4 [150, 150]
00000000: 53ab bc3d 336a e83d 3b26 3f3d a213 33bd
00000010: da81 86bc ff2d a9bd f338 423d 7c21 6a3c
00000020: 4e66 083d f719 f4bb 31f3 f5bc 19e0 f9bc
00000030: 6859 b5bc 72d3 b43c d0be 813c 3a4f 4f3c
00000040: 1d73 2e3e d49b cdbd ae90 f0bc 132a afbd
00000050: 97d9 4c3d 411b 2bbd d44c 9abd 2a80 adbd
00000060: fe58 a83c d198 d83c 6840 e5bd 8e1a 83bc
00000070: e48d 59bc d692 553d 6816 943d a284 16bd
00000080: 77f6 0abc f0af 8b3d b46b 6ebb 13ba a83d
00000090: 7f4a 96bd ec86 10bd 1f6a 23bd 97c7 0a3d
000000a0: 777d 0ebd 9c37 273e b36e 56bc 9b53 4ebc
000000b0: 2909 56bd 9875 873b cd49 80bc 3194 b4bb
000000c0: 1528 933d 4374 93bd d636 5cbc 3af4 95bd
000000d0: 59c4 6fbb 18bc b43c 8c68 503d 43d9 563c
000000e0: b11c 5cbe 152f aebc b391 1fbd f4b6 85bd
000000f0: 82b3 3bbd 2072 b63c 1db6 5dbc 3bcb 863b
00000100: 7e2e ddbd 12ec 9a3d 4ad4 293d fe91 7d3d
00000110: 661c 4bbd 0c28 c4bd 8fbf ddbd 5cdd acb9
00000120: 7d37 05bd 8135 ebbc e839 c63c 3430 8fbd
00000130: a0f7 a0ba 8146 13bd 9211 89bd eb2c 8dbd
00000140: 350c 84bd efb1 bc3d 433c 92bd 857f 67bd
00000150: 5764 9cbd 0267 f9bc 443d 283d e809 123d
00000160: 78e0 043e 429e febd 6135 b9bc 9aa4 ab3d
00000170: 50df 8dbd 36bc f8bd b3bf 8f3c 8b58 603e
00000180: 3a12 2c3c 07b4 8a3d 831d 38bd 5b67 7a3c
00000190: 5e18 d0bb 83e3 cabd 9312 023e 5dc8 58bb
000001a0: 6ec0 0b3d b946 95bd ec08 50bc 23f7 d4bd
000001b0: d71d 903d 81b1 85bc d879 753d eaf1 003d
000001c0: 6ebf 9bbd c90d 923d c947 a8bc 4045 84be
000001d0: 71a3 03be 11c1 513d 3043 3e3d 1e92 cbbd
000001e0: 3630 d4bd c715 843d 66c9 18bc b80a 843d
000001f0: f528 41bc f054 30bd e627 0c3d df54 fabd
00000200: 9d16 71bd 0347 e0bd c74e 5d3d a18f fe3d
00000210: 8f9e 75bc c7fa 813d 0e9b 79bd 1a46 fd3c
00000220: a5f8 b8bd 151e a7bd 5e57 0f3d dc4a 4dbd
00000230: f6e7 e83d ab65 213d fae3 ce3c e2f2 dbbd
00000240: 283b 5e3d 424c 003e 4d42 f1bd 7069 d8bc
00000250: 7c38 87bc d493 c33c fbb3 eeba 9894 44bd
00000260: d346 97bc 2dd7 373e e09e 96bc 1d7b c03d
00000270: cb73 f43d 9d18 3bbc 2c6d 0abd a243 80bb
00000280: fbbd c23d 673a 6a3d 10ea db3a d334 1cbd
00000290: aee6 48bd cd23 aa3d 18a3 413e 614f b13d
000002a0: c257 5b3c 659b cc3b 784a d83c 9fed f9bc
000002b0: 6afc 803d a0e8 773c 4b6a b8bc 4caf dfbb
000002c0: f44d 09bd 7ccb b53d 74a3 48bd 23af 283d
000002d0: 4e03 5c3c 5d72 ce3c d5a2 223b 6b76 94bd
000002e0: 4274 86bd a16f 8d3d 8d12 11bd 3924 783d
000002f0: 31b7 a03d 1187 03bd 462c 38bd 935e 4a3d
00000300: e3e3 4abd 4833 253d 3b01 33bd a08c 9ebd
00000310: 28b8 87bd 9a8e 2c3d 2c4d fcbc cf96 cebd
00000320: 7233 fe3c 49f0 78bd c231 e03d 5287 d53d
00000330: 08e1 babd 68ec 31bd 1919 523d de1e 563a
00000340: 77ee 8bbd a49a 843b f6a3 11bd d586 9c3d
00000350: 5714 a8bb f34d 3a3d 51ac d9bd 1f5b 973d
00000360: 00d4 d93c 19b7 3abd 9140 25bd e5de b33b
00000370: c84c e5bc 4387 bbbb 9c99 8c3d cc62 85bd
00000380: b689 92bd 5a0f bcbd c676 8abd aaf9 723d
00000390: 7b23 173d bbab 7ebd b4d4 f0bd dd23 63bd
000003a0: 163a 623c c09e 373b 10bc cdbc 6378 513b
000003b0: f948 ad3c 8cd0 083e 0968 993c f745 b5bd
000003c0: 5908 edba 145f ac3d c0b8 463d 9737 08bd
000003d0: 3f47 023d e112 393c cc6a 233d 2658 96bd
000003e0: 85fc 6b3d ff5d b1bd 408a 8f3b c63e 833b
000003f0: 38d0 a6ba c49a 353d 307d ac3c 9457 593d
0.09212365 0.11348381 0.04666732 -0.043719895 -0.01641934 -0.08260726 0.047417592 0.01429021
0.03330069 -0.0074493843 -0.03002319 -0.030502366 -0.022137359 0.022073481 0.015838057 0.012653166
0.170361 -0.100394875 -0.029365864 -0.08552947 0.050012197 -0.04177404 -0.07534185 -0.08471711
0.020550247 0.026440056 -0.11193925 -0.016003873 -0.013278458 0.052141987 0.07230836 -0.036747582
-0.008481613 0.06820667 -0.0036380114 0.08238616 -0.07338428 -0.03528492 -0.039896127 0.03388175
-0.03478762 0.16329807 -0.013087916 -0.012593175 -0.05225483 0.0041338913 -0.015660191 -0.00551083
0.071853794 -0.071999095 -0.013440808 -0.07321973 -0.0036585538 0.022062346 0.050880954 0.013113323
-0.2149532 -0.021262685 -0.03895731 -0.06529036 -0.04582549 0.022271216 -0.013532189 0.0041135824
-0.10799883 0.07564558 0.04146222 0.061906807 -0.04958763 -0.09577951 -0.108275525 -0.00032971322
-0.03252362 -0.028712036 0.024197534 -0.06991616 -0.0012280829 -0.03595591 -0.066928044 -0.06893333
-0.06447641 0.09213626 -0.071404 -0.056518096 -0.07636326 -0.030444626 0.041074052 0.03565398
0.12976253 -0.12432529 -0.02260846 0.08381005 -0.06927359 -0.121452734 0.017547464 0.21908776
0.010502392 0.06772619 -0.04495002 0.015283431 -0.006350561 -0.09906676 0.12702398 -0.003307841
0.034119062 -0.0728888 -0.01269744 -0.103987 0.070369415 -0.016319992 0.059930652 0.031480707
-0.07604872 0.071315356 -0.020542042 -0.25834084 -0.12855317 0.051209513 0.046450794 -0.09939979
-0.10360758 0.06449466 -0.009325361 0.06447357 -0.01178955 -0.043049753 0.034217738 -0.12223219
-0.058859456 -0.109510444 0.054030206 0.12429739 -0.014991417 0.0634666 -0.060938887 0.030917216
-0.090318 -0.081600346 0.03499543 -0.05012022 0.11372368 0.0394036 0.025255192 -0.107396856
0.054255635 0.1252909 -0.11780224 -0.026417464 -0.016506426 0.0238742 -0.0018211597 -0.047993273
-0.018466389 0.17953177 -0.018386304 0.09398482 0.11936148 -0.0114194425 -0.03379552 -0.0039143125
0.09508892 0.057184603 0.001677813 -0.038136315 -0.04904812 0.0830761 0.18909872 0.086577184
0.013387622 0.0062441104 0.026402697 -0.030508814 0.06298144 0.015131146 -0.022511622 -0.006826317
-0.033521608 0.08876702 -0.048984006 0.04118265 0.013428522 0.025201017 0.0024816294 -0.07249149
-0.06565143 0.06906057 -0.035418082 0.06058142 0.07847441 -0.03211123 -0.044964097 0.0494066
-0.049533736 0.04033211 -0.043702345 -0.07741666 -0.06626922 0.042128183 -0.030798517 -0.10087358
0.03103039 -0.06077603 0.109469905 0.10426201 -0.091249526 -0.043438345 0.051293466 0.0008168052
-0.06832593 0.004046755 -0.035556756 0.07642905 -0.005129378 0.045484494 -0.1062857 0.07390427
0.026590347 -0.04558477 -0.04034478 0.0054892176 -0.027990714 -0.0057229116 0.06865236 -0.06512985
-0.071551725 -0.091826156 -0.067609355 0.05932013 0.03689907 -0.062175494 -0.1175932 -0.055454124
0.013807794 0.0028018206 -0.02511409 0.0031962625 0.02115296 0.13360804 0.018726366 -0.08851235
-0.0018084153 0.08416572 0.048516035 -0.03325614 0.031806227 0.011296005 0.03989677 -0.07341032
0.05761387 -0.086605065 0.0043804944 0.004005286 -0.0012726849 0.04433705 0.021055788 0.053062037

bias f4 [150]
00000000: 0d76 b03e ec4e 19bc c728 86bd 62e2 483e
00000010: 3d87 203e a570 08be f814 833e d7bd 943e
00000020: 1cd6 08bd 1768 3d3e 38fb 683e 2bb1 813e
00000030: 338e a23e d485 3a3e b11f 923e a807 633e
00000040: fde1 a73e 2d2d 853e 1a0c 833e ec4b 983e
00000050: 18a2 6d3e e376 723e c2fd 2fbd 0ee1 633e
00000060: fdc0 5e3d f19a 6a3e 9f25 5d3e 01df 563e
00000070: 8052 6d3e 8897 953e 86de 903e 2dce 913e
00000080: e9f4 65bb 5618 363e 0ce5 733e 9593 373e
00000090: 9d9d 573e 80ca 3cbd b3a4 913e 24f7 993e
000000a0: 0275 973e 6b62 8b3e 0dfd 433e ffac 7f3e
000000b0: c363 59bb f6fa 9b3e 14b5 8ebd 8ee1 8c3e
000000c0: 68d8 3e3e 7d8d 103e 7d34 593e 26ea 0abe
000000d0: 1f96 013e eb2c 083e c9b8 86bd 83ad 513e
000000e0: c94c 9a3e 535d 753e b2bc 9b3e d19a 11bd
000000f0: bc6c 9f3e 2136 0dbd 4752 433e 466f 1b3d
00000100: 6b30 753e 54be 6b3e d453 ac3e 5362 673e
00000110: 4eab a53e f536 a33e 2139 193e e810 9f3e
00000120: 65c9 883e 3656 73bd 18e6 603e 7af7 a53e
00000130: 36c3 9d3e ddf0 3c3e e3cc a83e df70 9a3e
00000140: 87cd 4f3e cfaa 213e ebbb 5d3e 22b5 4a3e
00000150: 9946 423e 1593 debc 7619 873e 53fb 3e3e
00000160: f9b4 873e 5da1 7b3e b74c bbbd 51db 2a3e
00000170: 596c 8ebd 0fe0 5abd 4417 943e 2ebf 123e
00000180: 77bb b4bd 3388 963e e861 583e cc0b 183e
00000190: abed 523e 1209 5e3e af97 bcbb fe04 943e
000001a0: 27f0 4d3e 2573 173e b696 8a3e a749 893e
000001b0: d8c1 733e 5520 123e e7d0 813e 3a04 cdbc
000001c0: 7055 3a3e 6377 8e3e 59ec 9d3e 368d adbd
000001d0: 1b98 a83e f3a2 abbd 5931 993e 8bb2 debd
000001e0: 3ced 5b3e 6594 5d3e 75b6 423e 9d84 aebd
000001f0: 4a36 273e 882a 893e 34bc 5f3e 0512 7e3e
00000200: 34db 993e 6916 543e 2937 4b3e 96b8 cc3d
00000210: 1446 8d3e a573 7e3e 2424 4f3e 3d5a 193e
00000220: e3c0 81bd 341a 973e 944a 973e b500 7a3e
00000230: 834e 5d3c b7a0 9b3e c5d5 943e 3e92 5d3e
00000240: c4e3 8d3e b2de d1bb aedc ab3d 8002 953e
00000250: de83 883e 13a5 83bd
0.34465066 -0.009357195 -0.065507464 0.19617608 0.1567659 -0.1332422 0.25601935 0.29051086
-0.033407316 0.18496738 0.22752082 0.2533048 0.31749114 0.18215114 0.28539804 0.2217089
0.32789603 0.2601103 0.2559517 0.29745424 0.23206365 0.23678164 -0.04296661 0.2225382
0.054383267 0.22910668 0.21596383 0.20983507 0.23176003 0.29217172 0.28294772 0.28477612
-0.0035088605 0.17782721 0.23817843 0.17927392 0.21056218 -0.046091557 0.28445968 0.30071366
0.29581457 0.27223524 0.191395 0.24968337 -0.0033171035 0.30464906 -0.06968132 0.27515835
0.1863724 0.14116473 0.21211429 -0.13565883 0.12654923 0.13298385 -0.06578214 0.20476346
0.30136707 0.23961382 0.304174 -0.035548035 0.31137645 -0.03447545 0.19074355 0.037947915
0.23944251 0.23021823 0.33657706 0.22596101 0.32357258 0.31877866 0.14963199 0.31067586
0.26716152 -0.05940839 0.21962774 0.32415372 0.30812997 0.18451257 0.32968816 0.3016424
0.20293246 0.15787815 0.21653716 0.19795659 0.18972243 -0.027169744 0.26386613 0.1865056
0.2650526 0.24573274 -0.091454916 0.16685225 -0.069542594 -0.053436335 0.28924 0.14330742
-0.088248186 0.29400787 0.21131098 0.1484825 0.20598476 0.21683148 -0.005755387 0.2891006
0.20111142 0.14790018 0.27068108 0.26814005 0.23804414 0.14270146 0.25354692 -0.02502643
0.18196654 0.2782546 0.3084438 -0.084741995 0.32928547 -0.083806895 0.29920462 -0.10873898
0.21477216 0.2163864 0.19014914 -0.08521388 0.16329303 0.2679026 0.21849138 0.24811561
0.3005005 0.20711674 0.1984526 0.099961445 0.27592528 0.24848802 0.2022863 0.1497583
-0.06335618 0.2951218 0.29549086 0.24414332 0.013507488 0.30396053 0.29069343 0.21637818
0.27712834 -0.006404721 0.08391701 0.2910347 0.26663107 -0.0642797

weight f4 [400, 150]
00000000: 575c abbc be2e f33d 5c47 5a3d dc0c 0cbd
00000010: 4247 873d 5f9b 1d3e 3cf5 d5bd 5a6a 8fbd
00000020: 6004 ad3c e08f 953d 36cb c3bb 61d7 833c
00000030: ce07 fc3c de9f 86bd a46a 4abc 4a70 bd3c
00000040: 3e16 bbbd aeec 643d 1bcd bfba e44f 99bd
00000050: e0db d1bd 6848 77bd e59f 043d 6ceb b03c
00000060: 8172 de3c 8ab8 8ebd 5290 a53c 3f3e 643d
00000070: 7f43 a63b e0ef 153d ba0b 5c3d 6d32 0cbd
00000080: 30cc 4a3d e337 be3b 24ad 36bd d9a6 acbd
00000090: 5a8c e3bc 80ca 17bd c01e 83bd 6f9b 953c
000000a0: 408c 273d d49b 133d 952f 6fbd 81b2 9b3d
000000b0: b63b 223c 06df 653c 3794 f8bc 6545 64bd
000000c0: 8492 3d3c 03dc 5b3d 9399 b3bd c5b3 bf3c
000000d0: 0ddf 8abd d556 46bd 153d 59bd bcfd 3c3d
000000e0: 9877 ab3d 4a63 823b d884 443d 7974 a3bb
000000f0: 97c5 bc3c 2609 f43a 6296 f1ba 360a c5bc
00000100: 4930 adbd 58a4 b5bc b584 5a3d d93f dd3c
00000110: 70b9 8cbc 439e 9e3d 7965 13bd 0a9b d4bd
00000120: 9d7d 973c 7638 963d 18b3 f33a f6aa 603d
00000130: f5cc 0d3d 4265 a4bd aa9d 153c a707 083a
00000140: 0984 14bd 86b0 e3bc 67ae 8c3c fd3d 573c
00000150: c0ff eabd c392 753d b18f f93c 2f8c ddbc
00000160: 5407 673d e141 2d3d 3df3 053d c98d bcbd
00000170: 2a39 02bd 635f f8bd c55c 51bd f924 373d
00000180: b16b 22bd 890d 67bc cbd3 85bd f82e b6bb
00000190: 805c 883c 9f3e 89bd 1992 e83c 5e3e ffbc
000001a0: 5e9b 9fbd cd5c 273c 30d9 72bd b723 52bd
000001b0: c966 1d3d a96e 8abd d3ef 1d3d d872 aa3b
000001c0: f2f2 ac3d 51b1 9c3c f34a 0e3d 6bea 273c
000001d0: f7c8 6b3d 3c70 383d 6af6 8bbb 0221 65bd
000001e0: d9fb f23c cde0 663d 4d81 73bd afb7 053c
000001f0: c190 ad3c 8486 40bd 82e0 e4bc 7c27 fa3c
00000200: f46c 37bc bb74 cabd d8c8 3a3c ab2f 85bd
00000210: 30d6 f93c 3e4b 063c 88e0 4cbc 6017 93bd
00000220: 1b8d f83d 1c14 90bd ae0c c2bc 90c1 5d3d
00000230: 9b29 18bc 0f6d 50bd 9c1e 873c 0a83 73bd
00000240: c9a0 c9bc b942 b4b8 d2de a3bd 771a 4cbb
00000250: 29d3 17bd db09 963c ad67 673e 4f62 92bc
00000260: 0a00 e83c 6334 18be b276 643d 16a2 753d
00000270: 6c6c 9cbd f9ab a4bd f1e5 82bc aacc 283d
00000280: bf4f 2e3e 1b63 76bc ee3f 0d3e 86f3 b4bd
00000290: e083 843d d13a 413e ac51 9fbd 41ea 50bd
000002a0: a0d0 8e37 4062 cdbc 9f0f 8a3d b55a 033e
000002b0: 994d b73d 539d 813b b131 a03d 4079 e83c
000002c0: 93ba 4a3d 0d88 cabc 3bd4 413d 6552 113e
000002d0: 7470 823e 661c 2abd 7a75 843c 93ce a2bd
000002e0: 5019 893d aa50 153e 2b44 f53d f0b5 083e
000002f0: bb47 b3bd 0dda c43c e652 033e 6394 6b3e
00000300: 8010 b3bd 07e2 2e3d 8609 9c3d e76a 96bc
00000310: a9ab e93d 970a 173d 6b31 27bd eca3 c63d
00000320: e126 873d 80bf 6b3d e673 32bd 8dd8 b13c
00000330: 9c90 713d 4ecd a53d fb42 383e de94 db3d
00000340: b490 a0bd 1fd1 b8bd c1e3 893e 2f0f c8bc
00000350: ddb2 193e 4d8b 2abd 5ed7 3dbd 08df 173e
00000360: 8512 7d3d 9e3e ec3d 86de 03be 68b5 403e
00000370: 0fe8 92bb 6195 93bd 4311 56be b162 a43d
00000380: d7ce 75bd 56fc 133d 16a7 9dbd e388 d2bd
00000390: b158 f13c 7ade d03d e7f4 e53b 62f5 17be
000003a0: 397b 813e e4c4 10be 11a0 a13c fd24 643d
000003b0: 15ba e23d fd49 543d f873 273e 0813 e43d
000003c0: cd73 3d3d bdde f93d cfb3 82bd 5036 95bd
000003d0: d6f0 0fbe 8f76 2bbe c6ae 91bb 60b9 a43d
000003e0: f3b3 1dbe 4419 febd 83aa 1e3e f3c3 763d
000003f0: a267 a03d a3bf 863d ce0f 983d 448a 893d
-0.020918055 0.1187415 0.05329071 -0.03419195 0.06605388 0.153913 -0.10447165 -0.07002707
0.02112025 0.073028326 -0.0059751524 0.016093912 0.03076544 -0.06573461 -0.012354527 0.023124833
-0.09135102 0.055889778 -0.001463327 -0.07485941 -0.10247016 -0.060371786 0.03237905 0.021596633
0.02715421 -0.06968792 0.020210419 0.055723425 0.005073964 0.036605716 0.05372212 -0.034227777
0.049511135 0.005805002 -0.044598714 -0.08430261 -0.027776886 -0.037058353 -0.064023495 0.018262593
0.040905237 0.03603728 -0.058394987 0.07602406 0.0099019315 0.014030224 -0.030344112 -0.055730242
0.011570577 0.053676616 -0.08769526 0.02340115 -0.06780825 -0.048422653 -0.053036768 0.046140417
0.0837242 0.0039791213 0.047978252 -0.00498825 0.023043437 0.0018618449 -0.0018431658 -0.02405272
-0.08456475 -0.022173092 0.053349216 0.027007984 -0.017178267 0.0774503 -0.035985444 -0.10381134
0.018492514 0.07334988 0.0018592803 0.05485054 0.03461929 -0.08027126 0.009131828 0.00051891286
-0.03625873 -0.027794134 0.017173005 0.013137338 -0.11474562 0.059954416 0.030464025 -0.027044384
0.056403473 0.042299155 0.032702673 -0.09206731 -0.031792797 -0.121275686 -0.051113863 0.044712994
-0.039653484 -0.014102348 -0.06534537 -0.0055597983 0.01664567 -0.06701397 0.028389977 -0.031157669
-0.07793306 0.0102149965 -0.059289157 -0.05130359 0.0384281 -0.06759388 0.038558792 0.0052016787
0.08444776 0.01912752 0.034739446 0.010248761 0.057564702 0.04502891 -0.004271318 -0.05593968
0.029661106 0.05636673 -0.059449483 0.008161469 0.021187188 -0.047003284 -0.027939085 0.030536406
-0.01119541 -0.09885546 0.011400424 -0.065032326 0.03049764 0.00819665 -0.012504704 -0.07182193
0.12136289 -0.070350856 -0.023687687 0.054139674 -0.009287263 -0.050885256 0.016494088 -0.05945114
-0.024612801 -8.595497e-05 -0.08001484 -0.0031143704 -0.037066612 0.018315246 0.22598143 -0.017869143
0.028320331 -0.14863734 0.05577726 0.05996903 -0.07637867 -0.08040614 -0.015978785 0.041210808
0.17022608 -0.015038277 0.13793918 -0.08835511 0.06470466 0.18870093 -0.077792495 -0.051004652
1.7024868e-05 -0.025071263 0.06741261 0.1282757 0.089503475 0.003955522 0.07821978 0.028378129
0.049494337 -0.024723077 0.04732154 0.14191587 0.2547642 -0.04153099 0.016169298 -0.07949557
0.06694281 0.14581552 0.11975893 0.13350654 -0.08753916 0.024029756 0.12824592 0.23005824
-0.087433815 0.042696025 0.07619004 -0.018361522 0.11409695 0.036875334 -0.040818613 0.09699234
0.065992124 0.057555676 -0.04356756 0.021709705 0.0589758 0.080957994 0.17994301 0.107217535
-0.078401 -0.09024262 0.26931575 -0.024421303 0.15009637 -0.041636754 -0.04634797 0.14831173
0.06178524 0.11535381 -0.12877855 0.18819201 -0.00448323 -0.07206226 -0.20905022 0.080266364
-0.06001171 0.03612932 -0.07697885 -0.10280015 0.029461237 0.10198684 0.00701772 -0.148397
0.25289324 -0.14137608 0.019729646 0.055699337 0.110706486 0.051828373 0.16352832 0.111364424
0.046253014 0.12200687 -0.06381952 -0.0728575 -0.14056715 -0.16744445 -0.0044458834 0.0804317
-0.15400676 -0.12407163 0.15494733 0.060245465 0.078322664 0.065795206 0.074248895 0.06715825
