notebooks/figs/models-for-figs/v_d400.pt (torch, 340475 bytes, 10 tensors)

weight f4 [80, 401]
-0.06849022 -0.035670817 0.023530617 0.14780608 -0.035131454 0.018382339 -0.0014312887 0.022573063
0.0033589092 -0.106158115 -0.002525611 -0.014700241 -0.029570581 -0.030666577 0.025349926 0.017705064
0.03336205 0.07235491 0.024234377 0.03487103 0.026610421 -0.0046650018 -0.11159618 0.07058994
0.0050730007 -0.0057661403 0.03558382 0.047932576 -0.016730223 -0.05598515 -0.089669734 -0.020655978
0.019348089 -0.117215395 -0.026640402 0.015165266 0.026955148 -0.04972194 -0.016175503 -0.16365041
0.043751378 -0.008412348 -0.062931046 0.09075426 -0.09890996 -0.022151103 0.07522209 -0.022181964
-0.11591358 0.029545484 0.08781668 -0.06286496 0.046122 -0.057076026 -0.07749904 0.083149575
-0.00010791341 -0.01998974 -0.06415578 0.03548132 -0.0229058 -0.001986191 -0.015891243 -0.101832524
-0.1721939 0.027229918 0.0043073907 -0.03143648 -0.061484214 -0.026095478 -0.0088539515 -0.02496661
-0.075392 -0.024065413 0.038440604 0.043070484 -0.053109623 -0.052871536 -0.15518892 0.033372752
-0.07075017 -0.020759655 -0.0166882 0.001925436 -0.024720471 -0.06917374 0.023531966 0.05108291
0.022552768 -0.019334758 -0.07552173 -0.04867485 -0.048905622 0.0010799955 -0.05704242 0.054059617
0.08332685 0.06678182 0.08224315 -0.039194897 0.046425086 0.08712275 0.017356308 0.058293413
0.023158452 0.023200998 0.0055614426 -0.008117366 -0.000653554 0.10776933 0.12302103 -0.0095097
-0.0860257 0.0031083098 -0.098988935 0.09695116 0.043685127 0.09184512 -0.0053237774 -0.028565444
-0.046833158 -0.025313223 -0.004299946 0.012346328 -0.06318546 -0.041472353 -0.008208358 -0.03846162
-5.2103453e-05 -0.04233607 0.06850879 -0.08682547 -0.023108603 0.04269057 -0.06634538 -0.091719694
-0.0364154 -0.036389995 -0.02564598 -0.07467335 -0.035001166 -0.0023444297 0.046219856 -0.024691444
-0.035013612 0.0024416314 0.1224886 -0.04309776 0.0922006 0.0018797972 -0.107213125 0.05555345
-0.0372958 0.035572134 -0.009438292 0.103504576 -0.047227934 0.14610146 -0.011386571 0.032454163
-0.00018282779 -0.058591787 -0.0072538136 -0.09218587 -0.074326865 -0.037013363 0.11314912 0.08118849
-0.032568883 0.09919697 0.052492507 0.06711313 -0.041503444 -0.03532364 -0.029631745 -0.017295873
0.027189078 -0.10649363 -0.037375625 -0.023804074 -0.018253693 -0.034201212 -0.07293987 -0.03404396
0.09020196 0.04683774 -0.034420636 0.02349753 -0.021446966 0.055742707 -0.014018369 -0.03746992
0.016740851 -0.015248835 -0.0022219245 -0.10667342 0.07307551 -0.032663815 0.09639645 0.03592549
-0.07036128 -0.043518458 0.036275666 0.013962149 -0.0522457 -0.07297544 -0.09328683 -0.028344847
-0.06385442 -0.074602775 -0.03047764 0.05821173 -0.06555566 -0.030072574 -0.0366412 0.0785672
0.105783395 -0.12572592 0.018752249 -0.14504457 0.018643947 0.011471845 -0.034627892 -0.12866801
0.064766236 -0.031032264 -0.070901014 0.057888106 0.013857541 -0.07030749 -0.08513303 0.033477724
0.06951898 0.05015009 -0.01646646 -0.0737442 -0.0045984685 -0.041090485 -0.04549466 0.010452357
0.04272081 -0.054882675 -0.08233292 -0.057131425 0.05755569 -0.054885052 0.061127882 -0.026785629
0.07421257 -0.03269309 0.003991257 -0.08074313 -0.03572158 -0.0077685453 -0.073309615 0.030802224
00000000: 9a44 8cbd 901b 12bd 48c3 c03c 7a5a 173e
00000010: 00e6 0fbd 8f96 963c 149a bbba 25eb b83c
00000020: 2521 5c3b 6d69 d9bd b984 25bb 48d9 70bc
00000030: 013e f2bc 7938 fbbc a6aa cf3c 360a 913c
00000040: a5a6 083d d02e 943d 2c87 c63c edd4 0e3d
00000050: 19fe d93c dfdc 98bb 8a8c e4bd 7591 903d
00000060: 6a3b a63b e4f1 bcbb 57c0 113d f354 443d
00000070: d20d 89bc af50 65bd c4a4 b7bd ba36 a9bc
00000080: e27f 9e3c a00e f0bd f93c dabc bc77 783c
00000090: 0bd1 dc3c 3ca9 4bbd 7d82 84bc f993 27be
000000a0: a534 333d f2d3 09bc fee1 80bd 5fdd b93d
000000b0: 4e91 cabd 3b76 b5bc 0a0e 9a3d f3b6 b5bc
000000c0: 1964 edbd 5f09 f23c 3bd9 b33d 58bf 80bd
000000d0: 6cea 3c3d 8dc8 69bd d1b7 9ebd 534a aa3d
000000e0: 924f e2b8 86c1 a3bc 1b64 83bd dc54 113d
000000f0: f2a4 bbbc c12a 02bb 5a2e 82bc 928d d0bd
00000100: 9953 30be 4711 df3c 0325 8d3b 8ac3 00bd
00000110: dfd6 7bbd 2fc6 d5bc 2a10 11bc c786 ccbc
00000120: 1f67 9abd d424 c5bc e573 1d3d ad6a 303d
00000130: 7a89 59bd d38f 58bd d8e9 1ebe deb1 083d
00000140: 77e5 90bd 2710 aabc b1b5 88bc e95e fc3a
00000150: 9682 cabc f6aa 8dbd 1cc6 c03c 503c 513d
00000160: 95c0 b83c ed63 9ebc 23ab 9abd 485f 47bd
00000170: 4351 48bd a38e 8d3a 50a5 69bd 9e6d 5d3d
00000180: 44a7 aa3d e8c4 883d 196f a83d d48a 20bd
00000190: 3b28 3e3d 6a6d b23d d12e 8e3c 13c5 6e3d
000001a0: cbb6 bd3c 0510 be3c c33c b63b b3fe 04bc
000001b0: 4453 2bba 2bb6 dc3d 73f2 fb3d 93ce 1bbc
000001c0: 3e2e b0bd c9b4 4b3b b6ba cabd 548e c63d
000001d0: 2def 323d 4b19 bc3d 1573 aebb 1402 eabc
000001e0: 20d4 3fbd ad5d cfbc 90e6 8cbb 4148 4a3c
000001f0: 6167 81bd eade 29bd 597c 06bc ef89 1dbd
00000200: a889 5ab8 9668 2dbd 564e 8c3d 8dd1 b1bd
00000210: 414e bdbc 4fdc 2e3d 16e0 87bd 89d7 bbbd
00000220: 5128 15bd ad0d 15bd 8517 d2bc 57ee 98bd
00000230: 625d 0fbd 01a5 19bb 0851 3d3d b645 cabc
00000240: 6f6a 0fbd c703 203b 4edb fa3d 4787 30bd
00000250: abd3 bc3d 8763 f63a 8e92 dbbd 048c 633d
00000260: 7bc3 18bd 16b4 113d 11a3 1abc 35fa d33d
00000270: 1472 41bd 9f9b 153e be8e 3abc a8ee 043d
00000280: 76b5 3fb9 f1fd 6fbd 66b1 edbb f2cb bcbd
00000290: af38 98bd 539b 17bd baba e73d 2746 a63d
000002a0: f366 05bd c827 cb3d 6202 573d 9c72 893d
000002b0: 84ff 29bd 85af 10bd 46be f2bc 13b0 8dbc
000002c0: a1bb de3c 5519 dabd 2f17 19bd c300 c3bc
000002d0: c588 95bc 9216 0cbd 8061 95bd ae71 0bbd
000002e0: cebb b83d eed8 3f3d a7fc 0cbd e47d c03c
000002f0: 8cb1 afbc 7752 643d 4dad 65bc 0f7a 19bd
00000300: 1c24 893c 40d6 79bc b59d 11bb 9877 dabd
00000310: 9da8 953d 7eca 05bd 816b c53d 9b26 133d
00000320: 9319 90bd 6940 32bd cb95 143d 7fc1 643c
00000330: 96ff 55bd 2674 95bd 2a0d bfbd 7433 e8bc
00000340: 1bc6 82bd 57c9 98bd 3eac f9bc 6c6f 6e3d
00000350: 0c42 86bd c25a f6bc 1515 16bd d7e7 a03d
00000360: f7a4 d83d 4cbe 00be 519e 993c 9086 14be
00000370: 31bb 983c 68f4 3b3c fad5 0dbd 8cc1 03be
00000380: 29a4 843d 6037 febc 8d34 91bd 141c 6d3d
00000390: bd0a 633c 60fd 8fbd 3a5a aebd f01f 093d
000003a0: f85f 8e3d 2e6a 4d3d abe4 86bc 3307 97bd
000003b0: c0ae 96bb 7f4e 28bd 9c58 3abd 5d40 2b3c
000003c0: 04fc 2e3d a8cc 60bd 299e a8bd a402 6abd
000003d0: 84bf 6b3d 26cf 60bd 3b61 7a3d 896d dbbc
000003e0: c3fc 973d 31e9 05bd 17c9 823b a75c a5bd
000003f0: cb50 12bd 488f febb 5a23 96bd f254 fc3c

bias f4 [80]
0.051960893 0.22746164 0.3142156 0.21897794 0.17410998 0.2301959 0.10668536 0.30082577
0.049036104 0.39365894 0.036921863 0.16595395 0.10191772 0.28342843 0.08627004 0.07121398
0.108634196 0.061416477 0.21303006 0.022958023 0.24090278 0.088484906 0.25311723 0.17996354
0.37093 0.095203735 0.32311568 0.16791573 0.055380795 0.1717953 0.07596162 -0.043653987
0.19353633 0.1640673 0.19307068 0.12886412 0.077778906 0.20725726 0.012472227 0.18545035
0.03905607 0.24261445 0.2750065 0.16256091 0.12490067 0.13875426 0.105699554 0.09842595
0.14095384 0.11952948 0.24013208 0.21227354 0.28932795 0.09679122 0.17967066 0.2675805
0.2590711 0.17151767 0.08139778 0.21429381 0.14369051 0.13927692 0.19222544 0.12117381
0.1446422 0.20998785 0.139784 0.17029202 0.20754926 0.16372897 0.26371926 0.2692064
0.23259503 0.077864796 0.072639 0.25297582 0.09013683 0.23617744 0.22350246 0.27480322
00000000: f2d4 543d b4eb 683e dee0 a03e c13b 603e
00000010: e349 323e 79b8 6b3e db7d da3d d605 9a3e
00000020: 15da 483d aa8d c93e 613b 173d d5ef 293e
00000030: 3dba d03d 881d 913e 59ae b03d a3d8 913d
00000040: 9b7b de3d d88f 7b3d 8d24 5a3e 7712 bc3c
00000050: 38af 763e 9337 b53d 9598 813e 5d48 383e
00000060: 89ea bd3e 2dfa c23d 6b6f a53e 1af2 2b3e
00000070: f9d6 623d 1beb 2f3e c491 9b3d 86ce 32bd
00000080: 632e 463e 4201 283e 52b4 453e f5f4 033e
00000090: 8c4a 9f3d 3f3b 543e 5058 4c3c b2e6 3d3e
000000a0: 42f9 1f3d ec6f 783e a7cd 8c3e 5e76 263e
000000b0: eccb ff3d 9915 0e3e 0279 d83d 8b93 c93d
000000c0: 3456 103e dfcb f43d 2fe5 753e 3c5e 593e
000000d0: cb22 943e 7a3a c63d 96fb 373e 5000 893e
000000e0: f8a4 843e 54a2 2f3e e1b3 a63d d66f 5b3e
000000f0: 9b23 133e 9c9e 0e3e bfd6 443e f929 f83d
00000100: 161d 143e 0e07 573e 8923 0f3e 0861 2e3e
00000110: cb87 543e 91a8 273e 3606 873e 6cd5 893e
00000120: 642d 6e3e 9477 9f3d c2c3 943d 0c86 813e
00000130: a999 b83d 80d8 713e d4dd 643e 02b3 8c3e

weight f4 [80, 80]
-0.05163502 -0.12438436 -0.07813827 -0.11398203 -0.0011394669 -0.1125666 0.052126184 -0.124202564
-0.12230083 0.006045485 -0.030674813 0.06675018 0.03711533 -0.092645094 0.11592583 0.004592581
-0.11169746 -0.148657 0.01627563 -0.08515305 0.018033113 -0.11071819 0.04988106 0.12525415
0.052058727 -0.089507714 0.1001 -0.0092748515 0.037019655 0.11918203 -0.025465783 -0.045268733
-0.050679848 0.033452637 -0.055229817 -0.22684716 0.055332262 -0.10140209 -0.16447797 -0.06594684
-0.11746095 0.07355635 -0.0838831 -0.0693818 0.028029205 -0.03293736 0.020789973 -0.037123993
0.0672225 0.029098263 -0.011433566 0.010091858 -0.017956793 -0.06271315 0.078832895 -0.082489416
-0.00024208883 -0.053578842 0.017462598 0.05905054 -0.080990575 0.056606516 -0.18073198 -0.09727276
-0.09580995 0.0471157 -0.0012195362 0.026943 0.025459608 0.08206343 0.012520684 -0.036840387
0.000837778 0.02604815 0.053376503 0.0018681237 0.017540928 0.016638357 0.06893536 -0.0764774
-0.010597217 0.013922978 -0.07442913 1.7564815e-05 -0.042776484 -0.061910708 -0.048985314 0.062183216
0.110616215 0.042142212 0.003064713 -0.050162435 -0.001962887 0.07911691 -0.042141598 -0.06451586
0.032651767 -0.08144596 -0.04769006 -0.013437011 -0.008489521 -0.047606286 -0.05209512 0.012327125
0.001605766 -0.10883099 -0.023657259 0.002203522 0.05391207 0.019578725 0.03994038 0.08431061
-0.056371905 -0.06555954 -0.036929805 0.020037314 -0.037541542 -0.073262736 0.071638316 -0.056648675
0.076972075 0.038038895 -0.006755925 -0.011722635 0.033431165 0.10535175 0.016211119 0.021309128
0.07788908 0.011129463 0.08323323 0.011444261 0.032855686 -0.022425056 0.039100256 0.036851585
0.0268263 0.047022652 -0.052822933 0.04055238 0.0998902 -0.09847559 -0.031589475 -0.019741993
-0.0783517 -0.089634754 -0.010257062 -0.06520996 -0.0037946992 -0.034205735 0.002472753 -0.020500204
0.007430301 -0.023847494 0.078105345 0.047699198 0.03725072 0.009937473 0.04434669 -0.008742923
-0.057871062 0.098042235 0.0067977966 -0.08737239 -0.01793323 0.07713035 0.006741386 0.07694629
0.00241514 0.030015942 -0.068668805 -0.01255911 0.086947314 0.091950126 0.055713814 0.14222443
0.06052566 -0.030833615 0.003373732 0.08243184 0.057962265 0.027574677 -0.008451876 -0.010961611
-0.0035709704 0.08886142 -0.13091399 0.18450475 -0.045080263 0.070551485 0.051527966 0.07680391
0.046488203 0.17868395 0.011188778 0.042265717 -0.007525843 -0.2319361 0.10052826 -0.02071686
-0.018418493 0.0033100015 0.0008002216 -0.09339691 -0.11091614 -0.027452862 0.056751765 -0.049706653
0.13945965 0.103878 0.114373714 0.055779833 0.02503207 -0.102114886 -0.054388914 0.11039162
0.084309004 -0.037166387 -0.10283876 0.13060631 0.10546401 -0.02548364 -0.019803172 0.10141737
0.08811113 -0.024650946 0.038757473 -0.03311105 -0.10559635 0.0025516395 0.014065537 0.08219278
-0.092608385 -0.11712779 0.03561882 0.11510006 0.07093034 -0.041831926 -0.031740062 -0.03517637
0.023128819 -0.08595622 0.049962156 -0.029060258 -0.061116505 -0.009150301 -0.010812705 0.02297322
-0.17527576 0.07587848 0.12236418 0.010022505 0.018010153 0.057349097 -0.07773464 0.04497054
00000000: 3e7f 53bd 3abd febd f506 a0bd 696f e9bd
00000010: 2a5a 95ba 5189 e6bd 4482 553d ea5d febd
00000020: dc78 fabd 3419 c63b bf49 fbbc 52b4 883d
00000030: 3f06 183d b6bc bdbd 866a ed3d 5d7d 963b
00000040: a3c1 e4bd 8a39 18be 7854 853c b964 aebd
00000050: 2eba 933c 38c0 e2bd 1550 4c3d a042 003e
00000060: 883b 553d d24f b7bd 3b01 cd3d 8cf5 17bc
00000070: eca1 173d b515 f43d 9e9d d0bc b56b 39bd
00000080: ac95 4fbd a205 093d a938 62bd 9f4a 68be
00000090: 15a4 623d e6ab cfbd ea6c 28be 230f 87bd
000000a0: 5e8f f0bd b6a4 963d e7ca abbd 0c18 8ebd
000000b0: 819d e53c 53e9 06bd bc4f aa3c 540f 18bd
000000c0: f3ab 893d 7b5f ee3c da53 3bbc 5258 253c
000000d0: 201a 93bc c16f 80bd 2473 a13d 36f0 a8bd
000000e0: 3ad9 7db9 7d75 5bbd b90d 8f3c fbde 713d
000000f0: 63de a5bd 3cdc 673d ce11 39be f136 c7bd
00000100: 0238 c4bd 64fc 403d d8d8 9fba 91b7 dc3c
00000110: ab90 d03c df10 a83d 8e23 4d3c f2e5 16bd
00000120: 549e 5b3a ee62 d53c 52a1 5a3d d4db f43a
00000130: feb1 8f3c 2a4d 883c fb2d 8d3d 2fa0 9cbd
00000140: f39f 2dbc 341d 643c 4d6e 98bd 2758 9337
00000150: 6536 2fbd 1596 7dbd d3a4 48bd d4b3 7e3d
00000160: c18a e23d 509d 2c3d 5ad9 483b 2077 4dbd
00000170: c7a3 00bb 0c08 a23d ab9c 2cbd e420 84bd
00000180: dcbd 053d 24cd a6bd a756 43bd e926 5cbc
00000190: a217 0bbc cffe 42bd b161 55bd b6f7 493c
000001a0: 9178 d23a c8e2 debd decc c1bc f768 103b
000001b0: e7d2 5c3d 9063 a03c 8698 233d 0bab ac3d
000001c0: 3ae6 66bd 1544 86bd b543 17bd 4b25 a43c
000001d0: 29c5 19bd c60a 96bd 1cb7 923d 7108 68bd
000001e0: 89a3 9d3d acce 1b3d ce60 ddbb 4b10 40bc
000001f0: 1eef 083d a9c2 d73d 2ecd 843c 7b90 ae3c
00000200: 4f84 9f3d 5a58 363c 2f76 aa3d b680 3b3c
00000210: af93 063d c0b4 b7bc 9727 203d b0f1 163d
00000220: d4c2 db3c d39a 403d dc5c 58bd 411a 263d
00000230: 3c93 cc3d 92ad c9bd f763 01bd f6b9 a1bc
00000240: db76 a0bd 6d92 b7bd 3c0d 28bc cd8c 85bd
00000250: 7db0 78bb 501b 0cbd e90d 223b 0bf0 a7bc
00000260: e279 f33b d25b c3bc b2f5 9f3d 3c60 433d
00000270: 3694 183d c8d0 223c e0a4 353d 7a3e 0fbc
00000280: 350a 6dbd 5eca c83d 0dc0 de3b 4cf0 b2bd
00000290: b6e8 92bc 84f6 9d3d d8e6 dc3b 0496 9d3d
000002a0: 5347 1e3b fee3 f53c 3ba2 8cbd bac4 4dbc
000002b0: 6f11 b23d 5950 bc3d 2b34 643d 48a3 113e
000002c0: c1e9 773d c796 fcbc d519 5d3b 06d2 a83d
000002d0: d769 6d3d 4ae4 e13c bd79 0abc 5498 33bc
000002e0: f106 6abb fafc b53d 510e 06be d0ee 3c3e
000002f0: 15a6 38bd 4c7d 903d fd0e 533d 5e4b 9d3d
00000300: 6a6a 3e3d edf8 363e 2351 373c d11e 2d3d
00000310: 599b f6bb a880 6dbe c3e1 cd3d 68b6 a9bc
00000320: 61e2 96bc 9cec 583b f6c5 513a e146 bfbd
00000330: 0028 e3bd d3e4 e0bc 8a74 683d 3499 4bbd
00000340: 83ce 0e3e fdbd d43d c43c ea3d 6579 643d
00000350: 0e10 cd3c 9c21 d1bd e9c6 5ebd 0015 e23d
00000360: 33aa ac3d c83b 18bd 219d d2bd a9bd 053e
00000370: 84fd d73d 11c3 d0bc 433a a2bc e9b3 cf3d
00000380: 9c73 b43d c8f0 c9bc 28c0 1e3d 749f 07bd
00000390: e642 d8bd 6839 273b 2373 663c b054 a83d
000003a0: 77a9 bdbd b2e0 efbd 0ae5 113d 95b9 eb3d
000003b0: ed43 913d f457 2bbd de01 02bd 1915 10bd
000003c0: a678 bd3c d109 b0bd 1ea5 4c3d c70f eebc
000003d0: 4d55 7abd 25eb 15bc c627 31bc 5632 bc3c
000003e0: 7d7b 33be 2d66 9b3d 129a fa3d 6f35 243c
000003f0: 078a 933c e3e6 6a3d 5733 9fbd 0733 383d

bias f4 [80]
-0.013052474 0.55419385 0.23331071 0.43732232 0.11823439 0.38367096 0.4313169 0.44932625
0.13254946 0.44622004 0.39657354 0.401931 0.4833272 0.12838757 0.17982835 0.21029383
-0.15391634 -0.011023484 0.5585309 0.27130485 0.12139523 0.085384086 0.054718107 -0.008931355
0.32430395 0.006435982 0.10585484 0.17195679 0.3092755 0.47962216 -0.024724517 0.35669678
-0.042966966 0.1963463 0.1322131 -0.10790721 0.27278766 0.03409408 0.2267687 0.18029305
0.19499552 0.37529698 0.36227435 0.35999322 0.1888906 0.33099183 0.021966467 -0.1502422
0.36125618 0.35472915 0.19548431 0.1512434 0.18244861 0.61184585 0.1985709 0.03986678
0.24872363 0.339792 0.07825424 0.15181763 0.11668685 0.19647144 -0.05729786 0.08551238
0.23247045 0.1390982 0.14116693 -0.16332917 0.39554313 0.23926093 0.15610506 0.30204543
0.26350212 0.23086952 0.16472766 0.08132572 0.27384716 0.46284854 0.18163401 0.20781294
00000000: 0bda 55bc a6df 0d3f 01e9 6e3e b6e8 df3e
00000010: df24 f23d 8570 c43e 92d5 dc3e 170e e63e
00000020: 0cbb 073e f476 e43e b00b cb3e e6c9 cd3e
00000030: aa76 f73e 0878 033e ec24 383e 4457 573e
00000040: 3f9c 1dbe d89b 34bc e2fb 0e3f 78e8 8a3e
00000050: 109e f83d dadd ae3d 1820 603d d154 12bc
00000060: 2b0b a63e eee4 d23b 6cca d83d 7115 303e
00000070: 5c59 9e3e 0991 f53e 128b cabc f6a0 b63e
00000080: 21fe 2fbd 010f 493e df62 073e 75fe dcbd
00000090: d3aa 8b3e 3ca6 0b3d 0e36 683e be9e 383e
000000a0: e8ac 473e ed26 c03e 067c b93e 0851 b83e
000000b0: 8a6c 413e c377 a93e 05f3 b33c 17d9 19be
000000c0: 92f6 b83e 0f9f b53e 0a2d 483e 8ddf 1a3e
000000d0: cfd3 3a3e eea1 1c3f 2c56 4b3e 594b 233d
000000e0: 68b1 7e3e 38f9 ad3e c243 a03d 1576 1b3e
000000f0: 84f9 ee3d cf2f 493e 29b1 6abd 1d21 af3d
00000100: bc0c 6e3e c26f 0e3e 108e 103e c33f 27be
00000110: a184 ca3e d100 753e 01da 1f3e b3a5 9a3e
00000120: c0e9 863e 0f69 6c3e 5eae 283e 198e a63d
00000130: b235 8c3e 7cfa ec3e 44fe 393e eacc 543e

weight f4 [80, 80]
0.017683154 0.05750302 0.0419648 0.1434778 0.038927313 -0.00015359519 -0.062667295 -0.0078019775
-0.098025024 0.042863064 -0.030323343 0.021085074 0.06438511 -0.21051575 -0.060107134 -0.034079652
-0.005692286 -0.0019914478 0.10511184 0.012412334 0.038841452 -0.09063953 -0.0063166795 -0.066238195
0.14997092 -0.08150408 0.0715072 0.044955943 0.07014151 0.13454904 -0.098098084 0.031116942
-0.102281705 -0.1194777 0.090096176 0.11812633 -0.030386783 0.10639092 0.059425227 -0.08695725
-0.0005645473 -0.028415076 0.012691294 -0.07226406 -0.07726623 -0.20900826 0.06705807 0.045207955
0.114601575 0.107128136 -0.18858685 0.024240445 -0.05559462 0.114832565 0.09903746 -0.10849536
0.0057078646 -0.056062926 -0.014245668 0.047682635 -0.123292714 -0.18174137 0.11501792 -0.0036222565
0.14659105 0.14793932 -0.11706488 0.020912476 -0.10738264 0.05756321 -0.037714344 0.035942253
-0.08801393 0.098397225 -0.047108512 -0.091227755 -0.0031773772 0.0801432 0.0003723197 0.060064673
-0.002621191 -0.13866486 -0.053247776 -0.010089146 0.057136282 0.009355185 0.012857708 0.1261884
0.057147212 0.10386848 0.034078248 0.068424135 -0.014300998 -0.11121621 -0.035337906 -0.0442515
-0.010118197 -0.035534497 -0.054175604 -0.085453995 0.07701017 0.0032466887 -0.06354979 0.0002539634
0.019787876 0.026027754 0.039286304 -0.07023374 0.033275522 0.02408819 0.03758703 0.032718573
0.044278927 0.09310866 -0.089859545 0.09046731 -0.048620522 0.035573907 -0.034672882 -0.0410839
-0.058965217 -0.053222656 0.123906784 0.010108245 0.03057099 0.06442533 0.061903752 0.10239999
-0.026161993 -0.019074067 -0.11222199 -0.018289968 0.08099154 -0.06128677 -0.069427386 0.028614769
-0.08865966 -0.06358091 -0.067279905 -0.08969504 -0.08977438 -0.02697431 -0.08329778 -0.04711009
-0.025857996 0.08563644 -0.020412542 -0.14333783 0.046488043 -0.10803342 -0.033679754 0.03889124
-0.14248976 -0.040809993 -0.08579971 0.027496742 -0.10674694 -0.019473791 0.032587957 -0.022393912
-0.033425335 0.025174236 0.026135674 0.048615158 0.0029693001 -0.12807187 0.0481083 0.029732266
-0.07775493 -0.047532428 0.0217799 0.018909646 -0.026625084 0.03713002 -0.09400921 -0.103285894
-0.031547945 -0.0920569 0.048440646 0.050487563 -0.008474223 -0.026684497 0.023267895 -0.04324129
0.034303676 -0.0742126 -0.112133674 0.061969988 -0.007175235 0.086412765 -0.13647448 -0.015713725
-0.03550995 -0.041203424 0.1259528 -0.07411135 -0.06425265 -0.115868375 -0.04150201 0.030898163
-0.13865556 0.096521795 -0.07227415 0.039041426 -0.058012508 -0.02150809 -0.1246873 -0.03614951
-0.019869851 -0.08595411 -0.005095902 0.015157211 -0.14225651 0.026388329 -0.037404697 0.03816091
0.027190765 -0.0802593 -0.04841352 0.039839074 0.009278023 -0.00958453 -0.08779382 0.028555235
-0.06976472 0.06463259 0.013323136 -0.04831562 0.004762678 0.066025384 0.016737157 0.02781469
0.02210047 -0.08290056 0.008734368 -0.0059032855 -0.025403965 -0.109522484 -0.1194917 0.039357916
-0.12854636 0.060269784 -0.04798709 0.011120242 -0.09202361 0.033818487 0.025711577 0.051779203
0.0033847878 0.016210536 0.070876114 0.03534207 -0.061011948 -0.13403209 0.05600088 -0.052784074
00000000: 43dc 903c 4988 6b3d 48e3 2b3d d8eb 123e
00000010: 3f72 1f3d 650e 21b9 b657 80bd bba7 ffbb
00000020: 58c1 c8bd 2e91 2f3d a968 f8bc 9bba ac3c
00000030: 57dc 833d 7191 57be e632 76bd 1b97 0bbd
00000040: 5b86 babb f382 02bb e044 d73d 1a5d 4b3c
00000050: 3718 1f3d 38a1 b9bd 26fc cebb e4a7 87bd
00000060: fa91 193e 9ceb a6bd 5e72 923d b923 383d
00000070: 5aa6 8f3d 39c7 093e a6e7 c8bd f5e8 fe3c
00000080: 1279 d1bd b9b0 f4bd 5884 b83d 38ec f13d
00000090: b4ed f8bc 7ce3 d93d de67 733d a516 b2bd
000000a0: 21fe 13ba bcc6 e8bc 25ef 4f3c 2eff 93bd
000000b0: c23d 9ebd 4306 56be be55 893d fa2b 393d
000000c0: 3bb4 ea3d ff65 db3d e91c 41be e693 c63c
000000d0: 2fb7 63bd 562d eb3d 27d4 ca3d d132 debd
000000e0: 0a09 bb3b 3da2 65bd aa66 69bc de4e 433d
000000f0: e480 fcbd 691a 3abe 848e eb3d 6163 6dbb
00000100: f71b 163e 687d 173e b6bf efbd a450 ab3c
00000110: 6eeb dbbd 67c7 6b3d 5b7a 1abd 2f38 133d
00000120: a640 b4bd 7c84 c93d dbf4 40bd 9ed5 babd
00000130: 8b3b 50bb 1e22 a43d e733 c339 6006 763d
00000140: 4ac8 2bbb 29fe 0dbe 571a 5abd f24c 25bc
00000150: bc07 6a3d 7d46 193c 23a9 523c 8837 013e
00000160: 3213 6a3d ffb8 d43d a295 0b3d f421 8c3d
00000170: bc4e 6abc 53c5 e3bd 7bbe 10bd 1041 35bd
00000180: cbc6 25bc 9f8c 11bd 3de7 5dbd 8102 afbd
00000190: 82b7 9d3d 66c6 543b 6426 82bd 6426 8539
000001a0: 2f1a a23c 2838 d53c adea 203d b5d6 8fbd
000001b0: ea4b 083d 9954 c53c dcf4 193d e903 063d
000001c0: d25d 353d c1af be3d 4808 b8bd ed46 b93d
000001d0: 5026 47bd f2b5 113d 2705 0ebd 9747 28bd
000001e0: 8385 71bd 0000 5abd d7c2 fd3d 0d9d 253c
000001f0: 0370 fa3c 6df1 833d ca8e 7d3d 16b7 d13d
00000200: ad51 d6bc 3841 9cbc a5d4 e5bd d8d4 95bc
00000210: e4de a53d d607 7bbd f22f 8ebd 8569 ea3c
00000220: 3293 b5bd b536 82bd 0cca 89bd 08b2 b7bd
00000230: a1db b7bd 3af9 dcbc 0798 aabd 82f6 40bd
00000240: 26d4 d3bc 2862 af3d 3438 a7bc 27c7 12be
00000250: 3f6a 3e3d a040 ddbd c8f3 09bd 6c4c 1f3d
00000260: d6e8 11be 6128 27bd c2b7 afbd d940 e13c
00000270: 249e dabd 8087 9fbc f37a 053d 7073 b7bc
00000280: 01e9 08bd 333a ce3c 7b1a d63c b020 473d
00000290: 9798 423b 4625 03be 350d 453d 1591 f33c
000002a0: fa3d 9fbd 5db1 42bd c36b b23c 67e8 9a3c
000002b0: d91c dabc a615 183d e787 c0bd 8e87 d3bd
000002c0: 6b38 01bd 5488 bcbd b369 463d 0ccc 4e3d
000002d0: 78d7 0abc 7299 dabc 509c be3c c71d 31bd
000002e0: 0382 0c3d c7fc 97bd 57a6 e5bd 3ed4 7d3d
000002f0: 3c1e ebbb 2df9 b03d f7bf 0bbe 12ba 80bc
00000300: e272 11bd ecc4 28bd c5f9 003e b1c7 97bd
00000310: e596 83bd 664c edbd 03fe 29bd 251e fd3c
00000320: b9fb 0dbe 38ad c53d 7804 94bd e7e9 1f3d
00000330: 869e 6dbd bc31 b0bc 0e5c ffbd 8211 14bd
00000340: 19c6 a2bc b508 b0bd 86fb a6bb f355 783c
00000350: b1ab 11be 562c d83c ab35 19bd 9d4e 1c3d
00000360: 2bbf de3c fd5e a4bd 414d 46bd 4c2e 233d
00000370: d902 183c 6f08 1dbc 3fcd b3bd abec e93c
00000380: cee0 8ebd 175e 843d 4849 5a3c 99e6 45bd
00000390: 3d10 9c3b 5138 873d 5d1c 893c a2db e33c
000003a0: 0b0c b53c c5c7 a9bd 981a 0f3c 5970 c1bb
000003b0: fa1b d0bc 534d e0bd 10b8 f4bd c435 213d
000003c0: a8a1 03be 73dd 763d 1c8e 44bd ad31 363c
000003d0: e076 bcbd 4185 0a3d 16a1 d23c 6e16 543d
000003e0: 51d3 5d3b f5cb 843c 7f27 913d d9c2 103d
000003f0: aae7 79bd b53f 09be 2e61 653d 1d34 58bd

bias f4 [80]
0.34750432 -0.4287581 0.43026024 0.4603842 0.2428862 0.032382216 0.03366022 0.37937084
0.47168595 0.29607242 0.275148 -0.06775637 0.47251606 0.18136033 0.45013934 0.40415537
0.27976793 0.0033622882 0.109527454 0.12670153 0.15366925 0.15019642 0.15534414 0.0066253343
0.23342639 -0.009680639 0.26805922 0.40693882 0.09932363 -0.2469454 0.33156973 0.3314878
0.386892 -0.06811138 -0.021080008 0.48432693 0.40511313 0.29232928 0.55906534 -0.117837526
0.50882566 0.31070143 0.27593467 0.10344057 0.11567256 0.1936318 0.4129489 0.40290993
0.35227042 0.34090248 0.09804519 -0.020466989 0.47037905 0.061572462 0.22380659 0.30273265
0.45700198 0.37339315 0.44328165 0.3973219 0.2156973 0.13962005 -0.04058937 0.16129254
-0.07741392 0.20975067 0.47147533 0.30284104 0.267033 0.49669695 0.30303612 0.42028305
0.1771064 0.15429945 -0.102271184 0.2595204 0.36573464 -0.10300228 0.020968145 0.25225276
00000000: 16ec b13e 2f86 dbbe 124b dc3e 7ab7 eb3e
00000010: 29b7 783e 37a3 043d 4ddf 093d e53c c23e
00000020: d280 f13e ce96 973e 33e0 8c3e dac3 8abd
00000030: a0ed f13e 86b6 393e aa78 e63e 74ed ce3e
00000040: be3d 8f3e d659 5c3b ee4f e03d 0cbe 013e
00000050: 795b 1d3e 17cd 193e 8912 1f3e 5519 d93b
00000060: 5407 6f3e 8b9b 1ebc 0f3f 893e 495a d03e
00000070: 306a cb3d 41df 7cbe 82c3 a93e c5b8 a93e
00000080: b516 c63e fb7d 8bbd fbaf acbc b3f9 f73e
00000090: fd6a cf3e 2fac 953e e81e 0f3f cd54 f1bd
000000a0: 6642 023f 4214 9f3e 4f47 8d3e a6d8 d33d
000000b0: bce5 ec3d 6a47 463e 0a6e d33e 364a ce3e
000000c0: ca5c b43e c58a ae3e ebcb c83d 63aa a7bc
000000d0: 86d5 f03e 6833 7c3d 8e2d 653e c6ff 9a3e
000000e0: 2afc e93e 632d bf3e d0f5 e23e c76d cb3e
000000f0: c1df 5c3e 8ff8 0e3e 0a41 26bd df29 253e
00000100: 308b 9ebd e1c8 563e 3765 f13e fb0d 9b3e
00000110: 8db8 883e 104f fe3e 8d27 9b3e 572f d73e
00000120: 615b 353e ad00 1e3e 8e73 d1bd dcdf 843e
00000130: 9241 bb3e dcf2 d2bd 63c5 ab3c 4627 813e

weight f4 [80, 80]
0.0014200802 -0.06622166 0.044575 -0.030679172 0.13405427 -0.021502545 0.044152122 -0.082310826
-0.036701515 0.09717867 -0.032828595 0.040516354 0.11887459 0.0364652 -0.059362773 0.06924794
-0.041012663 0.019651836 -0.04044869 -0.16248225 -0.028994795 0.0021335836 0.03788078 -0.058529504
0.11408984 -0.0068789874 -0.10440725 0.15455529 0.059367932 -0.048946258 0.038125653 -0.03275325
-0.06766063 -0.112297386 0.022989195 0.033926625 -0.15350205 0.0031992253 0.1760304 -0.00931157
0.059208672 0.017998537 0.0645361 0.010482776 0.05569598 -0.19117302 -0.12629893 0.096147284
0.13301252 -0.15591757 -0.034525737 -0.043696553 -0.044557337 -0.08760803 0.029165963 0.06707172
0.114458814 -0.08910708 0.046995793 0.046697766 -0.0050618537 -0.1127272 -0.13497782 -0.009139796
0.050782897 -0.028461704 0.06587567 0.08159909 -0.20423536 -0.064346366 0.093798935 -0.055588394
0.02439539 -0.06277839 -0.09037875 0.07116809 0.086846925 -0.017568424 -0.13160892 -0.05181492
-0.032298382 -0.077779755 -0.007791477 0.013799744 -0.1022418 0.14047176 0.086413994 -0.1341077
0.13430601 -0.0057207607 -0.0001691522 0.053297777 0.03963549 0.15388137 0.017384967 -0.103778794
0.030923553 0.13662712 0.13218445 -0.024145586 -0.049518216 0.05070696 -0.091785155 0.10109841
-0.07381053 -0.04409227 0.08255966 0.15033482 -0.1490038 -0.06718095 0.1277771 -0.014667483
-0.1276666 0.20334819 -0.045475937 0.049411647 -0.08570259 0.075920016 0.14189689 -0.008727453
0.20451847 -0.07005908 -0.06539737 -0.051453862 0.032863367 -0.0892722 0.06233794 -0.01101386
-0.04591764 0.14182247 -0.08926386 0.07202926 0.18912719 -0.1219066 0.043303527 -0.019268624
-0.13755639 0.009112038 -0.089001566 0.13685733 -0.13811551 -0.10444588 0.16791075 -0.015349632
-0.11096954 0.010644984 -0.04067127 -0.0061838683 -0.09409694 0.06369168 0.06939541 0.073511824
-0.044254087 0.037951503 -0.0814427 0.07104475 0.12596536 -0.02252389 -0.009042333 -0.12394807
0.081601776 0.05556188 -0.02211348 0.0434437 0.0188848 0.019142393 0.06733565 -0.022498755
0.091443345 -0.08127747 -0.07035964 -0.1082955 0.10495744 -0.13206732 0.05743817 -0.12360977
0.09312922 -0.08004501 0.04743829 -0.093061924 0.0032114254 -0.085397445 -0.1289018 -0.041811693
-0.099101126 -0.06604266 -0.08895376 0.12667198 -0.07682715 0.03618147 0.073535904 -0.120992124
0.094563805 0.09382281 0.032878976 -0.013852259 0.10610239 -0.04673358 0.1229856 0.10060229
-0.07794071 0.049117036 -0.015296933 -0.08155897 -0.05919502 -0.05360581 0.094895504 0.060335334
0.03740346 0.10442882 0.056253493 0.055155214 0.17985892 -0.02299267 -0.06468252 0.010149464
-0.060749926 -0.0047545712 0.060806178 0.0902087 0.026378354 0.054607812 0.060972016 -0.052444447
-0.038787715 0.07966134 -0.044266406 0.017661076 -0.22697183 0.14213774 -0.019664546 0.084063955
0.043437477 -0.008500414 -0.06220198 0.063165285 0.08360141 -0.04740837 -0.03746283 0.08659856
-0.0884916 0.035006326 0.25507513 -0.06764436 0.0838182 -0.069098145 0.068572864 -0.13176936
0.118072376 0.080764465 -0.14272751 0.0028726722 0.12210048 0.14662237 0.10027914 -0.050838653
00000000: fc21 ba3a 399f 87bd 4694 363d e352 fbbc
00000010: 8645 093e 1b26 b0bc dbd8 343d 9492 a8bd
00000020: 5454 16bd 9c05 c73d 4777 06bd 7af4 253d
00000030: 8574 f33d 895c 153d 6126 73bd ddd1 8d3d
00000040: e5fc 27bd e3fc a03c 87ad 25bd bf61 26be
00000050: 7e86 edbc 98d3 0b3b e028 1b3d a2bc 6fbd
00000060: efa7 e93d 2169 e1bb 78d3 d5bd be43 1e3e
00000070: ca2b 733d df7b 48bd a529 1c3d 4628 06bd
00000080: a891 8abd 2cfc e5bd d653 bc3c a5f6 0a3d
00000090: a42f 1dbe 18aa 513b 5041 343e 8e8f 18bc
000000a0: cb84 723d ab71 933c 812b 843d f3bf 2b3c
000000b0: 7821 643d dcc2 43be 8254 01be dee8 c43d
000000c0: 6f34 083e dba8 1fbe dc6a 0dbd 28fb 32bd
000000d0: c181 36bd d76b b3bd 75ed ee3c e65c 893d
000000e0: 6269 ea3d c67d b6bd a97e 403d 2846 3f3d
000000f0: e8dd a5bb 85dd e6bd a037 0abe 15bf 15bc
00000100: ba01 503d 8528 e9bc d3e9 863d 6c1d a73d
00000110: 1323 51be 07c8 83bd a819 c03d a8b0 63bd
00000120: d7d8 c73c f591 80bd 7e18 b9bd 93c0 913d
00000130: cddc b13d a8eb 8fbc 7dc4 06be e23b 54bd
00000140: 4f4b 04bd fe4a 9fbd a54f ffbb 5218 623c
00000150: 2664 d1bd d4d7 0f3e d2f9 b03d 8753 09be
00000160: 8487 093e 3875 bbbb 735e 31b9 c54e 5a3d
00000170: d358 223d 1493 1d3e eb6a 8e3c fa89 d4bd
00000180: 6453 fd3c fbe7 0b3e 5c5b 073e f7cc c5bc
00000190: 9dd3 4abd 1ab2 4f3d dbf9 bbbd af0c cf3d
000001a0: fa29 97bd 199a 34bd 0a15 a93d 5ff1 193e
000001b0: 7494 18be 2a96 89bd 00d8 023e e24f 70bc
000001c0: 08bb 02be 823a 503e fa44 3abd de63 4a3d
000001d0: d784 afbd f47b 9b3d 6b4d 113e 97fd 0ebc
000001e0: 4a6d 513e 237b 8fbd 0eef 85bd 49c1 52bd
000001f0: bd9b 063d 58d4 b6bd 1156 7f3d 7a73 34bc
00000200: 2314 3cbd e939 113e f8cf b6bd 1484 933d
00000210: 8faa 413e 2baa f9bd 0a5f 313d 3cd9 9dbc
00000220: 95db 0cbe a84a 153c 7446 b6bd 5424 0c3e
00000230: 276e 0dbe b9e7 d5bd ccf0 2b3e 067d 7bbc
00000240: 0044 e3bd 4d68 2e3c eb96 26bd 0ca2 cabb
00000250: e5b5 c0bd c970 823d 2e1f 8e3d 5e8d 963d
00000260: c643 35bd 0973 1b3d 6ecb a6bd e97f 913d
00000270: 10fd 003e 0584 b8bc 4b26 14bc 7cd8 fdbd
00000280: d51e a73d db94 633d 5427 b5bc 05f2 313d
00000290: 4cb4 9a3c 82d0 9c3c 46e7 893d 4f4f b8bc
000002a0: a646 bb3d cd74 a6bd b718 90bd 08ca ddbd
000002b0: edf3 d63d a83c 07be 4944 6b3d 1e27 fdbd
000002c0: 88ba be3d a3ee a3bd a74e 423d 4097 bebd
000002d0: c776 523b dbe4 aebd d5fe 03be bd42 2bbd
000002e0: 88f5 cabd 6041 87bd 642d b6bd 4db6 013e
000002f0: 8e57 9dbd 0533 143d fe99 963d b8ca f7bd
00000300: abaa c13d 2c26 c03d 1bac 063d 96f4 62bc
00000310: 364c d93d b66b 3fbd e0df fb3d 9308 ce3d
00000320: 619f 9fbd f22e 493d fd9f 7abc 6408 a7bd
00000330: 7a76 72bd c491 5bbd 9358 c23d 2f22 773d
00000340: 5f34 193d c7de d53d 106a 663d 6fea 613d
00000350: f02c 383e 205b bcbc 4578 84bd f049 263c
00000360: ead4 78bd 3ccc 9bbb e60f 793d 57bf b83d
00000370: 6b17 d83c 71ac 5f3d cbbd 793d fdcf 56bd
00000380: dedf 1ebd 7c25 a33d b150 35bd f6ad 903c
00000390: 4e6b 68be 8e8c 113e 8b17 a1bc b929 ac3d
000003a0: 7feb 313d 5245 0bbc 81c7 7ebd cd5c 813d
000003b0: 3737 ab3d 472f 42bd a072 19bd 965a b13d
000003c0: 153b b5bd cb62 0f3d 3599 823e 2089 8abd
000003d0: e0a8 ab3d 5483 8dbd ee6f 8c3d 8cee 06be
000003e0: eecf f13d d767 a53d 2927 12be 7143 3c3b
000003f0: d10f fa3d 2d24 163e 265f cd3d 313c 50bd

bias f4 [80]
0.17000127 0.100955844 0.27731478 0.34819394 0.25718746 0.29175848 0.27617374 0.25461468
0.25282615 0.19203751 0.20074254 0.13821757 0.29171178 0.07764966 0.069784224 0.16247629
0.17466056 0.0022954727 0.26926053 0.35276824 0.22576003 0.23725036 0.33074844 0.28262448
0.20349462 0.33832142 0.19702625 0.23357905 0.017270764 0.1556059 0.14145172 -0.042248834
0.21163923 0.21700747 0.19811735 0.22082017 0.14220473 0.2964412 -0.016843792 0.2830313
0.28969845 -0.00038236132 0.32909873 0.22859181 0.20976414 -0.13703181 -0.09376745 0.31723744
0.17449823 0.22027825 0.20811462 0.17369097 0.2637561 0.32232824 0.19646104 0.16879348
0.34082738 0.00060271804 0.3107903 0.35748273 0.3294072 0.2557971 0.15657096 0.32209963
0.31269866 0.28635395 0.2439973 0.16752595 -0.13970937 0.20117007 -0.07783902 0.2581783
0.22542295 0.33555892 0.29635498 -0.044719663 0.2811351 -0.12571463 0.25045988 0.3071017
00000000: d014 2e3e f0c1 ce3d 34fc 8d3e 7a46 b23e
00000010: 13ae 833e 5e61 953e a566 8d3e db5c 823e
00000020: 6e72 813e 7ba5 443e 748f 4d3e e888 0d3e
00000030: 3f5b 953e c906 9f3d 08eb 8e3d 2f60 263e
00000040: 38da 323e a46f 163b 84dc 893e 0a9e b43e
00000050: a32d 673e c2f1 723e dc57 a93e 28b4 903e
00000060: e560 503e 7738 ad3e 40c1 493e 592f 6f3e
00000070: 6b7b 8d3c 2757 1f3e b8d8 103e 1d0d 2dbd
00000080: f4b7 583e 3537 5e3e 46df 4a3e af1e 623e
00000090: 1e9e 113e 24c7 973e fefb 89bc 7be9 903e
000000a0: 5b53 943e ab77 c8b9 a17f a83e f913 6a3e
000000b0: 69cc 563e 1152 0cbe 2609 c0bd f26c a23e
000000c0: aaaf 323e 9f90 613e 001c 553e 0cdc 313e
000000d0: 0a0b 873e 3508 a53e 152d 493e 33d8 2c3e
000000e0: ed80 ae3e b9ff 1d3a e81f 9f3e fa07 b73e
000000f0: 0fa8 a83e d6f7 823e 2354 203e 3eea a43e
00000100: 0a1a a03e fc9c 923e 6eda 793e ec8b 2b3e
00000110: f90f 0fbe 87ff 4d3e 106a 9fbd f22f 843e
00000120: 46d5 663e 61ce ab3e d7bb 973e f72b 37bd
00000130: f1f0 8f3e 56bb 00be 473c 803e 6f3c 9d3e

weight f4 [400, 80]
-0.12003457 0.12503394 0.008330008 0.025430739 0.060033858 0.028903883 -0.074385285 -0.010941539
-0.11311641 0.09301268 -0.09254782 -0.0021816972 0.21705392 0.106892385 0.005604259 -0.052783348
0.16056563 0.10762278 0.04828699 0.08559536 0.11146013 -0.09549504 -0.09680617 0.047460586
0.13754524 0.17777051 0.028190758 0.092920735 0.04440253 0.23064125 -0.112602286 -0.08737157
0.0052247345 0.008356046 0.08850726 0.1552142 0.099885896 0.10581794 -0.015020208 -0.096502334
0.113551416 -0.08126591 0.032402515 -0.05313562 -0.008083412 0.0695087 -0.010207835 -0.000118858356
0.09053114 -0.035857625 0.045390517 -0.08225288 0.17361307 -0.054126397 0.09688323 0.063838914
0.06562633 -0.041833244 0.16288328 0.13200799 -0.07581487 -0.0576087 0.19094694 0.18969089
0.020492325 0.054518986 0.006107401 -0.059025634 -0.10095672 0.12185897 -0.14463545 0.034057677
0.07929092 0.07985667 0.15631774 -0.01250437 0.14416337 -0.009697183 0.022299046 0.007911395
0.028977979 -0.072380416 0.07169475 0.039455455 -0.036978006 -0.05608109 -0.020452034 0.0060271197
0.14363295 -0.048307557 0.14522095 -0.011892064 0.015680905 -0.043844316 -0.080390476 0.057070304
-0.026277306 -0.010494292 0.06615375 0.1430867 -0.079026245 0.16001181 0.05571579 0.09049537
0.10699788 -0.034878194 -0.02804551 0.069919825 -0.022485066 -0.06294552 -0.04112949 0.025301505
-0.0068585537 0.05369044 0.10259556 0.012191818 0.10315808 0.07484768 0.068109185 0.16666609
0.14887345 -0.037919264 0.015244414 -2.2299226e-05 0.032132477 0.16211031 0.06596165 0.079792745
0.1383772 0.030938478 0.053039853 0.13109282 0.0002469259 0.13028875 -0.051900152 -0.019238051
-0.011906777 -0.0022191755 0.18979178 0.05885326 0.05054943 -0.10147802 -0.017498458 -0.034385335
0.06403814 -0.021412501 0.13998541 -0.008095574 0.122641735 -0.038969778 -0.008399563 0.088534534
-0.06638473 -0.04421834 0.12615862 0.25892797 0.030292207 0.016187673 0.1259002 0.071935676
-0.01474414 0.049606554 0.059823103 -0.016811356 -0.11437613 -0.040849872 -0.028457578 -0.011315951
-0.0028319831 0.011935155 -0.06319623 0.045442797 -0.010061535 -0.11738925 0.013228451 -0.0512212
0.045256335 0.028487794 -0.022673361 0.069382556 -0.05433641 -0.08679699 0.06391324 -0.08697814
0.014827076 -0.04733944 0.036507364 0.012166558 -0.053761378 -0.1071133 -0.027346255 0.06998056
-0.08901731 -0.06763994 0.076555364 -0.048486006 0.073694855 0.05901235 0.009526425 -0.1007967
0.047920965 0.010917653 -0.056397658 -0.05229594 0.028842697 -0.05119502 -0.06808581 0.06288797
0.027075784 0.0004147419 0.09490764 -0.11957864 0.06252159 0.024382984 -0.03069869 -0.045322165
0.072857 0.098755755 -0.09030257 0.0774263 0.022433203 0.020957971 -0.013424319 0.100164026
0.048460826 -0.0419444 0.010789609 0.008492958 -0.06053305 -0.012047139 -0.026031649 -0.07823552
0.07459838 0.012896968 0.012485534 -0.010622464 -0.0216691 -0.06931919 0.08778564 -0.068940304
0.06141939 0.14578801 -0.032262962 0.16704611 0.09311311 -0.035774875 0.023955492 0.14510182
0.08212842 -0.09366207 0.10700066 0.103061646 0.08986719 -0.013846161 0.021505011 -0.06304413
00000000: afd4 f5bd e608 003e 967a 083c 2054 d03c
00000010: 10e6 753d d6c7 ec3c 5057 98bd 2444 33bc
00000020: 94a9 e7bd 6f7d be3d b689 bdbd cefa 0ebb
00000030: 6243 5e3e 65ea da3d efa3 b73b 5a33 58bd
00000040: 516b 243e 5569 dc3d 94c8 453d 9f4c af3d
00000050: 3545 e43d e792 c3bd 5042 c6bd 0866 423d
00000060: a9d8 0c3e 7909 363e 4ef0 e63c 3a4d be3d
00000070: 6ddf 353d 382d 6c3e 079c e6bd deef b2bd
00000080: 4034 ab3b cce7 083c 4b43 b53d 79f0 1e3e
00000090: fa90 cc3d 13b7 d83d 5217 76bc 04a3 c5bd
000000a0: a58d e83d be6e a6bd 80b8 043d bca4 59bd
000000b0: 4a70 04bc 945a 8e3d c33e 27bc 9843 f9b8
000000c0: 6468 b93d 72df 12bd 68eb 393d 3374 a8bd
000000d0: a0c7 313e a4b3 5dbd b76a c63d fabd 823d
000000e0: 1967 863d 5659 2bbd e0ca 263e 1a2d 073e
000000f0: d444 9bbd 1af7 6bbd 9887 433e 543e 423e
00000100: 85df a73c 4d4f 5f3d 9820 c83b ddc4 71bd
00000110: 66c2 cebd 3291 f93d 511b 14be 1080 0b3d
00000120: 4763 a23d e58b a33d c211 203e 21df 4cbc
00000130: 909f 133e efe0 1ebc 7dac b63c cc9e 013c
00000140: 3a63 ed3c 2f3c 94bd b2d4 923d 0b9c 213d
00000150: 4076 17bd 49b5 65bd 068b a7bc 257f c53b
00000160: 8414 133e 25de 45bd cdb4 143e eed6 42bc
00000170: 3e75 803c 1996 33bd c3a3 a4bd 8dc2 693d
00000180: 8143 d7bc 40f0 2bbc 9e7b 873d 5285 123e
00000190: 83d8 a1bd 23da 233e 3d36 643d a355 b93d
000001a0: b421 db3d 70dc 0ebd b3bf e5bc 2032 8f3d
000001b0: 9a32 b8bc 95e9 80bd 6577 28bd 1a45 cf3c
000001c0: b8bd e0bb 82ea 5b3d 9f1d d23d 31c0 473c
000001d0: 8b44 d33d be49 993d d47c 8b3d 84aa 2a3e
000001e0: 4872 183e 3b51 1bbd b5c3 793c 390f bbb7
000001f0: 589d 033d 3f00 263e e716 873d 616a a33d
00000200: c1b2 0d3e b172 fd3c 5140 593d 323d 063e
00000210: d575 8139 6a6a 053e 4195 54bd 1e99 9dbc
00000220: a414 43bc 966f 11bb c758 423e 1e10 713d
00000230: eb0c 4f3d b5d3 cfbd ed58 8fbc a3d7 0cbd
00000240: 6e26 833d 4569 afbc 5658 0f3e 4ca3 04bc
00000250: 972b fb3d c69e 1fbd 529e 09bc 9851 b53d
00000260: b8f4 87bd 4a1e 35bd ba2f 013e 3592 843e
00000270: 5d27 f83c 039c 843c fbeb 003e 0353 933d
00000280: 6891 71bc 3e30 4b3d 1209 753d f8b7 89bc
00000290: 083e eabd 3252 27bd de1f e9bc 8a66 39bc
000002a0: cb98 39bb ab8b 433c 066d 81bd 3a22 3a3d
000002b0: 23d9 24bc c669 f0bd 25bc 583c 52cd 51bd
000002c0: b55e 393d 3c5f e93c 7cbd b9bc 7118 8e3d
000002d0: db8f 5ebd 9fc2 b1bd f2e4 823d 9821 b2bd
000002e0: 44ed 723c 00e7 41bd bf88 153d 3e56 473c
000002f0: e434 5cbd 385e dbbd 4105 e0bc f851 8f3d
00000300: b54e b6bd cf86 8abd 0fc9 9c3d 4399 46bd
00000310: 54ed 963d efb6 713d b914 1c3c 806e cebd
00000320: c648 443d f5df 323c 3b01 67bd 4534 56bd
00000330: 8547 ec3c dfb1 51bd 9370 8bbd 68cb 803d
00000340: 09ce dd3c b771 d939 f05e c23d a5e5 f4bd
00000350: 520b 803d d3be c73c d27b fbbc bca3 39bd
00000360: 0d36 953d 7540 ca3d 8ef0 b8bd ae91 9e3d
00000370: d6c5 b73c 0db0 ab3c adf1 5bbc cc22 cd3d
00000380: dc7e 463d e4cd 2bbd e6c6 303c 0c26 0b3c
00000390: 81f1 77bd 5d61 45bc 5340 d5bc f239 a0bd
000003a0: 09c7 983d ce4d 533c 2090 4c3c d809 2ebc
000003b0: 6583 b1bc 38f7 8dbd f5c8 b33d 9330 8dbd
000003c0: e692 7b3d 7449 153e 2b26 04bd 230e 2b3e
000003d0: 16b2 be3d ad88 12bd 4f3e c43c 9295 143e
000003e0: f232 a83d e6d1 bfbd 2923 db3d fc11 d33d
000003f0: 4a0c b83d 02db 62bc 472b b03c 481d 81bd

bias f4 [400]
0.12012476 0.06328665 -0.10605155 0.16165437 -0.01277229 0.12216452 0.026774848 -0.028491514
-0.023335436 0.117918424 0.03400076 -0.00032155376 -0.008878328 0.036167365 -0.04933349 -0.024587212
-0.14775583 -0.16997527 0.004305208 0.15278742 -0.05978997 0.22816348 0.011246766 -0.047815677
0.13065167 -0.13438341 0.07682426 -0.110487945 0.14688851 0.09728995 0.15393375 0.039830323
0.11939448 0.05063827 -0.005063603 -0.033153895 -0.023588587 0.030433664 0.118974335 0.121184826
0.041402318 0.012705587 -0.0650219 0.11441523 0.124873586 0.04540127 0.018731873 -0.0026324438
-0.04883812 -0.01757151 -0.06311839 0.14306827 -0.07879436 0.12864476 -0.1309862 0.07337027
-0.105838835 0.089838654 -0.010852965 -0.08101209 -0.09026538 -0.1054876 -0.057195194 0.14810117
0.051422264 0.03619104 0.14147355 0.146042 -0.060585614 0.09817631 0.093081035 0.095816836
0.048628084 -0.10173346 0.19824895 -0.15122175 0.12285582 0.20018244 -0.064366415 -0.0046019787
-0.030417485 0.03920145 0.19100872 -0.071333826 0.013159419 -0.10313224 -0.055901412 -0.07948083
-0.02275651 0.07683383 0.0038530594 -0.080658734 0.015974922 -0.119033314 0.14555514 0.1012013
-0.09995765 0.0047091115 0.05323176 -0.04145076 -0.03979037 0.077289276 0.026446916 0.07898024
0.050817292 -0.1891482 0.13869892 -0.081915624 -0.20343359 -0.021834671 0.1766191 0.17389415
0.040991083 0.23302443 0.03633102 0.10465643 0.1287233 0.1645168 0.075897254 0.038910568
-0.07221205 0.07264088 -0.091183834 -0.11671427 0.015441501 0.037822526 0.049159985 -0.15816
0.03364359 -0.023180662 0.024716595 -0.0010287948 0.07715077 0.12416332 -0.013401698 -0.11112859
0.16753046 -0.080478445 -0.0013652784 -0.04688522 0.18665355 -0.09604311 0.21529734 0.19806844
-0.031898946 0.04117548 0.05917268 -0.14666195 0.033513445 0.018537233 0.078931175 0.024096895
0.03774876 -0.12637348 -0.012675385 0.1809622 0.061729454 -0.00065894 -0.03983681 0.0069904653
0.1279342 0.12029651 0.0587221 -0.047169246 0.0463666 -0.09414944 -0.058955815 0.0283046
0.113806605 0.10115586 -0.16842282 0.10184445 0.15288146 0.051265348 -0.118696004 -0.049495842
-0.008117468 0.2025271 0.014195209 -0.15991887 -0.13019948 0.124680564 -0.111934625 -0.014088125
0.13754544 -0.024939133 -0.12654127 0.12990558 -0.14338198 0.10095987 0.19857836 -0.09241318
0.0041130306 0.022666004 0.025670176 -0.122903556 -0.020619255 0.00413616 -0.005587475 -0.06260113
0.059740048 0.035565346 0.021442086 0.1836563 0.0520243 0.0004359359 -0.14609474 0.0060489583
0.15510985 -0.019024257 -0.11905151 0.14064498 -0.0015401534 -0.06886774 -0.11037562 0.06019662
0.060695503 -0.03872665 -0.1370549 -0.10040382 -0.19089623 0.18271822 -0.02265987 -0.07905936
-0.14018515 -0.020556262 -0.17993888 0.027504321 0.2270233 -0.050031874 -0.19528449 0.09204276
-0.046402417 0.054718733 -0.11141408 -0.0071626017 -0.045100182 0.22399396 0.104488544 0.047008567
-0.12730265 -0.10187602 0.026871482 0.09960483 0.08253507 -0.031560592 -0.042087656 -0.009521515
0.15502629 0.07700752 0.14752033 -0.10611973 0.025470445 0.0013330692 -0.06874134 -0.09056887
00000000: f803 f63d 6e9c 813d 8e31 d9bd b988 253e
00000010: de42 51bc 6431 fa3d ed56 db3c 0967 e9bc
00000020: f529 bfbc 377f f13d 6244 0b3d 3796 a8b9
00000030: 6876 11bc 3b24 143d ea11 4abd 1f6b c9bc
00000040: 4e4d 17be ff0d 2ebe b412 8d3b 4e74 1c3e
00000050: 54e6 74bd b0a3 693e 5b44 383c 5fda 43bd
00000060: 8dc9 053e ce9b 09be 0a56 9d3d 8147 e2bd
00000070: f169 163e f43f c73d cfa0 1d3e 1f25 233d
00000080: 1885 f43d 136a 4f3d 95ec a5bb 61cc 07bd
00000090: da3c c1bc 0550 f93c d1a8 f33d c02f f83d
000000a0: 7a95 293d 182b 503c 342a 85bd 8852 ea3d
000000b0: b9bd ff3d aff6 393d 9673 993c 1485 2cbb
000000c0: 7b0a 48bd 21f2 8fbc 3744 81bd 7d80 123e
000000d0: f05e a1bd 74bb 033e 3f21 06be 2743 963d
000000e0: 08c2 d8bd 54fd b73d a2d0 31bc abe9 a5bd
000000f0: 0edd b8bd e209 d8bd 8245 6abd d5a7 173e
00000100: 27a0 523d 0e3d 143d 71de 103e 098c 153e
00000110: 9f28 78bd a910 c93d 45a1 be3d 9e3b c43d
00000120: 3e2e 473d a259 d0bd c601 4b3e e0d9 1abe
00000130: d59b fb3d a0fc 4c3e 8ad2 83bd 32cc 96bb
00000140: 172e f9bc b391 203d ca97 433e 7817 92bd
00000150: 9b9a 573c ff36 d3bd e1f8 64bd d8c6 a2bd
00000160: dc6b babc 0e5b 9d3d 9c83 7c3b 6830 a5bd
00000170: d7dd 823c bdc7 f3bd 680c 153e a142 cf3d
00000180: 99b6 ccbd e44e 9a3b 8c09 5a3d 46c8 29bd
00000190: 3afb 22bd d749 9e3d 34a7 d83c 64c0 a13d
000001a0: cb25 503d 11b0 41be 1707 0e3e 61c3 a7bd
000001b0: e550 50be a0de b2bc a3db 343e 4f11 323e
000001c0: 44e6 273d f59d 6e3e d6cf 143d 1c56 d63d
000001d0: 0ad0 033e 1877 283e 0570 9b3d b060 1f3d
000001e0: e9e3 93bd bec4 943d 97be babd e407 efbd
000001f0: 59fe 7c3c cbeb 1a3d fb5b 493d b2f4 21be
00000200: dccd 093d 5fe5 bdbc 757a ca3c a0d8 86ba
00000210: 3901 9e3d 5749 fe3d cc92 5bbc 6397 e3bd
00000220: 1b8d 2b3e e2d1 a4bd 24f3 b2ba b70a 40bd
00000230: 1c22 3f3e 40b2 c4bd e876 5c3e 74d2 4a3e
00000240: 78a8 02bd 9fa7 283d 0d5f 723d 8d2e 16be
00000250: 6545 093d 65db 973c aba6 a13d da66 c53c
00000260: 729e 1a3d 0d68 01be 6bac 4fbc 284e 393e
00000270: 06d8 7c3d b7bc 2cba ec2b 23bd 4610 e53b
00000280: 2f01 033e 045e f63d 9686 703d 8a34 41bd
00000290: e7ea 3d3d 6cd1 c0bd a77b 71bd 0cdf e73c
000002a0: 7013 e93d ce2a cf3d 0877 2cbe d393 d03d
000002b0: f58c 1c3e 9dfb 513d e416 f3bd 27bc 4abd
000002c0: 21ff 04bc 4463 4f3e 0693 683c c6c1 23be
000002d0: 0353 05be 8658 ff3d fb3d e5bd e1d1 66bc
000002e0: b6d8 0c3e 274d ccbc 0994 01be f805 053e
000002f0: bad2 12be 0cc4 ce3d 2058 4b3e 1f43 bdbd
00000300: 9ac6 863b 0eae b93c 434a d23c dcb4 fbbd
00000310: b6e9 a8bc a088 873b 2317 b7bb 0535 80bd
00000320: fbb1 743d f8ac 113d 50a7 af3c 6610 3c3e
00000330: 6f17 553d 538e e439 dc99 15be 5736 c63b
00000340: 1ed5 1e3e c2d8 9bbc 47d1 f3bd 3d05 103e
00000350: f9de c9ba 880a 8dbd 9d0c e2bd bb90 763d
00000360: d99b 783d d69f 1ebd 1f58 0cbe 85a0 cdbd
00000370: 4d7a 43be 7c1a 3b3e 31a1 b9bc e0e9 a1bd
00000380: b28c 0fbe 9b65 a8bc e641 38be be50 e13c
00000390: cc78 683e 39ee 4cbd a8f8 47be ea80 bc3d
000003a0: 7610 3ebd c020 603d 112d e4bd 42b4 eabb
000003b0: f8ba 38bd ac5e 653e 17fe d53d 0e8c 403d
000003c0: a05b 02be 60a4 d0bd 9521 dc3c 9efd cb3d
000003d0: 2608 a93d ae45 01bd 1b64 2cbd 2100 1cbc
000003e0: 36bf 1e3e 1eb6 9d3d 920f 173e 4d55 d9bd
000003f0: 65a7 d03c 61ba ae3a 42c8 8cbd 2c7c b9bd
